model_params/model_params_10.pth (torch, 74912 bytes, 7 tensors)

rnn.weight_ih_l0 f4 [128, 6]
000000 88 7e c2 3c a5 15 89 3d 66 d3 52 3d b4 b9 45 be
       0.023741975 0.066935815 0.051471137 -0.19309121
000010 51 ea 47 3d f0 7e 91 3d 06 a9 4d 3d 65 ab 82 bd
       0.048807446 0.071042895 0.05021002 -0.06380347
000020 2e 4e 4c 3d 2c d2 db bd 81 04 99 bc 6c ef 1f 3c
       0.049879245 -0.107334465 -0.018678905 0.0097616725
000030 56 ce 4f 3d 87 53 e8 3a 2e f3 a5 bd a5 1c bd be
       0.050733887 0.0017725088 -0.081030235 -0.36935917
000040 1a 46 2a 3d b8 e7 7c bb 93 fe 9f bd 74 56 24 bd
       0.04157076 -0.0038590264 -0.07812228 -0.04012151
000050 bd b2 a1 3d 9e 89 87 3d dd 58 03 3d 43 a1 59 bd
       0.0789542 0.06618045 0.03206717 -0.053132307
000060 f4 47 9c 3c 1e 7c 05 bd 91 9b ae 3d dd a8 69 3d
       0.019077279 -0.03258907 0.08525766 0.057045806
000070 11 fc 29 3c 29 99 0f 3d 4d 8a 9b 3d da 7e bf 3d
       0.010375039 0.035058174 0.07594738 0.09350367
000080 00 9e e9 3c f5 b2 ab be 3f e5 61 bd cb b4 da 3c
       0.028517723 -0.3353497 -0.055150267 0.026697537
000090 a0 67 7b bb b2 b3 b2 3c 70 bb f1 3b c5 90 0b 3e
       -0.0038361326 0.021814201 0.0073770806 0.13629444
0000a0 c4 aa 12 3c 27 33 e8 bc 18 a6 f2 bc 7c 69 85 bd
       0.0089518465 -0.028344704 -0.029620215 -0.0651426
0000b0 68 c3 93 bd 4f 15 2e 3e 56 96 9b bd 26 6b a9 bd
       -0.07215005 0.17000316 -0.07597034 -0.0827239
0000c0 c3 b5 1d bd 47 e4 0b 3d 2c d5 97 3c 45 83 85 3e
       -0.03850342 0.03415325 0.018534265 0.26076713
0000d0 35 c8 8f bd fa 81 8a 3d 50 b0 1a bc 63 a9 d2 3d
       -0.07020608 0.06763072 -0.00944145 0.10286214
0000e0 18 f7 98 bd b5 36 a7 be 16 67 d5 bc 1b 30 b8 bd
       -0.074690044 -0.32658926 -0.026050132 -0.089935504
0000f0 0c 28 da 3c 43 0c 92 3d 04 bf 89 bc c0 55 7d be
       0.026630424 0.07131245 -0.016814716 -0.24739742
000100 2c 03 c2 bc d8 d8 20 bd 08 9d e9 3c b2 80 87 3d
       -0.023683153 -0.0392693 0.028517261 0.066163436
000110 df 17 5e bd 9d aa 94 be 83 43 a1 3d 31 ab 92 bd
       -0.054221984 -0.29036418 0.07874205 -0.071615584
000120 e8 52 ad 3c 43 55 b3 bd f2 ba 3e 3d e7 de ac 3e
       0.021157697 -0.08756497 0.046565004 0.3376381
000130 6d 5f 50 3d e2 d7 fa 3c 52 d4 5e 3d a4 00 1e bd
       0.050872255 0.03062052 0.054401703 -0.03857483
000140 82 6f 5f 3d dc cc d3 bd d8 ff 11 3d 92 cb 5a bd
       0.0545497 -0.10341808 0.035644382 -0.053416796
000150 00 37 a4 39 31 82 34 bd a4 74 f2 3c fa 61 82 3d
       0.00031321496 -0.044069473 0.029596634 0.06366344
000160 7b 2c 8d bd 6c 22 0e bd 8b 37 9f 3d 8e eb a8 bd
       -0.068932496 -0.034700796 0.07774266 -0.082480535
000170 68 90 60 bc b8 53 8b bd 7c 2e 06 bd 8c 11 50 3d
       -0.013706304 -0.068030775 -0.032759175 0.050797984
000180 0f d0 95 3d 61 bf d8 3b f8 54 96 3c b9 8b 1b bb
       0.07315075 0.006614611 0.018351063 -0.0023734404
000190 79 8e 05 bd 27 17 ed 3b 12 36 3c 3d c2 55 a2 3d
       -0.032606576 0.007235426 0.045950003 0.07926513
0001a0 12 00 7e bd 3e 56 2b 3e 17 13 76 3c 80 af 1c 3d
       -0.062011786 0.16732118 0.0150192 0.038253307
0001b0 fc 8b b6 bc 72 3c ce bc 87 13 0a bd 6e 0a b7 3b
       -0.022283547 -0.025175307 -0.03371003 0.00558596
0001c0 51 cb 53 bb 6f 58 10 3c 0f f7 a4 3d 3d b6 96 bd
       -0.003231723 0.008810147 0.08054935 -0.07358978
0001d0 63 cc 0b bd 34 1c bf 3e fd a0 1d bd 41 1a 26 3d
       -0.034130465 0.37326205 -0.03848361 0.04055238
0001e0 10 e7 2e bd cf aa 7a 3b c0 30 b4 ba 7a 85 9c be
       -0.042700827 0.0038248783 -0.0013747439 -0.30570585
0001f0 d1 8f 16 bd a8 53 d4 ba 8f 83 3d bd 2c 7a 80 3d
       -0.036758248 -0.0016199248 -0.046268042 0.062733024
000200 da d6 84 bd 97 63 b8 be b2 a9 5b 3d 0c b0 51 bd
       -0.06486292 -0.3601348 0.05362863 -0.051193282
000210 10 18 db bc a3 d3 c7 3c 48 3f e1 3c c0 a3 d0 bc
       -0.026744872 0.024392908 0.027495995 -0.025468707
000220 13 78 c6 bb 9a 24 35 3d 48 0e 6d bd dc fd a3 3d
       -0.0060567944 0.04422436 -0.057874948 0.08007404
000230 58 28 77 3c 00 5f f0 bd ea 73 86 3d 09 02 1a 39
       0.015085302 -0.1173687 0.065650776 0.00014687343
000240 77 0a b0 3d 1b 1b c0 3c 8c 8c 86 3c 85 1c 43 3d
       0.08595746 0.023450425 0.01642444 0.04763462
000250 9b a2 f1 bc f7 8f b0 3d b8 29 48 bd fa ee 88 bd
       -0.029496482 0.08621209 -0.04886791 -0.06686206
000260 d2 6b 65 3d 0a 40 b7 3e 7a 7e 82 3b 72 3e 6a bd
       0.05601103 0.35791045 0.0039823623 -0.05718846
000270 80 df 25 3c c3 fa 27 bd 87 8b a5 bd 07 86 94 be
       0.010124087 -0.04101063 -0.08083253 -0.29008505
000280 8d 19 84 bc 7e cb 1f bc f4 a5 82 3c 6d 93 87 3d
       -0.016125465 -0.009753106 0.015948273 0.06619916
000290 20 fc 35 bb de 34 6b be 8c 58 2f bc b3 09 04 bd
       -0.0027768686 -0.22969386 -0.010702264 -0.032235812
0002a0 8a cd 51 3d 46 75 fe bc 53 f3 87 3d ab 22 d5 3d
       0.051221408 -0.03106178 0.06638207 0.10407003
0002b0 f8 57 55 bd c0 d2 8c 39 68 c1 9c 3c d6 e3 67 bd
       -0.052085847 0.00026859902 0.019135192 -0.056613766
0002c0 79 85 68 bd d0 8e 5f be 95 d5 06 3d 3a c0 1f 3b
       -0.056767914 -0.21831822 0.03291853 0.002437605
0002d0 e1 7e b2 3d c0 fd f6 3a 46 38 7f 3d 63 53 29 3e
       0.087156065 0.0018843934 0.062309526 0.16535716
0002e0 fe 5c 1c 3d 24 d4 94 bd 40 59 de 3c 16 a6 97 3d
       0.03817462 -0.07267025 0.027142167 0.07404725
0002f0 6e ef f3 bc 41 1e 98 3d 43 f7 ab 3b 4d 11 fd bc
       -0.029777255 0.074276455 0.0052479818 -0.030892039
000300 e7 51 a7 bd 7b 40 7f 3a be b6 72 3d 75 7a b0 3e
       -0.081699185 0.00097370864 0.059256308 0.34468427
000310 ee b1 7c b9 b4 59 18 bd a0 87 54 bb 07 7d 91 3c
       -0.00024098877 -0.037194923 -0.0032429472 0.017759813
000320 46 c2 8f bd 4b 56 48 be d1 c4 d1 3c 94 33 c5 bd
       -0.070194766 -0.19564168 0.025606545 -0.09628978
000330 80 c8 0d 3d 80 18 9c 3c 30 3c ca 3c ca 9f 8a be
       0.03461504 0.019054651 0.024686903 -0.27075034
000340 a7 4d 2b 3d 65 6a c4 bd dc ed c1 bc 25 a3 af 3d
       0.041822102 -0.09590606 -0.02367299 0.08576039
000350 5c 9d e7 3c fd 1f 8e be f8 93 22 bd 2c 99 c9 bd
       0.028273277 -0.2775878 -0.039691895 -0.09843668
000360 3e 44 4d 3d 5a b9 29 b9 e9 bc 88 3d 14 7b 69 3e
       0.05011391 -0.00016186145 0.06676657 0.22800857
000370 99 a3 3c 3d b1 c1 af 3d b7 27 8c 3d f1 76 03 3d
       0.046054456 0.085818656 0.068435125 0.032095853
000380 e4 0a 8b bc a4 43 6d 3d 9d 45 91 3b 6f 6e 7d 3d
       -0.016972966 0.057925835 0.0044333474 0.061872896
000390 60 a3 24 bc 7e ad 0c bd 4a f3 7d 3d 4d b7 8f 3e
       -0.010048717 -0.034345143 0.061999597 0.28069535
0003a0 be a3 18 3d 26 bf 22 bd b8 d5 7f bc e4 d5 77 3d
       0.03726553 -0.039733075 -0.015614919 0.060506716
0003b0 00 19 0a bb 83 5b c3 be 1e 18 57 bd 1d 22 2c bc
       -0.002107203 -0.38155755 -0.052513234 -0.01050618
0003c0 49 c8 8c 3d d8 2b 18 bd 81 7b 94 3d b8 b3 59 be
       0.06874139 -0.037151188 0.07250119 -0.21259964
0003d0 ca 12 bb 3c 00 00 8c bd c1 05 8e 3d a5 72 22 b8
       0.022836108 -0.068359375 0.06934691 -3.873058e-05
0003e0 40 7f 98 3c 6b 62 00 be 87 60 b1 3d 73 05 79 3c
       0.018615365 -0.12537543 0.08660989 0.015199053
0003f0 b2 f6 3e 3d 40 7c 83 bd db 20 ab 3d 3d 6c 4d bc
       0.046621986 -0.06420183 0.08355876 -0.012538013

rnn.weight_hh_l0 f4 [128, 128]
000000 b3 dd a1 3c b2 79 8d bd 51 90 38 bd 22 dd 5d 3c
       0.019759035 -0.06907977 -0.045059506 0.013541492
000010 1f 98 aa 3d 68 78 33 bd 5b d7 98 3d 83 95 21 3d
       0.08329796 -0.043816 0.07462951 0.039449226
000020 f7 7b 78 3d 1f 65 e0 bd 74 80 49 bc 73 25 1b 3b
       0.060665097 -0.10956787 -0.012298692 0.0023673445
000030 d1 e8 14 bd 32 f2 b4 3c d2 1a 76 bd b8 ae e9 bd
       -0.036354844 0.022088144 -0.06008417 -0.11410278
000040 47 84 1c bc 9d 45 e2 bc d0 3c c6 3d ae 20 bd 3d
       -0.009553022 -0.027621085 0.09679568 0.09234749
000050 8d e4 6f bb d3 a7 57 3d f7 f9 fd 3c 8b 17 80 bd
       -0.0036604733 0.052650284 0.031002982 -0.062544905
000060 50 1a 76 3d f5 5d 8b bd 8d e2 d4 3d c9 00 ef 3d
       0.060083687 -0.0680503 0.10394774 0.11670072
000070 dc 3d b7 bb c0 af a5 bd 53 c9 d5 bd ee b8 c9 3c
       -0.005592091 -0.08090162 -0.1043879 0.024624314
000080 f6 32 b1 3d f1 80 10 3c dc 77 91 3d 02 1c 09 bd
       0.08652298 0.0088198045 0.071029395 -0.033473976
000090 8c a7 74 3d ad 22 9c bc 86 c3 04 3d 99 ff c3 3d
       0.059730098 -0.019059503 0.03241303 0.09570236
0000a0 e0 31 b7 bb 51 c4 f0 3c 09 77 3b 3d 89 77 9a bd
       -0.0055906624 0.029390486 0.045767818 -0.07542331
0000b0 e5 c2 74 3d 57 4b c9 bc 6e 8b 3c bb 4d 09 56 3d
       0.05975618 -0.024572058 -0.002876963 0.052254964
0000c0 82 20 8a 3d 0d 0c 0e 3d 59 ea b0 bd fd 74 16 3d
       0.067444816 0.03467946 -0.08638448 0.036732662
0000d0 64 3a b3 3d ac a0 3d bd e5 66 86 3d ee a5 34 3d
       0.087513715 -0.046295807 0.06562594 0.044103555
0000e0 a2 c7 ab bc 15 26 92 bd be f3 98 3c 45 88 1a 3d
       -0.020969216 -0.0713617 0.018670913 0.037727613
0000f0 f0 76 1b 3c 46 0b 5a 3d 30 b7 0c bd aa 59 07 bd
       0.009488806 0.053233407 -0.03435439 -0.033044495
000100 f1 0d 91 3a 4e 00 66 bd 10 42 15 3d 01 f1 ca bc
       0.0011066777 -0.056152634 0.036439955 -0.024773123
000110 0a e6 bc 3d 46 97 18 bd 14 0b fb 3c d8 0d 0a bd
       0.09223564 -0.03725364 0.03064493 -0.03370461
000120 18 ab 08 bd 22 bd 34 3d ee cd 05 bc a1 3f 14 bd
       -0.033366293 0.044125684 -0.008166773 -0.036193494
000130 53 1f 0d 3d e4 04 9c 3c 69 3f 8a bd 11 82 83 bd
       0.0344537 0.0190453 -0.06750376 -0.064212926
000140 14 36 90 bd ec f7 61 bd cf 1d 2d 3d ac 9d fb 3c
       -0.070415646 -0.055168077 0.042264756 0.030714832
000150 e2 f8 9d 3d 87 3b d4 bb 05 8f 0f 3b 7f fa a4 3d
       0.07713486 -0.006476823 0.0021905315 0.08055591
000160 a0 f1 ab bc 1f 38 e2 3b a0 b2 c3 3c 78 f6 6e bd
       -0.02098924 0.006903663 0.023888886 -0.05834052
000170 4d fe 67 bd 58 f6 0e 3d d6 9c b2 bd 4b 1b 7a bd
       -0.056639004 0.0349029 -0.0872132 -0.061061185
000180 da 29 c5 bd eb 61 dc 3c 39 4d 4b bc fa 87 6f 3d
       -0.09627123 0.02690216 -0.012408548 0.058479287
000190 b1 0e 61 bd c5 b6 ae 3c 41 1c 7b bc a1 92 02 bd
       -0.05494565 0.021327386 -0.0153265605 -0.031878117
0001a0 a1 fb 1a 3d 4f 23 60 bc d1 f3 29 bb 5b 52 ba 3c
       0.03783763 -0.013680293 -0.002593268 0.022744348
0001b0 10 39 b6 3c 6a 1e ff 3c 30 e8 05 3d 23 71 bb 3d
       0.022244006 0.031142432 0.032692134 0.091524385
0001c0 6c 5e 94 bd 58 4c 5c bd 35 e4 a9 bd 4b 6e b1 bd
       -0.07244572 -0.053783745 -0.0829548 -0.08663615
0001d0 ea 3e cd 3c f2 48 5a 3d d8 40 86 bd 16 53 c0 bc
       0.025054414 0.053292222 -0.06555337 -0.023477118
0001e0 a2 81 82 3d d1 71 34 bc 70 3a 79 bc 38 76 bf bd
       0.06372382 -0.011013464 -0.0152116865 -0.0934872
0001f0 70 46 a3 3d 78 a7 88 3d 70 5f a2 bd 9d 2a 92 3d
       0.07972419 0.06672567 -0.079283595 0.07137034
000200 90 2b 9d 3b 5c a3 d8 3d 1a b5 d9 3d b9 94 e4 bc
       0.004796453 0.10578033 0.106302455 -0.027902948
000210 1d 14 3b 3d 1d 8e 4a bd a3 3d 47 3d b4 71 45 3d
       0.04567348 -0.049451936 0.048642766 0.04820414
000220 e6 69 86 bc 34 d7 4d 3d bd ee ae 3d 84 c8 b8 bc
       -0.016407918 0.05025406 0.085416295 -0.02255655
000230 96 50 e8 bd cc 47 ec 3d a5 14 ec bd fb 26 48 3d
       -0.113434955 0.11537132 -0.11527375 0.0488653
000240 52 a9 ea 3b 47 24 3b 3d c3 ec c5 3c 0b 8d 81 bd
       0.007161298 0.045688894 0.024160748 -0.0632573
000250 77 12 03 3e 31 7f 0a 3c d3 7b 91 bd 7e 02 0e 3d
       0.12800013 0.008453176 -0.07103696 0.034670345
000260 2d cb 7c 3d 35 bb 07 be f3 86 c4 3d bb 0e 2c bd
       0.0617172 -0.13255008 0.09596052 -0.042006236
000270 13 6d c1 bd c5 55 7a 3d 70 15 40 bd e0 60 50 bd
       -0.094446324 0.061116952 -0.046895444 -0.050873637
000280 7f e8 d0 bc f8 1b b9 3d 10 bd c3 3c ce e1 1b bb
       -0.025501488 0.09038538 0.023893863 -0.0023785713
000290 77 a5 a3 bd 26 a3 72 bb 32 11 ac 3d 95 51 b4 3d
       -0.07990544 -0.0037023514 0.08401717 0.08804623
0002a0 2d 86 ca 3c 7f 0c 63 3d 9e 10 20 3d 71 06 33 3d
       0.024722183 0.05543184 0.039078347 0.043707315
0002b0 4b 6b ff 3b 15 8e 0f be 86 2f b5 bc b1 cb b1 bb
       0.0077947727 -0.14019044 -0.022117388 -0.0054258932
0002c0 c0 bd 81 3c 03 d7 94 3d 2c 12 ab 3c 22 8c 2a 3d
       0.01583755 0.07267573 0.020882688 0.041637547
0002d0 57 d3 84 3d e3 90 06 bd 0a f2 58 3c 79 01 2e 3c
       0.064856224 -0.03285302 0.0132413 0.010620468
0002e0 62 dd e3 bc 10 8a 5b bd 96 bb fa bc 1f a5 9c 3d
       -0.027815524 -0.053598464 -0.030607026 0.07648682
0002f0 c1 7c 55 3c 09 8c ac 3d aa 9a cd 3d 63 e3 26 3d
       0.013030232 0.08425147 0.100392655 0.040744197
000300 de 3a 0c 3c 19 af d8 3c 1b d2 4d bd 3f 5c a9 3b
       0.008558957 0.02645068 -0.0502492 0.0051684673
000310 20 00 f6 3c ac 02 dd 3a a7 8b 0b bd 79 4e 88 bd
       0.030029356 0.0016861758 -0.03406873 -0.066555925
000320 6c 17 7d bd 41 b6 61 bc 65 15 c2 3d f6 97 4b bd
       -0.061789915 -0.013776363 0.09476737 -0.049705468
000330 93 ea 60 bd 88 8f 23 3d 45 a3 51 3b e2 b0 41 3d
       -0.054911207 0.039931804 0.0031988185 0.04728783
000340 64 26 9f 3d 63 78 a2 bc 5f 88 bd bd 61 d7 8a bd
       0.07770994 -0.019832795 -0.09254526 -0.067793615
000350 c0 81 ae bc e3 7e 09 3e d9 44 2b 3c e4 a8 3e 3d
       -0.021302104 0.1342731 0.010453426 0.046547785
000360 55 af b7 bd 11 dc 58 bd d4 83 de 3c fb 93 e3 bd
       -0.08968989 -0.052944247 0.02716247 -0.111122094
000370 51 61 23 3d 15 4f d0 bc 94 02 cd ba 1a 38 04 3e
       0.03988773 -0.025428334 -0.0015641027 0.12912026
000380 b7 3f 56 3d 9a 5d 85 3d ee 94 06 be ff c2 24 bd
       0.052306857 0.06511994 -0.1314275 -0.040225025
000390 67 b0 70 bd 1d fa 89 3d 2d d8 b2 bd 65 c8 46 3d
       -0.05876198 0.067371584 -0.087326385 0.048530955
0003a0 ad 29 30 3d 8b 4c 69 3d 20 1c aa bd bb d6 b2 bd
       0.043008495 0.056957763 -0.08306146 -0.08732363
0003b0 db df c1 3d de 95 2a 3d f5 c3 1b bd 00 9f e8 3d
       0.09466525 0.04164683 -0.038028676 0.11358452
0003c0 34 b6 8a bd 76 52 ae bd 42 a4 e9 bc 58 77 df bd
       -0.06773034 -0.08511822 -0.028520707 -0.10911435
0003d0 f3 2a 07 bd 70 79 01 bb 3e fa 3b bb fd 4c 34 bc
       -0.032999944 -0.001975622 -0.0028683092 -0.011004684
0003e0 36 73 9b bd 5a 29 12 3d 9b 3c 0a be d4 a6 da 3d
       -0.07590334 0.035683967 -0.13499682 0.10676351
0003f0 2f 71 e3 bd e6 63 3e 3c 40 13 ab bd 41 cc a6 3d
       -0.111055724 0.011620497 -0.08353281 0.08144427

rnn.bias_ih_l0 f4 [128]
000000 d7 4f 98 bd 79 8b 9b bd 60 b1 95 3b 4e 05 bd bd
       -0.07437103 -0.07594962 0.004568264 -0.092295274
000010 e1 36 65 bd d8 e4 43 bd 3e a0 fd 3c 98 b5 03 bd
       -0.05596054 -0.047825664 0.030960198 -0.032155603
000020 39 7d 42 3c 65 b0 a4 3c 3e e6 87 bd 5c bb ad 3c
       0.011870676 0.020103643 -0.06635712 0.021207504
000030 4a 9a 72 3d 3e 8e dc bd 57 68 71 3d 93 e0 d7 3c
       0.059229173 -0.10769318 0.058937397 0.026352203
000040 3b 9d 0d 3d a9 df f5 3c 9a b7 dc 3c 72 3a 86 3d
       0.034573775 0.030013876 0.026943017 0.06554116
000050 66 53 7b 3b af 50 d9 bc 8c 47 9c 3d fe 80 5a 3d
       0.003834927 -0.02652773 0.07630834 0.053345673
000060 e2 17 c8 3c 58 c8 87 bd 20 c5 99 bd 45 fc 0c bd
       0.02442545 -0.066300094 -0.07508302 -0.03442027
000070 b0 3a ab 3b 4d 57 ed 3b a0 8a 89 3d 63 df 5d 3d
       0.005225502 0.007243073 0.06715894 0.054168116
000080 41 10 a4 3c cf 67 1c bd 0f 63 cb bd 43 4a 2e bd
       0.020027282 -0.038184937 -0.09931003 -0.04255129
000090 76 2a a3 bc 7c f5 a4 bd fc 78 39 3b 3b 49 7e bd
       -0.019917708 -0.08054635 0.0028300872 -0.062081557
0000a0 79 96 06 3c fa b2 a0 bd af 3d 96 3d c0 c9 a4 bc
       0.008214586 -0.07846637 0.07335984 -0.020115733
0000b0 9d f3 a1 bc b8 a6 6c 3d 5f b3 1b 3d 05 73 8d 3d
       -0.019769484 0.057776183 0.03801286 0.06906704
0000c0 16 33 38 3d d8 f1 f6 3c d6 e1 12 bd 56 bb 08 bd
       0.044970594 0.030144617 -0.035859905 -0.033381782
0000d0 64 ad 01 bd 25 4a 26 3d 57 85 92 bd 9d 84 ad 3c
       -0.0316595 0.040598053 -0.07154339 0.021181399
0000e0 30 f6 eb bc 2c fc 92 bd be 99 c2 bc 95 88 5d 3d
       -0.028803915 -0.07177004 -0.02375495 0.054085333
0000f0 04 e1 44 bc c9 55 5c ba 96 b5 75 bc 89 c3 00 3d
       -0.0120165385 -0.0008405117 -0.014996907 0.031436477
000100 d7 30 a9 bd cc 04 35 3d 89 07 a1 3a 10 ca 05 bd
       -0.082612686 0.044194028 0.0012285571 -0.032663405
000110 1a b3 1e bd e0 20 28 3b 3c 76 39 bd 3c 7e 89 3d
       -0.038745023 0.002565436 -0.045278773 0.067135304
000120 9c 4b 0a 3d fe 3c e3 bc c3 01 8b bd f2 d7 4a bd
       0.033763513 -0.027739044 -0.067874454 -0.049522348
000130 0d fa 86 3d 07 0a 16 3c bd b0 b0 bd cf ad 1c 3d
       0.06590662 0.009157664 -0.0862746 0.038251694
000140 28 79 de bc 00 c1 24 bd f2 ec ae 3d 0a d8 bb 3d
       -0.027157381 -0.04022312 0.085412875 0.091720656
000150 6a 2d b3 bd 35 a7 20 bd c6 42 ea 38 e6 1e a1 3d
       -0.087488964 -0.03922196 0.00011170427 0.078672215
000160 6a 59 c1 bd 8d 3c e1 3c 92 bc 0b bd f1 17 27 3d
       -0.094408825 0.027494693 -0.03411538 0.040794317
000170 e7 92 9c 3c 65 4e 4b 3d e6 38 e1 bb a2 1e bd bd
       0.019113017 0.04963531 -0.006873238 -0.09234358
000180 ae bf ab bd 75 d2 5f bd 13 a2 72 bd a7 c1 b0 bd
       -0.083861694 -0.054644067 -0.059236597 -0.08630686
000190 e1 ab 35 bd c3 a0 3e 3c 03 08 b5 3c f9 0f 7d 3a
       -0.04435337 0.011635008 0.022098547 0.0009653564
0001a0 cd 59 5f 3c 01 df 9d bd 06 17 57 3d 19 7a 14 bd
       0.01363225 -0.0770855 0.05251219 -0.036249254
0001b0 5e ee 18 bd f1 92 73 bd 19 80 82 bb 5b 42 52 bd
       -0.0373367 -0.059466306 -0.0039825556 -0.051332813
0001c0 1c 97 79 bd 05 e5 aa bc b2 54 84 bd 29 73 58 3d
       -0.060935125 -0.020861158 -0.06461467 0.0528442
0001d0 40 48 73 bd 53 46 bc 3d 91 89 70 3d df cc 57 3d
       -0.059395075 0.09193101 0.058724944 0.052685615
0001e0 89 d2 85 bb 9e 32 fd bc a2 93 a1 3d 12 2c 82 bb
       -0.0040839356 -0.030907925 0.07889487 -0.0039725387
0001f0 49 44 f5 3c bb 5f e8 3c da 9d c6 bc e2 f2 86 bd
       0.029939787 0.02836596 -0.024245191 -0.06589295

rnn.bias_hh_l0 f4 [128]
000000 c1 14 da bc b0 4f c0 bd 90 11 e6 3c 8e 08 8a bd
       -0.026621224 -0.09390199 0.028084546 -0.06739913
000010 e1 b1 9a 3d c6 f3 52 3d af 30 12 3d d9 ac 33 bd
       0.07553459 0.05150201 0.03569096 -0.043866012
000020 51 78 95 bd aa a1 97 bd 6d b7 00 3d a6 e5 75 3d
       -0.07298339 -0.07403882 0.03142493 0.060033463
000030 32 cc 3d 3c 74 d8 f4 3c 99 57 18 bd 6d 6a 4f bd
       0.0115843285 0.02988837 -0.037192915 -0.050638605
000040 38 b3 d1 bc a2 4b 3a bd bb 64 18 bd a1 8f 6c 3d
       -0.025598153 -0.045482285 -0.03720544 0.057754163
000050 cd b1 a7 ba 27 3b a1 3d c3 29 75 bd 2e 42 66 3d
       -0.0012794078 0.078726105 -0.05985428 0.056215458
000060 9c 08 fb 3c 42 97 85 3d a8 47 a3 3d 9e ba 21 bb
       0.030643754 0.06522991 0.07972652 -0.0024677883
000070 39 19 3c bd 9c 6e b3 3b 6f 9c 73 bd e3 f9 16 3d
       -0.04592249 0.005475832 -0.05947536 0.036859404
000080 33 f9 09 3c 03 fd 50 bc e2 a4 70 3d c5 8f e3 bb
       0.00842123 -0.012755635 0.058750995 -0.006944629
000090 f4 ff d6 3c c1 4e c8 3c 70 2f f8 3c b9 cc 40 3d
       0.026245095 0.024451615 0.030296057 0.04707024
0000a0 15 7b 63 3c e9 40 70 bd eb 4f 63 bd 33 be 00 bd
       0.0138843255 -0.058655653 -0.055496138 -0.031431388
0000b0 c4 fe 26 3d 5e 8f 3a 3d 3f ec 97 3d 64 41 6c 3c
       0.040770307 0.04554688 0.07418107 0.014419887
0000c0 c1 69 65 bd ce 59 b2 3a 25 89 f0 bb 1f d2 9e 39
       -0.056009058 0.0013607086 -0.0073405677 0.0003029266
0000d0 1b a5 ee 3b bc 6e 9b bc 54 d2 44 bd 28 a6 3f bd
       0.0072828657 -0.0189737 -0.048052147 -0.04678932
0000e0 fc 37 e6 3c 2a 00 9f 3d 41 60 67 bc 8f 60 e1 bd
       0.028102867 0.07763703 -0.01412207 -0.11004745
0000f0 bf a0 97 bd 49 9d 09 3d d4 99 c5 bd 2c e7 ca 3d
       -0.07403707 0.033597264 -0.09648481 0.09907374
000100 17 25 28 3d 0e ae b4 3d 4a 76 93 bc 8c ec ff bb
       0.041050997 0.08822261 -0.01800074 -0.007810181
000110 3b 7b 9d bc 57 80 d2 bd b9 56 31 3c a1 9d 94 3a
       -0.0192238 -0.10278385 0.010823899 0.0011338481
000120 f5 cb d4 3a 7b 49 07 bd ae fd 11 3d f8 64 82 bd
       0.00162351 -0.03302906 0.03564232 -0.063669145
000130 43 0b 07 3c e5 03 f9 bc 59 c0 3b 3d 5d 94 18 3d
       0.008242431 -0.030397365 0.045837734 0.037250865
000140 78 b0 54 bc 8c b9 81 3d 46 43 6d 3a dc ed a9 3d
       -0.012981527 0.063342184 0.0009050857 0.08297321
000150 01 f6 2d bc 50 01 64 3c 29 7c b2 3d 08 15 b8 bb
       -0.010617734 0.013916329 0.08715088 -0.0056177415
000160 c4 72 a9 bd 61 9b 49 bd ae 88 a8 3c 6a 87 c4 bc
       -0.08273843 -0.049220446 0.020572986 -0.023990352
000170 32 b5 48 3d 75 3c 49 3d 2f 63 39 bc 8b 4f 8f 3b
       0.049000926 0.049129922 -0.011315151 0.004373496
000180 75 0b ca bc b0 5c 94 3d 51 7c 84 3d 15 5b 73 3d
       -0.024663666 0.07244241 0.06469024 0.059413034
000190 82 ad 01 3d 76 f6 aa bd 6e 50 29 3d b2 55 83 bb
       0.03165961 -0.0834779 0.04133647 -0.0040080184
0001a0 2e 84 36 3d ad 31 c5 bd f9 cf ac bd 71 6d ee bc
       0.04455965 -0.096286155 -0.08438105 -0.02910492
0001b0 1c d4 17 3d d7 41 aa 3d 62 2e 4f bd 99 b9 d3 3b
       0.037067518 0.08313339 -0.050581343 0.006461334
0001c0 c3 fe da bc 5a 94 34 3c 9b 86 86 3c e6 a0 91 bd
       -0.026732808 0.011021698 0.016421607 -0.07110767
0001d0 7f 0a 42 3d d2 03 80 bd 80 96 b7 bd 51 6e ce 3d
       0.04737329 -0.06250729 -0.089642525 0.10079635
0001e0 21 91 a8 3c 26 41 a8 3c 1e 65 a0 bd af f6 98 3c
       0.020577015 0.020538878 -0.078317866 0.018672315
0001f0 fb dc 3a 3c b6 d1 29 3d 3c be 0c 3d c2 58 d9 bd
       0.011405225 0.04145976 0.03436111 -0.10612632

actor.weight f4 [3, 128]
000000 58 bd 26 3d cc b3 86 3d 43 45 16 3e 66 ef c8 3d
       0.040707916 0.06577262 0.14674859 0.09811287
000010 30 c3 a9 bc d6 8b 16 3e 14 02 86 bd 2c 03 30 3d
       -0.020722955 0.1470178 -0.06543365 0.042971775
000020 96 73 fd bd e1 ed 30 3e 5f 9d e9 3d 02 78 2a 3e
       -0.12375562 0.17278244 0.11406969 0.16647342
000030 7f 90 04 be f8 4e ed 3d c7 77 84 bd 5c 89 30 bd
       -0.12945746 0.11587328 -0.06468158 -0.043099746
000040 5c 2a 89 3d 6b 18 2a be 58 2c bf 3d 03 25 33 be
       0.066975325 -0.16610877 0.0933463 -0.17494588
000050 58 f0 08 3e a4 32 38 3e e5 f7 76 bd 3a 54 b5 3d
       0.13372934 0.17988068 -0.060295004 0.088539556
000060 99 08 d5 bd ba 2d fb bd 52 ef f0 3d 16 aa b0 3d
       -0.104020305 -0.12264581 0.11764397 0.08626191
000070 7e f3 97 bc 40 1a a9 3d d9 c1 40 3b 0a ef e3 bd
       -0.018548723 0.0825696 0.0029412417 -0.111295775
000080 3d fe bb bd 50 21 f9 3d 06 f1 23 3e 0d f5 01 3d
       -0.091793515 0.12164557 0.16009912 0.03172784
000090 0c da bf bd 83 5c c8 bd 3b d2 c2 3c 53 95 3a 3e
       -0.09367761 -0.0978327 0.023781886 0.18221025
0000a0 e5 ee 6c 3d f0 d9 1b 3b 62 9c b4 3d f4 bc 24 bc
       0.057845015 0.0023781024 0.0881889 -0.010054816
0000b0 ef 19 33 be ec c6 90 bd 30 5b 1a 3d 91 2d af bd
       -0.17490362 -0.07069191 0.03768462 -0.08553613
0000c0 a7 9c dc bd be ec 04 bd 39 08 17 3d db 03 02 be
       -0.107720666 -0.032452337 0.036873076 -0.12696783
0000d0 35 7a ef 3d 1f cb 10 be f7 31 1c 3e 78 c2 69 3d
       0.11693231 -0.14139985 0.15253435 0.057070225
0000e0 2b 3c 0c be ce c9 95 3d cd 97 11 3d 5f 46 a8 3d
       -0.13694827 0.07313882 0.03554516 0.08216547
0000f0 35 b3 8d bb 22 21 19 3e f0 1e 18 3e 1c bb e4 bd
       -0.0043243417 0.14954045 0.14855552 -0.11168501
000100 8a 27 9c bd a3 19 69 bc 03 82 de bd 70 5d 56 3d
       -0.07624729 -0.014227304 -0.108646415 0.052335203
000110 4b ec 54 3d de 77 00 3e 5e 30 a5 3d ac 9c 23 3d
       0.05198316 0.12545726 0.08065866 0.039944336
000120 a9 e3 a1 bd dd 27 bd bd 08 3f 3e 3e f8 dd 40 3e
       -0.07904751 -0.09236119 0.18578732 0.18834674
000130 bf 18 08 bd f5 c9 ff 3d ec 67 13 bd 05 a2 94 bd
       -0.033226725 0.12489692 -0.03598778 -0.07257465
000140 12 28 28 3e 4b 3f 25 3d 6e 91 a4 bd 5b b2 57 3c
       0.16421536 0.040343564 -0.08035551 0.013165082
000150 3e 5d 8a bc 03 3b 0a 3e 40 07 37 3d c4 8e c8 bd
       -0.016890164 0.13499074 0.04468465 -0.097928554
000160 a6 72 4d bd 4f c8 0b be 9b 60 3d bd 61 20 78 bd
       -0.050158165 -0.1365063 -0.04623471 -0.060577754
000170 8e e5 2b 3e 6d 15 13 be f3 00 8d 3d 50 90 13 3e
       0.16786787 -0.14363642 0.06884947 0.1441052
000180 0d 86 0e 3e 42 66 5f bd 25 54 1e be 2b 3c b5 bd
       0.13918324 -0.05454088 -0.15461786 -0.08849367
000190 e5 f2 22 3e 10 27 92 3d a9 44 91 bd 91 2c 8e 3d
       0.1591297 0.07136357 -0.07093174 0.06942094
0001a0 73 58 05 be 20 68 14 3e a6 e2 82 3c 80 5c 38 be
       -0.13022022 0.14492846 0.015977215 -0.18004036
0001b0 f3 2d e4 3d b1 96 24 3e 7e a0 2b 3d 2f cc c6 3d
       0.111415766 0.16073109 0.041901104 0.09706914
0001c0 50 4a 59 3c c1 3c 07 3d d9 08 e5 bd 28 48 86 bd
       0.013262346 0.033016924 -0.11183328 -0.065567315
0001d0 55 35 3a 3d 21 3b 0f be 4c c3 ec 3d 52 66 eb 3d
       0.045461018 -0.139874 0.115606874 0.114941254
0001e0 a0 4f 4b bd c1 fb a6 bd 9b 88 1d be c1 86 35 3e
       -0.049636483 -0.08153487 -0.15384142 0.17727186
0001f0 a9 9c eb bd ca fc c2 3d 47 ec 11 3e 2b 37 11 bd
       -0.1150449 0.09520872 0.14250289 -0.035453003
000200 6e 8d 61 bd 69 90 e2 bd e8 54 20 be 82 be e8 3c
       -0.05506652 -0.110627 -0.15657389 0.028411154
000210 60 9c bb 3b 01 49 e8 bd 1e 3a ce 3d dd 2b 17 3e
       0.0057254285 -0.113420494 0.10069679 0.14762826
000220 2e 0b e9 3d 8b 10 4d be 4e 0d 35 be 99 a0 33 be
       0.113790855 -0.20025842 -0.17680857 -0.17541732
000230 19 76 10 3e 30 c7 4a bd 0b 59 ec 3d 54 9d 10 bd
       0.1410755 -0.049506366 0.11540421 -0.03530629
000240 f2 9f 72 bd 12 4c b5 3d 65 82 3f bd 5c f5 6c 3e
       -0.059234567 0.088524 -0.046755213 0.23140472
000250 df 81 c1 bc 5d 15 5f be 8a 5d d0 bd a0 7a 97 bd
       -0.023621498 -0.21785493 -0.10174091 -0.07396436
000260 92 82 79 3c 14 49 2d 3e 0d 9b 32 be c2 a9 b3 3b
       0.015228884 0.16922408 -0.1744196 0.005482883
000270 a7 b1 7d 3d 02 2a cd bd f7 ae 0b 3e 56 e8 ec bb
       0.061937 -0.10017778 0.13640963 -0.007229845
000280 39 4d 3e 3e fa 29 12 be 94 b4 f7 bd eb 69 40 be
       0.18584146 -0.14273825 -0.120949894 -0.18790404
000290 61 48 27 3e 97 2a 4d 3d c0 b8 3d 3e 42 bf 79 be
       0.16336204 0.050089445 0.18527508 -0.24389365
0002a0 41 27 0c be 0a a6 81 bd 97 a5 cc 3c 34 89 00 3d
       -0.13686849 -0.063304976 0.024981303 0.031380847
0002b0 73 5a 46 3e 47 d3 8f 3d 95 a5 be bc c5 80 2c bc
       0.19370441 0.0702272 -0.023272315 -0.010528748
0002c0 fc 1a 9b 3d 83 0b 51 3d d4 9e 2f be fe 4b 07 3e
       0.07573506 0.05103637 -0.17150432 0.13212582
0002d0 9c 51 89 bd 4f 32 14 3e d6 9e 8d bc 35 91 32 be
       -0.06705019 0.14472316 -0.017287653 -0.17438205
0002e0 e0 d7 7a 3e 3e b9 43 be 2a ec 19 3e 74 52 c0 bd
       0.24496412 -0.19113633 0.15031496 -0.09390727
0002f0 f1 3c dd 3d dc d5 46 be 88 73 b1 bd de 34 2b 3e
       0.10802639 -0.19417518 -0.08664614 0.16719386
000300 ea bd c5 3d 82 e0 01 be cc 06 4e 3e 21 90 3b 3c
       0.09655364 -0.12683299 0.2011978 0.011447937
000310 f5 a3 3d be 5d 0c d2 bc 00 80 a4 bd 4a e2 d7 3d
       -0.18519576 -0.02564066 -0.080322266 0.10541208
000320 c8 37 af 3d cd 31 04 3e 64 b0 58 be 1c 25 b8 bd
       0.08555561 0.12909622 -0.21161038 -0.08991453
000330 9b 2e 13 be 8c d2 0d be dd 7c 6e 3c 93 88 93 3b
       -0.14373247 -0.13849849 0.014556137 0.004502365
000340 e9 b5 7a bd fd 8b 2d be 6f 1a 27 3c 1b b3 f9 3d
       -0.06120864 -0.16947933 0.010199173 0.12192365
000350 d4 0c a3 bd 9a 08 2b be fa f9 cf bd 8d fc 93 3d
       -0.07961431 -0.167025 -0.10155101 0.072259046
000360 13 c3 15 3e da b7 29 3e bc 7f 07 3e be c4 0f 3d
       0.14625196 0.1657404 0.1323232 0.035099737
000370 c4 da cd bd 23 21 12 3e b1 06 6a bd 4a c5 83 bd
       -0.10051492 0.14270453 -0.057135288 -0.06434114
000380 8f 09 e8 bd c2 d5 f5 3c 3a 3c 9f 3c 8d 49 13 3d
       -0.11329948 0.030009154 0.019437898 0.035958815
000390 1b 35 56 be 5d 67 2e be a0 d8 ef bd 65 57 f8 bd
       -0.20918696 -0.17031617 -0.1171124 -0.12126044
0003a0 c1 5d 1f 3c d5 d7 a4 bd 2b 2a 1a 3e 8e d8 55 3e
       0.0097269425 -0.08048979 0.15055148 0.2088339
0003b0 be 8e e1 bd c2 d1 be 3c a4 29 ab bd 9a 42 0a be
       -0.11013554 0.02329338 -0.08357552 -0.13501969
0003c0 9e 38 c3 3c d2 d5 df 3d 5a 32 69 3e f1 3e f3 3d
       0.023830708 0.10929455 0.22773114 0.118772395
0003d0 f0 de 38 be 4f 8f 2a 3e 74 57 92 bd ae 3e 80 bc
       -0.18053794 0.1665623 -0.071455866 -0.015654888
0003e0 aa 90 36 3e cc 77 74 bc 8c cf 9c 3c c6 e5 64 be
       0.17828622 -0.01492114 0.019141935 -0.22353277
0003f0 fa 99 b5 3d c9 c1 38 be 0d 4c f4 bd 5e f3 53 3d
       0.08867259 -0.18042673 -0.11928568 0.051745765

actor.bias f4 [3]
000000 52 57 8d bd ce 10 ef 3c 12 07 03 3e
       -0.06901421 0.029182818 0.12795666

critic.weight f4 [1, 128]
000000 c5 88 76 bd a0 cd 5b bd 14 b9 fc 3b 72 2c c8 bc
       -0.060189027 -0.053662896 0.0077124927 -0.024435256
000010 c5 58 8b bb 1e 57 39 b7 4e 01 55 3c 4c d6 a9 bb
       -0.0042525255 -1.1047143e-05 0.013000799 -0.005183017
000020 78 14 b7 bb 28 ab c6 bc 8f 40 92 bc 44 41 95 3c
       -0.005587157 -0.024251536 -0.01785305 0.018219598
000030 75 1c 16 bb a2 02 74 bd a7 17 7b 3b 9c 8f e5 bc
       -0.0022905145 -0.059572823 0.0038313658 -0.02802258
000040 58 cd f6 3a 25 91 8b 3c b3 45 00 3d a0 de 94 3c
       0.0018829508 0.017036984 0.03131647 0.018172562
000050 16 e9 f0 3c 54 cd 82 3b 76 cd ed bc 2e 91 3e bd
       0.029408019 0.003991762 -0.029028635 -0.046525173
000060 b2 34 a2 3c 98 87 a2 bc 92 f9 79 3c df 92 4b 3c
       0.019800518 -0.019840047 0.015257256 0.0124251535
000070 e8 c2 81 bb a7 36 f0 3c 30 8e 87 bc b9 50 7f bc
       -0.003960002 0.029322935 -0.016547292 -0.015583211
000080 b5 25 b9 3b 35 80 67 bc 1a 29 00 b8 20 5b 03 bd
       0.005650247 -0.014129688 -3.0555857e-05 -0.032069325
000090 20 20 87 3c 70 8a 3a 3c fb 91 e8 3c 1b cd 69 bc
       0.01649481 0.011385545 0.028389921 -0.014270092
0000a0 a8 e2 1b 3d 2d 76 1a 3d 5a 85 47 3c 9b 68 e9 bc
       0.038057953 0.037710357 0.01217779 -0.028492263
0000b0 54 27 cd 3c 27 07 d9 bc 1c 8b a0 bc 87 2f 39 3c
       0.025043167 -0.026492668 -0.019597583 0.011302835
0000c0 18 a3 4b 3c 87 0a 13 3d cc 0e 41 bd df 79 29 bd
       0.012429021 0.03589871 -0.047133252 -0.04137599
0000d0 3e 24 84 3c 87 49 89 3c 8b 6b e8 3c 9c 31 f2 3b
       0.016130563 0.016758693 0.028371593 0.007391168
0000e0 b9 dd e5 bc 8a f0 17 bb 62 14 ec 3c 54 bc 71 ba
       -0.028059827 -0.0023184144 0.028818313 -0.00092214835
0000f0 13 19 7b bc 47 69 a6 3c 4c fc 65 3c c5 7f 73 3d
       -0.015325802 0.020313872 0.014037203 0.059448022
000100 11 3e 85 3c a5 42 5e 3d 4d c7 0d bb 53 3a 8c 3c
       0.016264947 0.054262776 -0.0021633685 0.017117655
000110 64 ea 9b 3c 11 a3 84 bd ba 53 a8 3b 8e be 20 bd
       0.019032665 -0.06476415 0.005136934 -0.039244227
000120 66 c3 17 bd df 6f 9d bc 3f 78 4a 3c 08 ad 81 3c
       -0.03705158 -0.019218383 0.01235777 0.015829578
000130 fa 02 ec bc 58 4a b7 bb a4 dd 7f 3b cc f1 c1 3b
       -0.028810013 -0.0055935793 0.003904202 0.005918717
000140 b8 1f 7e bc ba cd 8e bc 21 ae 5a 3d 41 80 22 3d
       -0.015510492 -0.017432082 0.05338872 0.039673094
000150 d8 fc 0e bb b0 76 a1 3c 9b 3f c8 3c 3a 4f 9c 3c
       -0.0021818187 0.019709915 0.024444392 0.019080747
000160 aa 7f dc bc f7 70 01 bd 66 e1 05 3c 4d 94 a9 bc
       -0.026916344 -0.031601872 0.008171415 -0.020700598
000170 31 be 9d 3c a5 d1 0b 3c 2c 94 6c bc 24 fb d3 ba
       0.01925573 0.00853387 -0.014439624 -0.0016172868
000180 b7 e9 60 bd d6 12 4d 3c 30 d3 fd bc e8 c2 32 ba
       -0.054910388 0.012516698 -0.030984491 -0.00068192044
000190 3f 96 e8 bc 2f da 8f 3c 7a f7 5c bc 52 90 d6 bc
       -0.028391955 0.017560093 -0.013486737 -0.026191864
0001a0 56 f7 7f bb 06 e0 76 bd 5e d9 5d 3c 84 08 54 bd
       -0.0039057336 -0.06027224 0.013540594 -0.051765934
0001b0 07 d2 78 bc 43 7c 07 3d c0 31 1a 3b 3c 26 cf 3c
       -0.015186793 0.03307749 0.0023528188 0.025286786
0001c0 1a fa e0 bb b6 90 7f 3c dc 49 d3 bb 4c 72 0f bd
       -0.006865752 0.015598467 -0.0064480137 -0.03502111
0001d0 99 a5 ee 3c 25 63 04 3d d7 c8 1e 3b af 0c 6b 3d
       0.029131697 0.032321114 0.0024228597 0.057385143
0001e0 43 da 11 3d 31 c6 68 bc bd cf aa bc d9 fa 85 bc
       0.03560854 -0.014207409 -0.02085101 -0.016354965
0001f0 11 dc 13 3d 3a 36 9b 3a 48 98 7d ba 95 34 8d bd
       0.036098544 0.0011841722 -0.0009673876 -0.06894795
