model_params/model_params_20.pth (torch, 74912 bytes, 7 tensors)

rnn.weight_ih_l0 f4 [128, 6]
000000 6d 42 37 bd 42 27 0a 3d 98 f6 00 bd 4d d8 1d be
       -0.044741083 0.033728845 -0.03148517 -0.15414543
000010 61 94 4d 3d 96 7c a2 3d fd 2e ac 3d 1d 38 59 bd
       0.050190333 0.07933919 0.084074 -0.05303203
000020 3e 24 28 3d 12 5c 0c 3d 5a 1d ca 3c 8b 4e 89 bd
       0.04105019 0.034267493 0.024672199 -0.06704434
000030 b0 35 b3 bd c2 ba 74 3d c1 47 38 bd 2d df 68 bd
       -0.087504745 0.05974842 -0.044990305 -0.056853462
000040 33 8f 98 3d c8 9e d1 3c 90 c8 88 bd 26 c3 ea bc
       0.07449188 0.025588408 -0.06678879 -0.028657507
000050 30 9f 9f 3c 22 b4 ea ba e6 7d 8f 3d 27 ec 9d bd
       0.019485086 -0.0017906467 0.07006435 -0.07711058
000060 bf 59 98 3d 9f f5 86 bd ee c0 6c bd e3 a6 cb 3d
       0.07438993 -0.06589817 -0.05780118 0.099439405
000070 0a 82 0c 3d 03 ba c4 3d d0 e8 0e 3c 12 2e b2 3d
       0.034303702 0.096057914 0.008722499 0.087001935
000080 47 58 4c bd 15 21 17 be 04 d0 2a 3c 42 51 05 3d
       -0.049888875 -0.14758714 0.010425571 0.032548197
000090 79 ef 68 bd 8d 86 bc bd e8 96 92 bd d1 5e 2a 3d
       -0.056869004 -0.09205351 -0.07157689 0.04159433
0000a0 36 13 d0 3b 04 f4 53 3d e0 6b b6 bb 32 5a a4 bb
       0.0063499464 0.051746383 -0.005567059 -0.005015635
0000b0 0b d3 0c bd d9 76 3d be 1d 3a 3a 3d 5b a5 46 bd
       -0.034380954 -0.18502368 0.045465577 -0.04849754
0000c0 9f f8 a6 bd 0c ac d3 3d e0 40 fa 3b f4 f3 31 3d
       -0.081528895 0.1033555 0.0076371282 0.043445542
0000d0 02 0d 11 bd 78 a8 d2 3d cb 9c 95 bd 81 05 89 3b
       -0.035412796 0.10286039 -0.073052965 0.0041815643
0000e0 6a 23 2e bd b9 82 01 bd 20 3d 23 bc 98 14 ca 3c
       -0.042514242 -0.031618807 -0.009963304 0.024668023
0000f0 91 02 81 bd 85 6b 30 bc 7c 57 97 3c b4 21 50 bd
       -0.06299318 -0.010767822 0.018474333 -0.05081339
000100 b6 a7 3c bd 8e b3 9d bd 46 56 17 3d 83 a2 81 bc
       -0.04605838 -0.07700263 0.03694751 -0.015824562
000110 c9 be a5 3d 63 2c 0f 3e 5d b3 7a 3d a2 10 95 bd
       0.0809303 0.13981776 0.06120621 -0.07278563
000120 e2 8c a9 bd df 51 20 3d 20 00 a4 bb 31 43 1d be
       -0.082788244 0.03914058 -0.0050048977 -0.15357663
000130 5c 7f 90 3d 0a 6c 8b bc c6 2e 02 3d 89 d7 85 bd
       0.07055542 -0.01701929 0.031782888 -0.06535251
000140 60 6a a9 3c f7 00 38 bd bb 8a 3d bc b9 fe 1c bd
       0.020680606 -0.044922795 -0.01156872 -0.03832886
000150 f6 b3 88 bd 7f a8 a9 bc 80 e6 e2 3b 4b d6 fe bb
       -0.0667495 -0.020710228 0.0069244504 -0.0077770106
000160 16 e4 92 3c 53 3f fd bc 28 8b a7 bc ac 8d a8 bd
       0.017931025 -0.030913984 -0.020452097 -0.08230147
000170 7a e3 29 3d dc 07 85 bd 24 48 e8 3c ac c0 b0 bd
       0.041476704 -0.0649564 0.028354712 -0.08630499
000180 ba a6 0c 3d c0 54 45 bd b8 ee a4 3c 6e d1 73 3e
       0.03433869 -0.048176527 0.020133361 0.2381036
000190 c2 58 16 bc d5 ae 78 3d 84 76 a8 bc a1 75 86 3d
       -0.009176435 0.060713608 -0.020564325 0.06565405
0001a0 d1 c0 33 bd ca 16 10 be 76 19 3d 3d 1e 01 77 bd
       -0.043885056 -0.14071193 0.04616686 -0.0603038
0001b0 6a 62 fd bc 17 6d 1c 3d 1c cf fa 3c e3 4a 1a 3e
       -0.030930717 0.038189974 0.030616336 0.1506763
0001c0 d1 7e 03 3c fe 14 53 bd a4 2d 8d bd 9e 96 0b bd
       0.008025841 -0.05153369 -0.06893471 -0.034079187
0001d0 9f 7b ad bd 76 81 07 3e 46 d6 ac 3d 6a 09 59 3d
       -0.084708445 0.13232979 0.08439307 0.052987494
0001e0 98 64 93 bc 17 76 f2 3c ab b0 a1 3d 35 53 93 bd
       -0.017992303 0.029597325 0.07895025 -0.07193605
0001f0 15 51 a5 3d 99 9b bf 3d fc 51 f0 3c 36 d2 11 bd
       0.08072106 0.0935585 0.029335968 -0.035600863
000200 0d 92 a9 bd 8a 86 2b be 57 4d 2f 3d 1c 9c 7b bd
       -0.0827981 -0.16750541 0.042798366 -0.061428174
000210 60 79 56 bb bc f2 bf 3d 70 78 c8 3c d8 ec 28 be
       -0.0032726154 0.0937247 0.024471492 -0.16496599
000220 78 de 54 3c 96 c5 7b 3d 8f b9 91 3d e6 13 86 3c
       0.012992494 0.06146773 0.071154706 0.01636691
000230 aa a0 14 bd 27 05 1d 3e e9 19 48 bd 2a 55 34 bd
       -0.036286034 0.15333997 -0.048852835 -0.04402653
000240 f1 b5 25 bd 0e 25 34 3d 4c 91 bd 3c e3 bd d1 bd
       -0.040456716 0.04398065 0.023140572 -0.10241296
000250 24 e1 9f bc 6b 57 b9 bd 1c 87 6a bd ba fd bf 3c
       -0.019516535 -0.09049877 -0.057257757 0.023436416
000260 04 34 2d bd b0 3b dc 3d e7 a1 3a 3d 83 15 f5 3b
       -0.042285934 0.10753572 0.04556456 0.007479371
000270 7c 3a ae bc 06 07 50 bd c6 9c a4 bd de 13 77 bd
       -0.021268122 -0.050787948 -0.08037715 -0.06032168
000280 9d ba 69 bd ce f7 71 3d 62 eb 17 3d 40 d7 52 3b
       -0.057062734 0.059074216 0.037089713 0.0032171756
000290 36 0d 50 3d e8 ca 46 3d 96 5d 8d bd 57 1c dc bc
       0.05079385 0.04853335 -0.06902616 -0.026868982
0002a0 0c 71 9f bd 29 8b 33 bd 65 c4 27 bd 05 e2 8a bd
       -0.07785234 -0.043833885 -0.04095878 -0.06781391
0002b0 7f 06 3c bc 3f 50 51 3d a6 8d 80 bd 01 98 bc bc
       -0.011476158 0.05110192 -0.06277017 -0.0230217
0002c0 ba 53 07 3d 0b 2a 0a 3e 4a e0 7a bd 50 da fb ba
       0.033038832 0.134926 -0.061249055 -0.0019214842
0002d0 f2 36 62 3d 6a 40 bc bd a2 8e 34 3d 4b e7 45 bd
       0.05522818 -0.091919735 0.044081338 -0.04831628
0002e0 f6 bf e4 3c c0 a7 3b 3d 37 95 b2 3d 6b 00 a0 bd
       0.027923565 0.045814276 0.08719867 -0.0781258
0002f0 e8 b0 ec 3c c5 c3 79 3e 06 56 89 3d 6d a4 80 bd
       0.02889295 0.24391086 0.06705861 -0.06281362
000300 46 b8 69 3d 8a 9b 94 3d 29 37 36 bd d3 b8 c2 3c
       0.057060502 0.07256229 -0.0444862 0.023769772
000310 02 f2 4a 3d c3 ff 94 3d 22 3f 4b 3d eb fa 8f bd
       0.049547203 0.07275345 0.049620755 -0.07030281
000320 89 92 9d bd 78 73 5c 3e d5 6b 94 3d e1 a0 87 bd
       -0.07693965 0.21528423 0.0724713 -0.06622482
000330 78 6d 72 bc ad fc 0a bb b5 05 14 bd 02 73 e1 bd
       -0.014796607 -0.0021207735 -0.036138255 -0.11008264
000340 5e 9e 89 bd 00 a2 a1 bd 7b 24 8d 3d 48 a9 2a 3d
       -0.06719659 -0.07892227 0.06891724 0.041665345
000350 10 bb ad bb af 80 11 3e 5c 2f 8e 3b e8 a6 b4 bd
       -0.0053018406 0.14209245 0.004339142 -0.08820897
000360 20 f6 39 bb 8e 15 55 bc c5 a5 8f 3d d5 3e d7 bd
       -0.0028375462 -0.013005627 0.0701404 -0.10510031
000370 05 55 8f 3c 83 47 0f bd 00 d1 82 ba a9 24 ab bd
       0.017496595 -0.03498031 -0.00099805 -0.08356602
000380 58 15 12 3c 81 ae b1 bd c5 cd b7 3c f6 57 aa bc
       0.008916222 -0.08675862 0.022436986 -0.020793896
000390 4d ac a9 3d 44 eb 16 3d 2c 03 15 3d eb 9f f7 3d
       0.08284817 0.03684546 0.036379978 0.12091049
0003a0 55 ad 78 bd 94 dd 5f bd 2b d7 b2 3d 88 41 95 3d
       -0.060712177 -0.054654673 0.08732446 0.0728789
0003b0 c4 fb aa 3c 25 01 bf 3c da c6 51 bd dc 51 47 3d
       0.020872004 0.023315975 -0.05121503 0.04866205
0003c0 93 7c 8d 3d 7f 60 67 3d d0 6c 40 bd 3a 58 2f be
       0.06908526 0.05648851 -0.04697877 -0.171235
0003d0 0c 3a 99 bc f3 89 94 b8 db ed 84 3d fd 37 2f 3d
       -0.018704437 -7.082885e-05 0.0649068 0.042778004
0003e0 a4 33 c6 3c e2 2d 47 3d b0 42 b9 bd 45 f5 a2 3d
       0.024194546 0.04862774 -0.09045923 0.07956938
0003f0 40 c2 41 3c a2 59 1f 3d 90 be 97 3b b2 21 44 be
       0.011826098 0.03890384 0.004630871 -0.19153479

rnn.weight_hh_l0 f4 [128, 128]
000000 e4 1a 69 3c f9 d0 1b 3d d8 fc 7f 3d 29 e9 1d bd
       0.014227603 0.03804109 0.06249699 -0.038552437
000010 79 13 2a bd c9 c9 22 3d 59 ad 0e bd 5f ab a2 bc
       -0.041522477 0.03974322 -0.034833286 -0.019857107
000020 f6 0f 96 3c 2e 35 72 ba 15 0d a6 3d f6 c2 75 bc
       0.018318158 -0.0009239492 0.08107964 -0.015000096
000030 08 83 a3 3d 03 54 8d 3d 49 af 79 3d aa 9a 97 bc
       0.079839766 0.069007896 0.06095818 -0.018506367
000040 7e e3 5e bd 89 e4 2e 3d d8 37 0e bd 9a 82 e6 bc
       -0.054416172 0.042698417 -0.034721226 -0.028138448
000050 12 77 d5 3d 0d a1 98 bd 76 57 32 bd ee d5 63 3d
       0.104231015 -0.07452593 -0.04354044 0.05562394
000060 5b 79 58 bc df e6 ad bc a7 32 f8 3c 18 d7 81 3b
       -0.013212527 -0.021228252 0.03029759 0.0039624088
000070 64 00 a5 3c 8e d3 3c bc 45 b7 8a 3c cd 93 3f bd
       0.020141788 -0.011525048 0.016933093 -0.046771813
000080 14 f0 b6 bc 95 66 37 bd 86 f0 3d bd 34 ae 05 bd
       -0.022331275 -0.044775564 -0.04637196 -0.032636836
000090 9a 97 78 3d d1 e9 af 3b a4 8c 4e bd 0b 00 32 bd
       0.060691454 0.0053684493 -0.050427094 -0.043457072
0000a0 79 cb 8d 3d 69 d6 64 bb 63 af 19 bd e0 45 56 3d
       0.06923575 -0.0034917837 -0.037520777 0.05231273
0000b0 24 6b a4 bd a9 e5 16 3d 89 f0 2e bd b2 39 f7 3c
       -0.08028248 0.036840115 -0.04270986 0.030178878
0000c0 42 11 83 bb c1 e3 12 bd 59 12 6c bd 2d 56 ac 3d
       -0.00399986 -0.035861734 -0.057634685 0.08414874
0000d0 c4 1b af bd df 18 c6 bd 3b 62 9c 3d ca 9c ac bd
       -0.08550218 -0.096727125 0.076359235 -0.08428343
0000e0 90 b9 8b 3d 8a 39 82 bd b8 e0 58 3d 7b 9b 4a 3d
       0.068225026 -0.06358631 0.052948684 0.049464684
0000f0 75 f3 ab bc d3 08 36 bd 21 cc d4 bc 88 1d bc bc
       -0.020990113 -0.04444201 -0.025976242 -0.0229633
000100 08 64 df bc e9 21 5e 3d 1d 3e 60 3c 38 e2 ab bb
       -0.027269378 0.054231558 0.013686684 -0.0052454732
000110 dd 25 c8 bd b5 60 99 bd 43 cb 10 3b d9 47 dc bc
       -0.09772847 -0.074891485 0.002209381 -0.026889728
000120 28 0d 5d 3c 22 2f 02 3d c2 ca 20 3d b9 7b 4e bd
       0.013491906 0.03178323 0.039255865 -0.05041096
000130 97 94 92 bd be 78 c2 3d b7 db 78 bd c2 a2 5e bb
       -0.071572475 0.09495686 -0.06075641 -0.0033971523
000140 7a e9 5b bd c6 54 b9 bc 1d 89 b5 3c aa 6a 9d 3c
       -0.053689457 -0.022623431 0.022160107 0.0192159
000150 92 fa 6c bd 80 77 91 bc 5a e3 aa 3d 1c 11 89 3d
       -0.05785615 -0.017757177 0.08344145 0.066927165
000160 d6 6a bc 3d ac 42 29 bc 58 0f 80 bd b1 d1 2e 3d
       0.09200065 -0.010330837 -0.062529266 0.042680446
000170 bb b5 bf 3c 97 f7 d3 bd 9a 0a 2a 3d 79 92 58 3d
       0.023402086 -0.103499584 0.041514017 0.052874062
000180 2f 05 a2 bc 00 35 2a 3d 64 14 11 3d 70 af 90 3d
       -0.019777862 0.04155445 0.035419837 0.07064712
000190 d3 73 87 bd e4 2a a0 bc 32 a1 e3 bd 44 5b 1a 3c
       -0.066138886 -0.019551702 -0.1111473 0.0094211735
0001a0 7e f1 0a bd 1e 0b 93 bd e9 e6 d0 3d e3 62 88 3d
       -0.03392171 -0.07179855 0.102002926 0.06659486
0001b0 a9 eb 5d 3d 0f ae 11 bd 2b fa a8 3d 14 0d dd 3c
       0.05417982 -0.035566386 0.08250841 0.026983775
0001c0 4f 26 3b bd 67 25 1c 3d 7d b7 d2 3c 61 48 c2 bd
       -0.04569083 0.038121607 0.02572226 -0.094864614
0001d0 c8 f5 8c 3d d4 06 c6 bd 49 48 ac ba 63 41 53 bd
       0.068828166 -0.09669271 -0.0013144101 -0.05157603
0001e0 a8 0e 09 bc ff 2e 99 3d b6 17 b4 3b 75 5c 1c bd
       -0.008365311 0.07479667 0.0054959906 -0.03817411
0001f0 a7 02 e4 bb 01 e1 95 3c 09 57 1d 3d 09 e9 a5 3c
       -0.006958324 0.018295767 0.03841308 0.020252721
000200 af 75 20 bc 6e 99 91 3c 85 50 68 bc 05 be 8c bd
       -0.009793683 0.017773356 -0.014179354 -0.06872181
000210 5b ba 04 3c 37 92 dd bd 57 65 21 bd cc fd 41 bd
       0.008101071 -0.10818904 -0.039403286 -0.04736118
000220 9b d2 ae bc 62 7b c9 3c cd a8 bc bb 48 46 dd bc
       -0.021340659 0.024594966 -0.0057574273 -0.027011052
000230 97 ae 0f bd 40 af 1d 3d 62 1f 88 bd 3d bf 8d 3d
       -0.03507861 0.03849721 -0.06646611 0.069212414
000240 3b 11 2b 3d 2e 55 64 bd 18 c9 9b bd 75 f3 b7 bd
       0.04176448 -0.055745296 -0.07606715 -0.089819826
000250 d2 5a 08 3d a2 a3 4d 3c 51 b2 89 3c eb 69 af bd
       0.033289738 0.01255122 0.01680866 -0.08565124
000260 30 a4 04 3b 4b c0 80 3d 5f 5b 02 bd ca ab ed 3c
       0.0020239465 0.06286677 -0.03182542 0.02901258
000270 69 73 fe 3a f5 29 99 bd 1b 76 f7 bc c0 c0 8e bd
       0.0019413057 -0.07478706 -0.030207684 -0.06970358
000280 06 4c 05 ba 18 a4 88 3d 64 22 4b bd 68 6b bc 3c
       -0.0005084876 0.066719234 -0.049593344 0.023000434
000290 9d 1c 1d 3d 9a 9d ac bd 03 e6 ee bc 54 6e 57 bd
       0.038357366 -0.084284976 -0.029162413 -0.05259545
0002a0 96 59 50 bd ca 8d 32 3d 46 43 5f bc a8 5c af ba
       -0.050866686 0.04359225 -0.013626879 -0.0013379054
0002b0 86 bb c7 3d 1d a8 96 3d 3c 5a 4b bc 8e fc 7a bd
       0.09752564 0.07356284 -0.01241165 -0.06127601
0002c0 bd 14 63 3c 27 80 4e 3d b6 c4 90 bd 09 df 09 bc
       0.013859925 0.050415184 -0.0706877 -0.008414992
0002d0 a2 b5 30 3d 03 9e 4e bd 1c 0c 40 3d 19 f5 8d bd
       0.04314197 -0.05044366 0.04688655 -0.06931514
0002e0 a3 d6 3b 3d 12 56 28 bd 21 2a f2 3c 2b 42 9b bb
       0.04585899 -0.041097708 0.029561104 -0.0047381124
0002f0 c0 1a ef 3c 03 18 34 bd 18 46 c6 3c 82 bb 38 3c
       0.02918756 -0.04396821 0.024203345 0.011275174
000300 82 55 00 3d 16 3b aa bd 43 c2 36 3d 8c 99 f0 3c
       0.031331547 -0.08312051 0.044618856 0.029370092
000310 37 fd 11 bc c9 ba 1f bc 2c 1b 0d 3d 71 d6 66 bd
       -0.008910469 -0.009749123 0.03444974 -0.05635685
000320 7f fc b1 bc a8 f0 98 3d a8 fc b6 3d b6 e1 03 3d
       -0.021726845 0.074677765 0.08934909 0.032197677
000330 88 46 ed 3c 7d 9d 6e 3d 3d df 29 bd 58 df 8e 3d
       0.028964296 0.05825566 -0.041472662 0.06976193
000340 66 e4 ef 3c 08 f4 7d bd 89 02 8d 3d 71 36 84 bd
       0.029283714 -0.062000304 0.06885249 -0.064556964
000350 5d bb 7d 3d 39 71 89 3d 87 ac bf bd 75 04 a6 3b
       0.06194626 0.06711049 -0.09359079 0.0050664493
000360 48 87 d7 bc a4 33 87 3d 49 37 4c 3d c8 a3 92 bd
       -0.026309624 0.066016465 0.04985741 -0.07160145
000370 b6 bd 53 bd 79 f2 32 bd 29 1d 1f 3d dc fc 34 bb
       -0.051694594 -0.04368827 0.03884617 -0.0027616536
000380 9e 29 9c bd a5 52 15 3d e0 71 a9 bd 1f ad ff bc
       -0.07625125 0.03645577 -0.08273673 -0.03121048
000390 69 f8 0c 3d 4d da 4f 3d 01 70 44 bd be 9e b1 3d
       0.03441659 0.050745297 -0.047958378 0.08672856
0003a0 15 1f a5 3d 4a b1 05 bd eb c7 3d bd de 3b ca bd
       0.08062569 -0.03263978 -0.046333235 -0.098747
0003b0 d4 4c 52 bd d0 bf e1 bc a4 99 b1 3d 48 ce 1c 3a
       -0.0513428 -0.027557284 0.08671883 0.0005981666
0003c0 2c 70 4b bd 98 cb 15 bd eb ce 38 bc 80 c6 fa 3c
       -0.049667522 -0.036571115 -0.011279802 0.03061223
0003d0 d0 82 96 3d e2 80 74 3d 93 72 5d bd ce 72 ba 3d
       0.07349169 0.059693225 -0.054064345 0.091039285
0003e0 0c 44 54 bd b9 b4 8a 3d 27 de 78 3c 07 35 de bc
       -0.051822707 0.06772751 0.015189684 -0.027124895
0003f0 1c ca f2 3b 0d a8 8c 3c 2e 1b af bd 81 8a dc 3d
       0.007409347 0.017169977 -0.08550106 0.10768605

rnn.bias_ih_l0 f4 [128]
000000 61 d1 0b 3d 11 e8 1e bd 1c 33 7e 3d 0a 8b 4b bc
       0.034135226 -0.038795535 0.06206046 -0.012423286
000010 62 4b 92 3d e7 20 02 3c 69 89 bf bc 78 24 ba bd
       0.071432844 0.007942415 -0.023380952 -0.09088987
000020 6c d9 1c 3d e2 08 99 bc 32 2e af bd 4c c2 39 3d
       0.038293287 -0.018680993 -0.08553733 0.04535131
000030 94 58 d8 bc f2 66 8c 3d a8 0f 2e bd ad b6 b2 bd
       -0.026409425 0.06855573 -0.0424954 -0.08726249
000040 f2 93 f0 bb 3b 82 62 bd 9f e8 44 3d 91 53 9f 3d
       -0.007341855 -0.05529998 0.048073407 0.07779611
000050 2d 7c 9e 3d b3 80 09 3d 68 64 8f bc e0 8a 31 3c
       0.077385284 0.033570003 -0.017503932 0.010836333
000060 99 26 d3 bd e5 50 38 3d 21 25 46 3d da cc c7 3d
       -0.10310096 0.044999022 0.048375253 0.09755869
000070 a0 76 c7 3d 6c 56 82 bd 7a c6 33 3d a6 93 95 3d
       0.09739423 -0.0636414 0.043890454 0.07303552
000080 2d 53 84 3d 9e 2d 22 bd 38 b1 a6 3c 3f ec 94 3d
       0.06461177 -0.039594285 0.020348176 0.07271623
000090 79 cf cb 3d cc b2 d3 bc bb f8 52 bd a3 f9 87 bd
       0.09951682 -0.025842093 -0.05150674 -0.06639411
0000a0 e4 3b 98 3d 8c a4 22 3d aa 8f ae bd 02 c2 a4 3c
       0.07433298 0.039707705 -0.085234955 0.020112041
0000b0 21 12 c3 bc 92 86 97 bd 45 8a 82 bd 7d 98 af 3d
       -0.023812355 -0.07398714 -0.06374029 0.08574007
0000c0 ed bd 8f bd 00 24 4f 3d 1b e8 ce 3d f3 a5 88 bd
       -0.07018647 0.05057144 0.10102864 -0.06672277
0000d0 bd a1 7a bd ba c7 8b bd c2 cd 57 bd f2 dd 1c 3c
       -0.061189402 -0.06825204 -0.05268646 0.0095744
0000e0 ff 63 64 3d 8a d8 98 3c 95 3f 80 3c 00 c7 1f bd
       0.055759426 0.018657941 0.015655318 -0.03900814
0000f0 ed 64 42 bd 3d ba 86 bd ef 6c 73 bd 3f cc ad bd
       -0.04745953 -0.06578491 -0.05943006 -0.084862225
000100 4e 2a 98 3d b7 5c 75 3d 6c 93 9c 3c 71 b0 ee bc
       0.07429944 0.059902873 0.019113265 -0.029136868
000110 1d d2 34 bd 46 91 77 3d c2 26 b1 3d d0 e5 84 3d
       -0.044145692 0.060441278 0.086499706 0.06489146
000120 7d c1 9f 3c fb 02 1a 3d e8 8d 07 3d 1d 43 7a bd
       0.019501442 0.0376005 0.033094317 -0.06109916
000130 ef b3 fc bc eb 81 b2 3b ef 02 c8 bc 06 12 9a bd
       -0.030847518 0.0054476163 -0.024415461 -0.07522969
000140 af 50 9f bd 84 bb 93 bd b9 bf 74 bc 26 f3 92 bd
       -0.07779061 -0.072135 -0.014938288 -0.07175283
000150 20 b8 79 bd 08 25 70 3c 8b 52 02 3d c0 f8 45 3c
       -0.06096661 0.014657266 0.031817 0.012083232
000160 3a c8 2b 3c d7 cc d9 bb 13 5c 8b 3d bf 8f 2d bd
       0.010484749 -0.0066467333 0.06804671 -0.042373415
000170 c3 b0 a3 3d 42 46 c1 bc 10 89 41 3d 7f 34 65 bc
       0.07992699 -0.023593072 0.047249854 -0.013989567
000180 ab ea 38 bd 7e dc b5 bb 26 44 1b bd a0 b9 84 3d
       -0.04514567 -0.0055499664 -0.03790679 0.06480718
000190 9e 4a 43 3d 5c 5b 0d 3d 12 8b b7 3d 08 5c 52 3c
       0.047678582 0.034510955 0.089620724 0.012839325
0001a0 fd 8c 0f 3d d7 5f 36 bb 64 13 c5 bd 16 f2 a2 bd
       0.035046566 -0.002782812 -0.09622839 -0.079563305
0001b0 8b e9 a9 3d 0a 44 51 3d cf 66 5b 3d c3 88 b5 3c
       0.08296498 0.051090278 0.053564843 0.02215994
0001c0 13 3a c1 3d c2 fd e0 b9 e6 61 2e bd 8b 66 8a 3d
       0.09434905 -0.00042913674 -0.042573832 0.0675784
0001d0 f9 bc ca bd 94 f5 11 3c aa ad 52 bd 6e 93 b4 3d
       -0.09899325 0.008908648 -0.05143515 0.088171825
0001e0 20 18 1c bd 01 f8 56 3c 7c f8 26 3d 60 f0 8d 3d
       -0.038108945 0.013120652 0.040764317 0.069306135
0001f0 03 be 3b bc fe aa 1d 3d c4 8f 4b 3d fb 5c 02 bd
       -0.011458877 0.03849315 0.049697652 -0.031826954

rnn.bias_hh_l0 f4 [128]
000000 58 42 9f bc f1 13 ad 3d b9 30 a5 bd af 0e 05 bd
       -0.019440815 0.08451069 -0.08065934 -0.032484706
000010 fc fc 2d bc 84 9d 7d bd 67 b2 f2 3c cb 71 09 bd
       -0.010619398 -0.061917797 0.029626084 -0.033555787
000020 da 23 a1 3d b3 88 cc 3b a8 1b 37 bd d8 ca 31 3a
       0.07868166 0.0062418818 -0.04470411 0.000678224
000030 24 39 64 bd c6 d6 a5 3d 51 99 ef b9 2d 0b 88 3d
       -0.055718556 0.080976054 -0.00045699862 0.066427566
000040 80 eb 90 3d 15 59 8c bd d3 bd 1a bd 72 ee 07 3d
       0.07076168 -0.068529285 -0.037778687 0.033186384
000050 31 4e 9d 3d 41 3b 4d 3d a5 50 b6 3d 5e fd 2d 3d
       0.076809295 0.050105337 0.089021005 0.042477958
000060 9f 88 7a bc 1f 81 29 bc 3a 0c aa bc 50 86 a8 bc
       -0.015291362 -0.010345726 -0.020757783 -0.020571858
000070 44 35 a8 3d 5f 4f 97 bd 66 6b 25 3d 8f 2e 85 3d
       0.082132846 -0.07388186 0.040385626 0.06503021
000080 a3 d1 0b bd 72 01 0f 3c 4c c3 85 3c d7 41 89 bd
       -0.034135472 0.008728372 0.016328476 -0.06702011
000090 1d c8 b2 3d d8 cd 52 3d 61 dd bd 3c 5f 4f 8c 3c
       0.08729575 0.05146584 0.02317685 0.01712769
0000a0 b4 2d ca bd 7e 8b 6c 3d 53 58 ea bc 70 d1 9e 3d
       -0.098719984 0.057750218 -0.02860657 0.07754791
0000b0 9f 32 40 bd 2b 6f 7f bd 41 8b f0 3c 9a ae a3 bc
       -0.046923276 -0.062361877 0.029363276 -0.019980717
0000c0 b3 69 9a bd 9c cf 45 ba d7 13 8f bc 55 ce 19 bd
       -0.07539692 -0.000754589 -0.017465515 -0.03755029
0000d0 ae 8b b3 3d 23 42 f8 bc 64 d1 c2 3c b4 dc d9 bc
       0.08766876 -0.030304974 0.023781486 -0.026594497
0000e0 0f 2b b6 bc de 0d fa bc 3e d5 9b bd e2 e6 40 bd
       -0.022237329 -0.03052419 -0.07609032 -0.047095187
0000f0 23 7a b9 3c 15 16 c9 3b 1a 56 91 3c 8d 08 8c bd
       0.022641247 0.0061366656 0.017741252 -0.068375684
000100 1b e5 03 3d 0f 64 9e bd 53 20 9b 3c 97 00 ee bd
       0.032200914 -0.077339284 0.018936312 -0.11621206
000110 af 2b 7b bb 07 f1 af 3d 45 42 83 bc 66 f7 80 bd
       -0.0038325598 0.08590894 -0.01602281 -0.062971875
000120 90 2a 56 bb e4 c0 ad bb ca fd 81 3d f9 d8 30 3c
       -0.0032679178 -0.0053025354 0.063472345 0.010793918
000130 7d 28 a4 3d 92 e3 4d bc 4d 85 5c 3c c9 48 7b bd
       0.08015535 -0.012566464 0.013459516 -0.06134871
000140 a7 84 15 bd b4 5c b5 bd 9b 78 64 bb 2f fc 3b 3d
       -0.03650346 -0.08855572 -0.0034861926 0.045894798
000150 1c 78 da bc 05 9e 8b 3c 76 04 dc bc ef 0f 74 bd
       -0.0266686 0.017043123 -0.026857596 -0.059585508
000160 df 04 16 bd 09 6b 40 bd d6 9f 24 bc 9e 2a 9c 3c
       -0.03662574 -0.046977077 -0.0100478735 0.01906329
000170 b5 29 7b 3c b7 62 49 bd a9 36 ce bc 95 08 86 3a
       0.015329768 -0.049166407 -0.025172548 0.0010225946
000180 3d fa 12 bd 1d c4 06 bc 56 92 7c bd f7 8b ba bc
       -0.035883177 -0.008225468 -0.061662994 -0.022771819
000190 dc e3 40 bd 56 24 4b 3d 07 73 6c 3d 73 03 bf 3d
       -0.047092304 0.0495952 0.057726886 0.0932683
0001a0 fd e9 7e bd 46 75 77 bd 12 68 db bd 9e 5b 98 bc
       -0.062234867 -0.060414575 -0.10713209 -0.018598374
0001b0 85 b9 27 3c 58 23 36 bd 8d 65 b3 3d c2 82 85 3d
       0.010237102 -0.0444673 0.08759604 0.06519081
0001c0 c1 c0 af 3d 64 df 87 bd 84 08 7d bc c7 7e f7 3b
       0.08581687 -0.06634405 -0.015443925 0.007552955
0001d0 62 36 85 3c 18 37 a4 3d 97 3a db bc b0 b1 31 3c
       0.016261283 0.08018321 -0.026761336 0.010845587
0001e0 a2 9a e3 bc 71 1e 62 3d 40 81 da bc 22 dd 9c bd
       -0.027783696 0.055204812 -0.02667296 -0.07659365
0001f0 80 67 38 bd f3 7c 33 bb ee ea db bc ec a5 53 3d
       -0.04502058 -0.0027387708 -0.026845422 0.051671907

actor.weight f4 [3, 128]
000000 db d8 00 3e af d3 5f bb bb 08 2e 3d 03 2c 90 bd
       0.12582724 -0.0034153273 0.042488795 -0.070396446
000010 b4 fc 2b be 81 05 0c 3d d4 27 b7 3c 32 9c 3e 3e
       -0.16795617 0.034184936 0.022357859 0.18614271
000020 3f ad ef bd 8c 0e db bb f9 c7 bd 3d 70 15 e9 bd
       -0.11702966 -0.0066850837 0.092666574 -0.11381042
000030 8e 3f 18 3e 70 63 be bc 56 d5 d6 bd c7 eb fa 3d
       0.14867994 -0.023240775 -0.10489909 0.12252002
000040 cf 85 e5 bd 31 f0 93 3d 66 bb 00 bc 4c 4e 11 be
       -0.112071626 0.07223547 -0.007857179 -0.14190024
000050 6b 0c e3 bd ea d7 28 3e f2 8f a4 3d 6f bd e8 bd
       -0.11086353 0.16488615 0.08035268 -0.113642566
000060 55 5a a4 3c 76 c8 13 be cc 95 22 bc 8e a5 e4 bd
       0.020062605 -0.14431939 -0.00992341 -0.111643896
000070 1e 01 86 3d 1f 97 a2 bd 0f 7a da 3d f1 c1 03 be
       0.06543182 -0.0793898 0.10667812 -0.12866952
000080 af 47 29 3d 83 5a 8c bd 06 9a 9b 3d 7b 31 fb bd
       0.04132813 -0.06853201 0.07597737 -0.12265297
000090 70 cd 00 3d 1b 16 d2 3d 12 b2 f6 bc 71 17 c3 bc
       0.03144592 0.102581225 -0.030114207 -0.023814889
0000a0 ea f0 46 3e de da fc bd d7 b7 ff 3d 20 86 c8 3b
       0.19427839 -0.12346433 0.124862365 0.0061195046
0000b0 0d 4c 2d be 0d 20 3c bd 42 7e 89 3d 30 c4 e0 3d
       -0.16923542 -0.045929004 0.06713535 0.1097492
0000c0 b5 e6 fb 3d b8 04 dd 3d 10 83 15 be 9d c8 e7 bc
       0.12299863 0.10791916 -0.14600778 -0.028293902
0000d0 cb 4d 98 bc 9b e1 98 3d 7a 97 cb 3d 2d 39 36 bd
       -0.018591782 0.07464906 0.09941001 -0.04448812
0000e0 f9 03 d6 3a c4 50 06 be 9b fd 63 3e 10 74 d0 bd
       0.0016328088 -0.13116747 0.22264712 -0.10178387
0000f0 0c a2 c3 3c c7 0b 0a be 51 bd 9d 3d cd 88 64 3d
       0.02388098 -0.13481055 0.07702125 0.055794526
000100 82 b6 0b 3e 5f e6 81 3c 00 ba 4e bd 70 91 68 3d
       0.1364384 0.01585692 -0.050470352 0.056779325
000110 b0 4e 3c be 44 cc dd 3d ce ac ff bd 93 52 02 3e
       -0.18389392 0.10829976 -0.12484132 0.12726812
000120 43 0d 6c bd 5f 9c 44 be 13 58 30 be 2c 40 ac 3c
       -0.057629835 -0.19200276 -0.17221098 0.021026693
000130 95 4f 92 bc 6c 6e 99 3d 17 81 12 3e ec b3 24 3d
       -0.017860213 0.074917644 0.14307056 0.04021065
000140 61 57 b0 bc 52 72 62 3e 9a 7f 2c bd 48 fe b1 3d
       -0.02152604 0.22113922 -0.042113878 0.086910784
000150 8d f6 f7 bd e2 5a 2d 3d 5c a9 19 3e 9d 59 c3 3d
       -0.12107573 0.042323 0.15006012 0.09538577
000160 15 2a 63 bd 14 e5 b3 bc 33 ca 0e 3d 2c 74 3a 3a
       -0.055460054 -0.021959819 0.0348608 0.0007112648
000170 25 d5 11 bd e3 fc b0 3b a8 c8 b7 bc c8 01 0c 3e
       -0.03560366 0.00540124 -0.022434548 0.13672554
000180 9a bd b1 3d d5 b0 46 3d c5 f6 86 3d 97 ff 47 bd
       0.08678742 0.048508484 0.06590036 -0.048827734
000190 b8 a2 4d bc 4b 84 0c be e8 9b 01 be 83 92 38 bd
       -0.012551002 -0.13722341 -0.1265713 -0.0450616
0001a0 27 51 ea bc 5a f8 9e bc 78 9e 49 3e b6 dc 1d 3e
       -0.02860315 -0.019405533 0.19689357 0.15416226
0001b0 76 54 68 be d1 2d 75 3b 62 aa 2d bd 03 da ec bd
       -0.2268847 0.0037411342 -0.042398818 -0.1156502
0001c0 66 05 dc 3d 87 2a 10 be fc d5 1c be ae b0 c5 bd
       0.10743217 -0.14078723 -0.15316004 -0.096528396
0001d0 e1 7a 02 bd 84 b0 07 be cd d6 5f bd 1e fa 45 be
       -0.031855468 -0.13250929 -0.05464821 -0.19333693
0001e0 6e 97 d1 bd 9b 48 96 bc a3 6e a2 3d 74 9b 4f 3b
       -0.10233961 -0.018345168 0.079312585 0.003167835
0001f0 ab 30 df 3c 9e 05 84 3d 7a 60 fa bc 8b b5 e3 3d
       0.027244886 0.06446384 -0.030563582 0.11118611
000200 57 a6 f3 bd 40 70 03 3e f5 8e c2 bd 6b fc 67 3d
       -0.11896961 0.12835789 -0.09499923 0.05663721
000210 97 8e ae 3d fd 80 db bd 02 e8 aa 3d 8f dd c0 bd
       0.085232906 -0.10717962 0.08345033 -0.09417259
000220 7c 1d c2 bd 4d 84 ab 3d 52 36 89 bd 5a c5 8d 3d
       -0.0947828 0.08374844 -0.06699814 0.069224074
000230 41 7c 12 be 1d cd 32 3d 01 7c e7 3d 5c 3e be 3d
       -0.14305212 0.043652643 0.11302949 0.09289238
000240 c6 25 36 3e 62 68 01 be 4f 5d e1 3d cc b4 9b 3d
       0.17787847 -0.12637475 0.11004125 0.07602844
000250 a1 31 a8 bd 91 d7 50 bd 40 94 19 be ed f4 f2 3d
       -0.08212591 -0.05098683 -0.14997959 0.11863122
000260 b5 5d 6f bd c0 65 bb 3d 78 c7 ac bc 15 ba 31 bc
       -0.058438975 0.09150267 -0.021091208 -0.010847588
000270 a4 b2 2a bd fa c1 fa 3d 4b 9e bc bd 6b 20 2a 3e
       -0.04167427 0.12244029 -0.092098795 0.16613929
000280 90 9d ea bd b4 15 28 3e 9e b1 0b be 1b 54 c9 3d
       -0.11455834 0.16414529 -0.13641974 0.09830495
000290 71 4d b5 bd 19 81 98 3d d7 18 a4 3b 22 10 36 bd
       -0.088526614 0.074464984 0.005007844 -0.04444898
0002a0 b1 fa 22 be 7b de 2b 3b b7 b2 09 be f7 e3 5f bd
       -0.15915944 0.0026225138 -0.1344708 -0.054660764
0002b0 20 00 11 3e 7f 85 1d 3e 06 63 ac bc 32 2e 05 be
       0.14160204 0.15382956 -0.021043312 -0.13005903
0002c0 b3 dc c9 bd ea e8 11 be b3 0e 11 3e 88 fb e6 3d
       -0.09856548 -0.14249006 0.14165764 0.112784445
0002d0 2c c0 48 bc fd 4c 30 3d f8 40 3c be ad 7e 2e 3d
       -0.012252849 0.04304217 -0.18384159 0.042601276
0002e0 5b e3 e4 bc 02 25 d2 3d ea d4 91 bd c5 e7 d4 3d
       -0.027940443 0.10260965 -0.07120688 0.10395769
0002f0 75 05 52 3d 5e 82 31 3e 17 e5 fc bd ad 4a 32 bd
       0.051274735 0.17334887 -0.12348383 -0.043528248
000300 1f a7 36 be d6 42 9c 3d 2c b0 18 3e 94 3f c8 3b
       -0.17837189 0.076299354 0.14910954 0.0061110947
000310 87 cd 92 3d 99 1f e2 bd 5b 43 5a 3d 99 60 00 be
       0.071681075 -0.11041183 0.05328689 -0.12536849
000320 f4 25 0b 3e eb 68 19 3e 6b 3c a2 3d 66 6b 67 3c
       0.13588697 0.1498143 0.0792168 0.014124727
000330 46 ef 85 bd 8c ed 3a be 24 37 ba bd bd d9 38 3d
       -0.065397784 -0.1825468 -0.090925485 0.045129526
000340 30 e7 66 3d 09 7f f8 bd 6b 41 fd bc 72 c0 8b bd
       0.05637282 -0.12133605 -0.030914983 -0.068238154
000350 a3 17 48 3e c0 06 80 bd 1f 23 11 bd 7d c6 12 bd
       0.19540267 -0.062512875 -0.035433885 -0.035833824
000360 a0 12 98 3c 63 f1 f5 3d 41 f1 40 be dc 8c 99 bd
       0.018563569 0.120089315 -0.18842031 -0.0749757
000370 6d 7a 1c be 74 e6 1d 3e b7 a7 46 3e 62 a0 87 3c
       -0.15281077 0.15419942 0.19399916 0.016555969
000380 e1 7e f6 bd af f7 0d be fb ae c9 bd e8 e6 1e bd
       -0.12035919 -0.13864015 -0.09847828 -0.038794428
000390 30 47 62 bc a2 1d a4 3d f7 cc ca 3d 06 f5 7e 3c
       -0.013810918 0.080134645 0.09902375 0.015561348
0003a0 af 77 40 3d ad ae fd bd a0 69 a5 bd 63 be ed bd
       0.04698914 -0.123868324 -0.08076787 -0.11608579
0003b0 cb 3e 98 3d 5a a8 f0 3d 1f 77 e0 bd 37 07 81 bd
       0.07433852 0.117508605 -0.109602205 -0.06300204
0003c0 4b 52 4a be ea e8 1e 3e f5 c1 0c 3e c7 95 a7 3d
       -0.19757955 0.15518537 0.13745864 0.08182865
0003d0 13 79 a5 ba aa b2 a3 3d 54 66 99 bc 1f 49 c0 3d
       -0.0012624584 0.07993062 -0.018725552 0.09388947
0003e0 d6 8a 92 3d 9c b6 68 bd db ca 80 3d a9 93 87 3d
       0.07155387 -0.056814775 0.062886916 0.06619961
0003f0 40 5c 18 be bd 21 ff 3b 95 75 61 3e 15 6f 4c bd
       -0.1487894 0.0077860043 0.2201751 -0.049910624

actor.bias f4 [3]
000000 95 03 08 3d cc 53 bd bd 97 02 30 3d
       0.03320654 -0.092444986 0.04297122

critic.weight f4 [1, 128]
000000 b9 ac c6 3b 91 5d 80 3d 75 42 5d bd 92 67 30 bd
       0.0060630706 0.062678464 -0.054018456 -0.043067522
000010 e8 4d 7c ba e6 63 26 3c a1 3f 15 bd 0e c2 87 bc
       -0.0009624646 0.010155654 -0.036437634 -0.016572025
000020 7b 3e 46 bd af 64 07 3c 96 0a f8 bc 67 d7 0f 3d
       -0.04839943 0.008263751 -0.030278485 0.035117533
000030 31 7a 94 3d 8e 46 3b 3d 5e 49 86 bd 1f 40 37 bd
       0.07249869 0.045721583 -0.065569624 -0.044738885
000040 0e 22 33 3c 22 30 01 bd d4 78 11 bc ab 39 57 3b
       0.010933412 -0.031540044 -0.008878905 0.003284077
000050 f8 4d 67 bd 92 8f bc 3c 77 df 84 3d 65 52 5d 3d
       -0.05647084 0.023017678 0.06487935 0.054033656
000060 f4 f8 96 bc 83 7d 83 bd d0 cc 18 bd 3f df c5 bc
       -0.018429257 -0.06420424 -0.0373047 -0.024154304
000070 bc 6a 89 3d 24 d6 a6 3c 2c 65 5a bd 10 18 24 3c
       0.06709811 0.020365782 -0.05331914 0.010015503
000080 85 5b 33 3d a5 bb 2f 3c b8 9a c0 3c ac 5f 8b bc
       0.04378845 0.01072589 0.023511276 -0.017013393
000090 6d ca d1 3b b9 9e ea 3c ef e3 37 3c 90 d5 80 bd
       0.006402305 0.028640138 0.011223777 -0.06290734
0000a0 45 3e 43 bd cb d0 97 bd 2b 74 9a 3c f6 7e 6d 3d
       -0.047666807 -0.07412871 0.018854221 0.057982408
0000b0 61 ba 8d bc ed e0 13 3b a7 9c 8c 3d 62 2b 0c bb
       -0.017300786 0.0022564486 0.068658166 -0.0021388163
0000c0 8d 53 88 bc 2d 51 79 bc 18 81 06 3c fa a9 88 3d
       -0.016641403 -0.015217108 0.008209489 0.066730455
0000d0 1c df 14 bd c9 2c 48 3d 61 db 3c 3d e1 a5 38 3d
       -0.036345586 0.048870835 0.046107654 0.04508007
0000e0 26 36 78 3d ab d2 bb 3b 76 c4 4e 3b d8 e1 92 3a
       0.060598515 0.0057319007 0.0031550205 0.0011206223
0000f0 f5 95 0c 3d 65 97 01 bd f6 90 8a 3c 38 fc 7e bd
       0.034322698 -0.03163852 0.016914826 -0.062252253
000100 5c 6d 82 3b 2b 88 2a bc 69 73 6b bc a0 01 9e 3c
       0.003980322 -0.010408442 -0.014370778 0.019287884
000110 57 bf 87 bb 78 d6 e1 3c 6e 3f c3 3c a5 4c fe bc
       -0.0041426825 0.027568087 0.023833957 -0.031042406
000120 6f ec ea bc 89 5f 53 3d 61 24 70 3d 0d 8f 34 3c
       -0.028677193 0.05160478 0.058628444 0.011020434
000130 87 91 34 3c 27 75 ab bc 2d 20 ec bc 92 1d 9a bb
       0.011021025 -0.020929886 -0.028823936 -0.004703232
000140 9a df 52 bc 5b a4 05 3c 02 f1 9e 3c a9 eb 32 bb
       -0.012870694 0.008156861 0.01940203 -0.002730111
000150 47 db 77 3d fe a5 dd 3c 95 f6 00 3d d0 f5 bf 3b
       0.060511854 0.02705669 0.03148516 0.0058581606
000160 8c 0a f6 bc 9d 50 92 bd 0e a9 42 bd eb 87 02 3d
       -0.030034326 -0.07144282 -0.047524504 0.031867903
000170 ff 8f bc bb 10 62 19 bd 03 75 f1 3c 31 95 87 3d
       -0.0057544704 -0.037447035 0.02947474 0.06620253
000180 ea 5e 3b 3d bf a0 73 bd bf e3 3a 3d cb 06 c6 ba
       0.045744814 -0.05947947 0.04562735 -0.0015108226
000190 c8 1b 26 3d 65 a7 36 bd 18 b1 33 3d 87 ae 0b bd
       0.040553838 -0.044593234 0.04387006 -0.03410199
0001a0 29 e9 26 3d 8f 80 8e bb 24 81 ff bb d2 01 68 3d
       0.040749703 -0.0043488215 -0.007797377 0.05664236
0001b0 60 4d 6e ba 4e 92 f3 3c 3c 31 87 b8 24 6b e4 bc
       -0.0009090509 0.02973285 -6.446472e-05 -0.02788312
0001c0 1a d3 42 3d 40 b1 a5 3c 72 1f 84 bc f5 2d 21 3d
       0.047564603 0.020226121 -0.016128276 0.03935047
0001d0 ae 66 ed bb 71 09 35 3c ff 45 49 3d e9 2b 82 bc
       -0.0072449064 0.011049614 0.04913902 -0.015890079
0001e0 27 c2 1b 3c 77 54 72 3d dc 98 a1 bd eb 9e 9c 3b
       0.009506739 0.059162583 -0.07890484 0.0047796867
0001f0 db ae 43 bd fa 7d ab bc b8 2a 69 3c 96 b6 4a bd
       -0.047774177 -0.020934094 0.014231376 -0.049490534
