model_params/model_params_30.pth (torch, 74912 bytes, 7 tensors)

rnn.weight_ih_l0 f4 [128, 6]
00000000: 71c8 5d3e 3318 99be d826 833c 5c3f 193f
00000010: a61a babb 0e8f 3d3d 63c8 563e adc0 fcbd
00000020: 2ecb abbd 8850 423f ae17 c83d 57dd ae3d
00000030: ad1f 47bd 0858 9d3d d84a 59bc bfcf c0bd
00000040: c015 04be 57d0 02bd 527c 853d be8b 0dbe
00000050: a496 fbbc 05af d13e 94ca 62bd d8c7 d9bb
00000060: 2f5b b5bd 81e6 c5bc 1494 c9bc c354 eebd
00000070: 04c3 c7bd 14ee 96bd 337f 03be cf54 213e
00000080: 1afb 603d 0525 2abf 3ef8 89bd 13eb 4ebe
00000090: 77ab 67be f1c9 943e e075 f63c 7c48 41bf
000000a0: 3320 f93c 2d0d bdbc d477 46bd e622 8a3d
000000b0: 3674 98bd 5702 ccbd cafc 113e f79b d63d
000000c0: ee39 02be c214 213e 7afa b4bd 4484 e8be
000000d0: ed72 0dbd ee69 a5bd 2af6 2f3d 792f 02bb
000000e0: 5a5a 763d ee29 c1be 6f3e 7d3d b727 8c3d
000000f0: 99d6 e63d 0437 f6bd 60a1 8abc f985 c83e
00000100: 0c6d 0fbd f86c d6bd 35e9 1d3e 2705 22be
00000110: 0298 15bd ccfd af3e ca2c bd3d 3232 0ebd
00000120: 1b73 5cbe 3fbb 093e ecba 99bd c71e dabe
00000130: eaa2 113d 01d2 113c 2065 a4be f1b0 873e
00000140: 9890 463c f342 0abf ce5b 9abd 27b0 d2bd
00000150: dca5 29be 2bc6 2a3c f96a 78bd a68d 75bd
00000160: 7af3 d2bd 4bc7 1ebe 3eb3 2b3d 5530 5ebd
00000170: 97f8 b0bd 4053 14be 3a94 033e 08c3 02bd
00000180: e3b9 033e 7796 ebbd a407 82bd 0284 043f
00000190: f127 c03c 4360 eb3d 72eb 5ebd 6082 0bbd
000001a0: e063 b93c de79 533e 0486 393d 6518 bebb
000001b0: f53c a1bd 59ef f63c 415d 8c3d 5502 093f
000001c0: 57eb 393d 0e99 7bbb 867c 233e 5736 43be
000001d0: cc2f ff3c 58c5 4b3f dd8d 073d 198b b33d
000001e0: f214 873e 1dde b7be b925 98bd 0ed1 043f
000001f0: 08b8 92bc f421 c4bd fd03 90be 792d 473d
00000200: be4f 9fbd 630b 02bf 986b 8ebd 6b5c d7bd
00000210: 59e0 7a3e cadb f2bd ac4b a2bd 7712 7a3d
00000220: 3acc 433d 63c4 c23d adc5 42bd df99 d93d
00000230: 4e4f 4f3d c83c 38be 6cc9 d83d ea36 05bd
00000240: 1f8c 9cbe 2ec8 ab3e 603d 84bb 63bd 63bf
00000250: 14bc 5b3d 256c fa3b ffcf 37be 4ce6 763d
00000260: 1408 853c 128b 8cbe 5c18 c5bc 56fb 3a3d
00000270: c4d5 bc3e 319e 83be 4944 a63d b098 183f
00000280: fc1c 503d d0d7 013e 8b5d 0c3e 8ef1 e9bd
00000290: 3abd 603d 8c35 9a3e dd2e b6bd eb83 0cbe
000002a0: 39a0 133e 75be 70bd f072 e03c e5cd c93a
000002b0: 299c 6b3d 4348 973d 98e0 bfbc 2e8d 23bd
000002c0: ee8f 613d 9c24 03bf 6fbc 84bc 8909 18be
000002d0: c26f a0be b868 e63d dd74 813d 4b2b 14bf
000002e0: 1a11 9ebd 58e2 b8bc ed77 60be 1319 163e
000002f0: 5f75 47bd 72d5 08bf b26f a9bd 2da9 06be
00000300: 4579 8abb 45a4 1c3e 6787 67bd 5748 d0be
00000310: 567f b03d cc62 003e e626 22be 2065 383e
00000320: 6597 96bd 8285 e8be 19dd 943d 0ae4 b03c
00000330: b9c6 80bb 9282 573d 0066 e33c 1c85 6a3e
00000340: e759 01bd 06af ccbd 88ff abbe 60fd b33e
00000350: c798 9abd 62c0 10bf 175f 9dbd ab3f b4bc
00000360: 1b16 19be 2931 903d 006d d83c 8cb0 75be
00000370: c90a 25bd 0f9e 01bd 57a7 fb3d 6627 0cbe
00000380: ea0e 89bd cf0f f63e 4ad0 9b3d 70a7 4ebd
00000390: 2284 f6bd ca67 373e 10ba 803c 2631 ebbe
000003a0: d7c5 efbd b647 c5bd 091a 6e3e 10bf a9be
000003b0: 42b0 153d 2ba2 313f fd7b 453d 3a37 c03a
000003c0: 1d0c 31be 4533 8b3e aa2c 4f3d b469 07bf
000003d0: 7a3b 3f3d 6a3d 173c 1cec 6e3e f888 74be
000003e0: d297 183d 82fa 3c3e e499 e5bc f61d 80bc
000003f0: fab1 cb3d 24df 1bbe d2d1 4c3d c01a f13e
0.21658494 -0.29901275 0.016009733 0.59862304 -0.0056794463 0.046279006 0.20974879 -0.123414375
-0.08388363 0.7590413 0.097701415 0.08538311 -0.048614193 0.07682806 -0.013262473 -0.094146244
-0.12898922 -0.03193697 0.06517853 -0.13822839 -0.03071148 0.40953842 -0.055368975 -0.0066461377
-0.088552825 -0.024157764 -0.024606742 -0.11637261 -0.09753993 -0.073696285 -0.12841491 0.15755008
0.05492697 -0.6646274 -0.067368016 -0.20206861 -0.22624002 0.2906032 0.030085504 -0.7550123
0.030410862 -0.023077572 -0.04845412 0.067449376 -0.074440405 -0.09961384 0.14256588 0.10478967
-0.12717411 0.15730575 -0.08836837 -0.4541341 -0.03453343 -0.08076845 0.04295937 -0.0019864722
0.06014476 -0.37727302 0.06182712 0.068435125 0.112714 -0.12022212 -0.016922653 0.39164713
-0.035016105 -0.10470003 0.15420993 -0.15822278 -0.03652192 0.3437332 0.092370585 -0.03471584
-0.21528284 0.13450335 -0.07506356 -0.42601606 0.035555758 0.0089001665 -0.32108402 0.26502183
0.012119435 -0.54008406 -0.075370416 -0.10287505 -0.16567177 0.0104232235 -0.060648892 -0.05994954
-0.10300346 -0.15505712 0.041918986 -0.05424531 -0.08641165 -0.14484882 0.12849513 -0.031924278
0.12863879 -0.11503308 -0.063491136 0.5176393 0.023456546 0.1149297 -0.054423757 -0.034059882
0.022630632 0.20651957 0.045293823 -0.005801248 -0.07872955 0.030143427 0.06853724 0.53519183
0.045390453 -0.0038390788 0.1596547 -0.19063698 0.031150721 0.79598 0.033094276 0.08766765
0.26383168 -0.35911646 -0.0742907 0.5188149 -0.017910019 -0.095767885 -0.28128043 0.04862735
-0.077788815 -0.50798625 -0.06954116 -0.10515674 0.24499644 -0.11858328 -0.079245895 0.061052766
0.047802188 0.09510114 -0.0475518 0.10625052 0.05061274 -0.17991936 0.10585293 -0.032523073
-0.30575654 0.33551162 -0.004035637 -0.88960856 0.053646162 0.0076422864 -0.17950438 0.060278222
0.016239204 -0.27449852 -0.024059467 0.04564985 0.3688184 -0.25706628 0.08118493 0.5960798
0.05080889 0.12679982 0.13707559 -0.11423026 0.05486796 0.30118978 -0.08895657 -0.13722198
0.14416589 -0.058775384 0.027398556 0.0015396444 0.057521973 0.0738683 -0.023422524 -0.03992956
0.055068903 -0.51227736 -0.016203133 -0.14847387 -0.31335264 0.11250442 0.06321118 -0.5787856
-0.077181056 -0.022568867 -0.21920748 0.14658003 -0.04869592 -0.5345069 -0.08273257 -0.13150473
-0.0042258822 0.15297039 -0.056525614 -0.4068019 0.086180374 0.12537688 -0.15835151 0.18007326
-0.07353095 -0.45414358 0.072687335 0.021593112 -0.0039299396 0.052614756 0.027758598 0.2290234
-0.03157988 -0.099943206 -0.33593392 0.35154247 -0.07548671 -0.5654355 -0.076841526 -0.022003016
-0.14949839 0.070406266 0.026419163 -0.23993129 -0.04029349 -0.031644877 0.12287777 -0.13686904
-0.06692298 0.48058936 0.07608087 -0.05045265 -0.12036921 0.17910686 0.015713722 -0.45935935
-0.11707657 -0.096328184 0.23252119 -0.33153582 0.036545046 0.69388074 0.048213948 0.0014664896
-0.17289777 0.27187553 0.050579704 -0.52895665 0.04668758 0.009230951 0.23332256 -0.23880374
0.037254162 0.18454936 -0.028027482 -0.015639286 0.09946056 -0.1522184 0.050004788 0.4709072

rnn.weight_hh_l0 f4 [128, 128]
00000000: 2f5e debb 6e60 4bbc 20f7 d7bc 9c66 14bd
00000010: 7d2e 293d 09c7 05be 3023 3fbd 33c7 853d
00000020: d99f 88bd 9a00 883d 627f 87bd 0a16 d43d
00000030: 6f12 213d 5561 61bc 3823 1b3d 00ce 493d
00000040: 0d57 233d fd32 a43c 6aaa e63d 6d36 933d
00000050: 7014 ed3d bc57 8ebd 4934 c4bc c2b1 023c
00000060: a0ce acbd 5f4f 68bd 2294 f7bc c1d3 9a3d
00000070: a4fb 523d d20c ce3c 7337 42bd 2702 b3bc
00000080: 3747 79bd 4238 9abc 1395 353d 8f07 253c
00000090: 061a 83bd 338d 923c 0bca 473c eeb6 183e
000000a0: 81d1 cabd 24ec 313d 0c39 283d c42d 2f3d
000000b0: 3467 babd edcc 08be 9633 f13c d565 d33d
000000c0: 168a 313d f150 943b 03f2 a6bd e39f a43d
000000d0: 65de 1a3b e4ae 6b3b 2e78 2d3d 35b6 e73c
000000e0: a81c 663d 43b3 f23c 1dca a4bd 698d 4a3d
000000f0: 70e9 0dbe b701 00be c33e a5bd e6e6 b4bd
00000100: 083f 96bd 8fa7 f33c 3324 303d b9da 963d
00000110: e452 13bd 9dd0 d9bd 3a4d 33bc aa56 87bd
00000120: 6f46 8f3a 59ad c73d d0d8 b23c c34d bebc
00000130: 7896 b63c ba3e 09bd 1a04 c23d 8b14 9f3d
00000140: 2272 d8bc cf61 c3bd f020 683d eae2 1d3c
00000150: 8404 14bd 5f3a dcbc f4e5 c23d 4d63 57bd
00000160: ce55 a63d c5a1 debd c419 083d 05c2 993d
00000170: fd34 e03d 5939 a63c 5c51 983c 0ed0 a43c
00000180: 2e6b c7bb 8982 bdbd 60a6 b1bb 59fb 133c
00000190: 8967 733d 235d cd3c 2178 bbbd 8603 44bd
000001a0: cab8 1dbd 01b2 20bc 7587 6e3d 73e5 f1bb
000001b0: 1edc 0d3e 6363 453d d14a 163d ed33 3abd
000001c0: fec9 0e3e df27 633c 6976 10bd 90d3 54bd
000001d0: 5195 2a39 aa26 a3bd 990b 20be 2309 0cbd
000001e0: 3634 b6bc 7fbe 643d ce39 f33c abc9 68bd
000001f0: 27b6 cd3d 719f bbbd c840 a2bd 4c43 ea3d
00000200: 7595 f03c ff67 48bc e17d 973d e4fe d83d
00000210: d47d 5dbd 524c 2a3c 44c2 12bd 3e1e 103d
00000220: 7253 9d3b e13c b2bd 7318 64bc a724 81bd
00000230: 6317 99bc 4c41 40bd 838a f4bb 717c a5bd
00000240: 1621 1fbd 6f68 a43d de9d 80bd ceb9 343d
00000250: f583 df3d 0e0f 8a3c 5431 953d 7b8e 09bd
00000260: f47f 283d 2b63 3b3c bbb4 913d 4d04 573d
00000270: 54fe 73bd ca51 85bd 1db0 32bd 4417 c53a
00000280: f4f6 51bd 1b1e a4bb 2a6a 523d b3b8 733c
00000290: 9f4c 97bc 57e2 3cbd a04e 4abd a923 293d
000002a0: cb4d 8fbd 68ca a23d 588f febb bf68 d23d
000002b0: 61ed 213d 96fd 08be f375 c3bc e00c 683d
000002c0: ccea af3b a6ed 6fbc 10e3 ba3d 45ae c0b9
000002d0: 3e15 303b 3447 c3bc 2a29 d3bc 4500 933d
000002e0: 61fd 62bd be1a 30ba 4178 8fbd 4194 0e3e
000002f0: 21f7 e63c ae35 d4bd 1da8 803c b59b 89bd
00000300: 72dd 80bd a277 c33d 416f 383d 88e8 0ebd
00000310: 9a35 db3b 70d1 a83d 2959 b93c 9a29 173d
00000320: 33dd 2b3d 3362 8e3d ff2f 71bd 1ff9 52bd
00000330: bec2 debd 2405 903d ed2b 8dbd 0416 1c3d
00000340: 238b 85bd 58fc 6abd 960a 90bd ed0d 68bd
00000350: eaa3 37bd cd4a b83c bae4 503c 6d99 bdbd
00000360: 6508 593d b14f c4bd 7268 823d c87b 87bc
00000370: 8c1a 273c 95f4 5cbc 94cc 7a3d 1d40 82bd
00000380: b1c0 c0bc 3935 80bd cac5 723d 35a7 0ebd
00000390: 0fda 893c 4fa6 2abd 6810 27bd 085f c53d
000003a0: 108e 74bd 7855 063d 2bd6 2bbd 9bac 8f3d
000003b0: 7459 1f3d b1c0 d83c effb fc3c e72c 523d
000003c0: 6103 843d cd73 17be 81a3 99bd 75eb 6d3d
000003d0: 1ca9 8d3d c763 22bc 6898 65bd 87fb 343c
000003e0: d135 c53c 011c a7bd ed47 b8bd e0e0 babd
000003f0: 535e 18bd 56d8 473d 92de 023c ae0c d83d
-0.00678613 -0.012413127 -0.026362956 -0.03623067 0.0413041 -0.13064207 -0.046664417 0.06532135
-0.066711135 0.0664074 -0.06616093 0.10355766 0.03932422 -0.013756116 0.037875384 0.049268723
0.03987794 0.020043844 0.11262973 0.07188115 0.11576164 -0.06950328 -0.023950713 0.007976951
-0.08437848 -0.05671632 -0.030222002 0.0755992 0.051509514 0.025152598 -0.04741616 -0.021851612
-0.06085893 -0.018825654 0.04433162 0.010072603 -0.06401448 0.017889595 0.012194167 0.14913532
-0.09903241 0.043438092 0.04107003 0.042768255 -0.09101716 -0.13359423 0.029443543 0.10322157
0.04334458 0.0045262505 -0.08151629 0.080383085 0.0023631093 0.0035962397 0.04235094 0.028285125
0.056179672 0.029626494 -0.080463625 0.049451265 -0.1385858 -0.12500654 -0.080686115 -0.08833103
-0.07336241 0.029742984 0.043003272 0.07365937 -0.035967723 -0.10635493 -0.010943705 -0.06608327
0.0010931025 0.0974986 0.0218319 -0.023230439 0.022288546 -0.033507086 0.094734386 0.0776759
-0.02642161 -0.0954014 0.056672037 0.00963662 -0.03613712 -0.026883302 0.09516516 -0.052584935
0.08121835 -0.10870699 0.033227697 0.075077094 0.10947607 0.020291017 0.018593483 0.02011874
-0.006085775 -0.09253413 -0.005421445 0.009032094 0.05942491 0.025068825 -0.09153772 -0.047854923
-0.038506307 -0.009808064 0.05823465 -0.007382089 0.138535 0.048190486 0.036692444 -0.045459677
0.13944241 0.0138644865 -0.035269175 -0.051959574 0.00016268088 -0.07966359 -0.15629424 -0.0341884
-0.022241693 0.055845734 0.02969065 -0.05683295 0.100445084 -0.091612704 -0.07922512 0.11438617
0.029368142 -0.012231826 0.07397056 0.105954915 -0.054075077 0.010394173 -0.035829797 0.03518509
0.004801207 -0.08703018 -0.013921845 -0.06305819 -0.01868791 -0.046937272 -0.007462801 -0.08080376
-0.038849913 0.080277316 -0.06280111 0.04412251 0.10913841 0.016852882 0.07284799 -0.033583146
0.04113765 0.011437218 0.0711455 0.052494336 -0.059568718 -0.06509741 -0.043624986 0.0015036841
-0.051260903 -0.0050084717 0.051370777 0.014875579 -0.018469153 -0.046114292 -0.04939139 0.041293774
-0.0699726 0.07948762 -0.0077685528 0.10273885 0.039533023 -0.13377985 -0.023859954 0.056652904
0.005368566 -0.014644062 0.0912534 -0.00036750935 0.002686813 -0.023837663 -0.025776464 0.07177786
-0.055417422 -0.0006717852 -0.070053585 0.13923742 0.028194012 -0.10361801 0.015705163 -0.06719152
-0.06292237 0.095443025 0.045027975 -0.034889728 0.0066897394 0.08243072 0.022625523 0.03690491
0.041959 0.06952324 -0.058883663 -0.05150711 -0.10876988 0.070322305 -0.06893144 0.038106933
-0.06520679 -0.05736956 -0.07033269 -0.056653906 -0.044834055 0.022496605 0.012749845 -0.09257779
0.05298652 -0.095855124 0.063675776 -0.016538516 0.0101992 -0.013486047 0.061230257 -0.06359885
-0.023529382 -0.062601514 0.059270658 -0.03482743 0.016827611 -0.04166251 -0.04078713 0.096372664
-0.059705794 0.032796353 -0.041952293 0.07015344 0.03890367 0.02645907 0.03088185 0.051312353
0.06445957 -0.14790268 -0.07501889 0.058085877 0.06917021 -0.009911484 -0.05605355 0.011046297
0.024073513 -0.08159638 -0.08998094 -0.09124923 -0.03719933 0.0487903 0.007987635 0.105492935

rnn.bias_ih_l0 f4 [128]
00000000: e929 46bd f5a1 9e3c 2c0b 22be bc19 e6bd
00000010: ceab a0bd 78c6 ddbd 0f17 9bbd e189 113e
00000020: 7775 27bd 2b80 f53d 4b56 c5bd d010 9e3d
00000030: 64af b93d e9ad 383c 2b8e 46be 94f2 0b3e
00000040: 4841 b13d cbd0 c1bd 2052 54bc 9c4d ec3d
00000050: 7d1d 763d 9476 40be b414 fa3d 4dd6 bf3d
00000060: 2c02 41bd 4cfe b0bc a8a7 f33c 220d 59bd
00000070: 499e 083e 14fd 26be 86a5 aabd e3ce 893c
00000080: be8d 8c3d 790e 69bc ce3e 0dbe c2f5 9c3d
00000090: ba8a 0abe dafa b9bc 12d7 87bd e484 02bd
000000a0: 3f83 e9bc 67b7 25bd ccb1 44bd 7684 0b3d
000000b0: efd1 eb3c e152 0f3d 5554 40bc cea3 d73d
000000c0: 0fba 8bbd 86b2 763d 08a0 47bc e096 353e
000000d0: d10c c9bd 867e edbb ac2f 0a3e c149 c73d
000000e0: 2162 7c3d 2b09 e1bd 4634 903d 1aeb 783d
000000f0: 9986 7ebd c34d 21bd 1771 26be a350 1c3d
00000100: 87cf b7bd 771d fbbb 57c5 5abd db6e f2bd
00000110: f78b e3bd 0ac3 9ebc bda8 103e b643 83bd
00000120: 563a 073d c4f5 e73d 5c6b 963d d31e 6c3d
00000130: 0aa9 a7ba f530 51bd d898 1abe f9b6 f8bd
00000140: f82d 933d f293 1a3d 5539 aebc f9b1 01bc
00000150: fe41 e2bd edc0 82bd e6aa 05bd adc1 1a3d
00000160: bb40 0cbd 8da7 2e3d 706c 423e 7490 1bbe
00000170: a343 873d 3522 9a3d 6fc6 443d c890 d3bd
00000180: b103 003e eb77 2dbe b93f 653d ab9a 05be
00000190: 5438 0abe cc8a 263b 8697 afbd 66a4 63bc
000001a0: ddb1 ec3d 6551 793d 74eb c13d 2547 37bd
000001b0: e6a0 003e 2d7c b3bd 828a 9f3c 85b6 8f3b
000001c0: b011 d93d 7cde e9bd 37c3 8c3b d97a 3cbe
000001d0: 2311 d9bd fd7d 7e3c e336 7e3c 10c5 93bc
000001e0: f213 013e b36c 0cbe 967c e23d cbc6 153e
000001f0: f3b1 5b3c c243 de3c 0979 eebd abf9 d13d
-0.048379812 0.019364337 -0.15824574 -0.11235377 -0.07845269 -0.108288705 -0.075727575 0.14212753
-0.040883508 0.11987337 -0.096356 0.077180505 0.09066656 0.011271932 -0.1939017 0.13666755
0.086550295 -0.09463652 -0.012959033 0.1153824 0.060086716 -0.18795234 0.1221098 0.093670465
-0.047121212 -0.021605633 0.02974303 -0.05299104 0.13341631 -0.16307479 -0.08332352 0.016822284
0.06862973 -0.014224642 -0.1379349 0.07664062 -0.13529482 -0.022702623 -0.06632818 -0.031865016
-0.028504966 -0.04045811 -0.048021123 0.03406187 0.028786628 0.03499115 -0.011738856 0.1052929
-0.06822597 0.060228847 -0.0121841505 0.17733335 -0.09816898 -0.007247749 0.13494748 0.09730864
0.06161702 -0.10988077 0.0704122 0.060771085 -0.06214008 -0.0393808 -0.16254078 0.03816284
-0.089751296 -0.0076634246 -0.053410854 -0.1183755 -0.111106806 -0.019380111 0.14126869 -0.06409399
0.033014618 0.11326173 0.07344696 0.057646584 -0.0012791466 -0.05107208 -0.15097368 -0.12144274
0.07186502 0.037738748 -0.021267572 -0.007915967 -0.11047743 -0.06384454 -0.032633685 0.03778236
-0.03424142 0.042640258 0.18986678 -0.15191823 0.066046976 0.07526056 0.048040804 -0.10330349
0.12501408 -0.16940276 0.055968974 -0.13047282 -0.1349805 0.002541232 -0.08573823 -0.013894176
0.11557362 0.06086864 0.09468737 -0.044745583 0.12561378 -0.08763919 0.019475225 0.0043857717
0.10599077 -0.11419389 0.0042957324 -0.18406238 -0.10598972 0.015532968 0.015516016 -0.018038303
0.12605265 -0.1371334 0.11058919 0.14626615 0.013409126 0.027131919 -0.116441794 0.102526985

rnn.bias_hh_l0 f4 [128]
00000000: 2b27 7ab9 f066 883d d6c5 12be 1a80 75bd
00000010: 895e 1fbe 1657 aebd bdf9 68bc 2f00 393e
00000020: e161 94bd 3cbd 523d 6d0c 18be 6a50 103d
00000030: 3d11 1f3d 197c c9bd 569c acbd c4d7 1c3e
00000040: 42d9 383e 236a 8bbd 17ef 50bd 0a34 f73d
00000050: 5432 9d3d 3a45 c3bd 18d5 eb3d 986b 143e
00000060: 2084 03bb 2a91 8a3d fdd6 e338 a207 11bd
00000070: 0bea 093e 0831 81bd c49c 6fbd bc55 cbbd
00000080: 7d78 3c3c d94a f7bb 63e9 c3bd 0c78 61bd
00000090: b821 97bd a4f5 783d b287 1ebe 64b0 bcbd
000000a0: 6bc2 b23d c695 babd 1aaf 30bd 1ab2 193d
000000b0: 5c4e a63d 8170 d1bd 0b60 913c ece8 fa3d
000000c0: ec41 0ebe efc8 633d 6b75 efbd c0e0 193d
000000d0: cb97 0dbe d551 a4bd 2a10 0e3e ea83 f13c
000000e0: 21a7 0a3e ec49 6fbd 1a99 203d cd88 f63c
000000f0: 2221 ca3d 162c b43d 4cf9 a4bd 5861 633d
00000100: d871 bdbb 85c6 8b3d 26a5 cabc 1f4a cdbd
00000110: 1f67 64bd 09a5 efbd 77e2 083e d1d2 8fbc
00000120: 3352 97ba fdfa 713d 4fc8 813d 0b23 a8bc
00000130: 7705 fbbd 3e13 1fbe 6511 2abd c8ad 6ebd
00000140: 1ca5 983d a22a 623c 72c9 1abd d7ec 02be
00000150: 0a15 e5bd f606 65bd 5dc7 773d c7da 18bd
00000160: 9701 75bd b079 acbd 883e a83d 16c9 443c
00000170: b488 0d3e 279d 08bc 2fef 083e 41c0 0fbd
00000180: 9d62 023e 5600 20bd 0bc8 f03d f696 05be
00000190: cb1a 13bd 1678 f53c f275 f1bd e975 4e3d
000001a0: 0dde 2c3e 8683 073e 204e 323d 9557 323d
000001b0: 6070 df3c 23e9 89bd b5c9 1e3e 3da4 f73d
000001c0: 3dbc 3dbc 6668 92bd 5ab4 b03d f612 f9bd
000001d0: c243 81bd dc20 bc3d affb 80bc b4f5 bf3c
000001e0: ded6 113d 966e 0fbc 34c5 df3d 1393 273e
000001f0: 56a1 b73c 8f3a a83d 9f7e 153c 29bc ee3d
-0.00023856449 0.06660259 -0.14333281 -0.05993662 -0.15563406 -0.08512704 -0.0142196985 0.18066476
-0.072452314 0.05145 -0.1484849 0.03523294 0.0388348 -0.09838123 -0.08428256 0.15316683
0.18051627 -0.06807353 -0.051009264 0.120704725 0.07675615 -0.09534688 0.11515254 0.14494169
-0.0020067766 0.06765969 0.00010864248 -0.03540767 0.13468187 -0.0630818 -0.058499113 -0.09928462
0.011503336 -0.0075467643 -0.09565999 -0.055046126 -0.07379478 0.060781136 -0.15481451 -0.09213331
0.087284885 -0.09110598 -0.04313574 0.037523367 0.081204146 -0.102265365 0.017745992 0.122514576
-0.13892335 0.055611547 -0.116923176 0.037567854 -0.13827436 -0.08023421 0.13873354 0.029481847
0.13540317 -0.058420107 0.03920851 0.030094529 0.09869601 0.08797471 -0.08055362 0.055512756
-0.0057813935 0.06824974 -0.024736952 -0.10023903 -0.055762406 -0.117014 0.1336764 -0.01755658
-0.0011544883 0.05907725 0.06337034 -0.020524522 -0.12256902 -0.15534684 -0.041520495 -0.0582712
0.07453367 0.01380411 -0.03778977 -0.1278566 -0.111856535 -0.05591484 0.060492862 -0.037318017
-0.05981597 -0.084216475 0.08215052 0.012010833 0.1382168 -0.008338249 0.13372491 -0.035095457
0.1273293 -0.03906282 0.11756905 -0.13045868 -0.035914224 0.029964488 -0.117900744 0.050405417
0.1688158 0.13233766 0.043531537 0.043540556 0.027275264 -0.067339204 0.15506633 0.12091873
-0.011580524 -0.07148819 0.08628149 -0.1216182 -0.06311752 0.09185955 -0.015745012 0.02343259
0.035605304 -0.008754393 0.109262854 0.16364698 0.022415798 0.08214294 0.009124427 0.116569825

actor.weight f4 [3, 128]
00000000: 0702 85be 5d46 e0be 7c65 bb3d 47fb 33be
00000010: 3e8a 0b3e 10c2 953e dcd0 043f aba0 8ebd
00000020: ba1e 833e 4971 a33c 7981 f7bd 7e9e e7bd
00000030: e593 723e 81df fb3e 5ac0 563d 8830 12bd
00000040: fdc0 8cbe 124b b6bd ff7b 7f3d 0acd 06bf
00000050: 0dd0 f5be 7057 683e e829 11be c293 c63d
00000060: 8771 113f b2e4 083e c9f9 01bf bf57 18be
00000070: c1e3 7fbd 78ab 603e d6f1 083e 199e d43e
00000080: 34a4 df3d d562 a23e abca 2d3d c96d af3e
00000090: 8413 793e 30fc f2bd 7e32 c83e f414 e2be
000000a0: d661 733e e5c8 93be 5bf6 c1bd e4aa e4be
000000b0: 4f99 d83e 946f 1c3f ae95 173e d612 e7bd
000000c0: 14c2 df3e b321 cbbe d000 cf3e a4a9 a2bd
000000d0: ba43 9bbd 6391 4fbe 5681 47be ac45 2abc
000000e0: 5195 3dbe 5058 05be 16bd ae3e ea1b adbe
000000f0: f538 c03e 577b c03e bf32 193c 84e2 393e
00000100: 16c9 9d3e 8881 12bf 99aa fbbc 36a2 2b3c
00000110: ac45 053f 1a28 213d ed34 f7bd 66ab 853e
00000120: fa92 8f3d 37d9 d2bc b9a9 20be 9728 5e3e
00000130: bb60 403e d2a3 9a3e a9b4 b9bd 23f1 b5bd
00000140: d76c a33e 431d af3e 20f8 6b3e 929d 9b3e
00000150: 692a b3bd 352f c73e 093e 163e 16b0 bc3e
00000160: 24eb aabe 34fc 033f 6a9d 92bd d778 863e
00000170: 2352 c2bd 209c 2fbe c563 17bf a661 e13e
00000180: fbce 5abd f6aa 8c3e a625 11be 85d0 103e
00000190: 0c57 0fbe 3fa8 92be 2b7c 15be d920 acbe
000001a0: ba65 1fbd c33e 8abe ca25 92bd ff98 afbe
000001b0: a99d 20bf d976 20bd a6a0 2d3e 5c1e 9abe
000001c0: 22cb babe 687d f73e 8511 4d3e 7e6b dc3c
000001d0: d2d5 58be e0c5 483e 6738 003f d795 733e
000001e0: d0c8 09be 54cc a8bd 2473 47be 4999 ebbd
000001f0: a2b4 0fbe 919c 693d ff66 8b3e f748 d4be
00000200: 41c9 993e 4ca0 813e 15a5 1dbe 9384 433e
00000210: 982d 5abc 775b 5bbe 6f45 0ebf 09ab e3bd
00000220: eac5 07bc f0cd 25bd 20f7 a43e 26d8 fe3d
00000230: 98e5 98be e2a9 ccbe ace8 6ebd 881d 4c3d
00000240: 24f7 3e3e 9a02 9c3d 22bc 4a3e 98f6 823e
00000250: cad7 0d3f 0947 38be 269b ae3d 95ff 81bd
00000260: 3c0c 05bf dc1e 75be 4547 e23e 93cb 733e
00000270: 38f4 ad3b 5288 4ebd a251 22be c6c8 2fbe
00000280: c4ad bdbd 3575 89be b6ec a7bc 1451 eabe
00000290: 0170 e1bd d2b9 123e 4235 99be dd21 0d3f
000002a0: 055c debe 1ed3 a33e 687d 733e 85fb 7b3e
000002b0: 51a1 1bbf 8348 06bf 375f cabd 5653 a23d
000002c0: e84b 52be 462c 1d3f 8738 98be 0f3d 003e
000002d0: 2159 0a3e a642 653e 728c 683e c167 303e
000002e0: 883c 2d3e cf3c 613e 1798 d2be 5433 f83e
000002f0: ef14 60be c61c 15bf 95c1 a6bd e393 76be
00000300: c3bd c2be 4480 143f abe1 5d3e 79ba 8f3d
00000310: bf90 b1be 0a1c ea3d e2cc 203e c87a c8be
00000320: 30d1 2cbe c8d7 b6bd 2782 043e 9c93 6cbe
00000330: 4aff 2e3d 3192 5abe 6996 b53d 4a87 15bd
00000340: 1f87 11bf a27e b2be 45cf 98be d647 4fbe
00000350: 432c 4f3e 9c6b 59be 1f3a 8ebe 8417 c7be
00000360: 7e3b a43e 7dd1 c6be 1326 1bbd 798d 40be
00000370: 150a 193d 1f6b 703d 7eca b23e 5ae8 b5be
00000380: eda0 09be 2415 35be 61fb 9ebc 1269 cabd
00000390: fd71 813e 4768 ed3e e3f3 fb3d 4276 b03e
000003a0: 833d f3bd 4a06 5c3d 51b6 8dbd 527f c13e
000003b0: 78a1 ef3e 8e60 1e3e 2895 b1be 87e5 473e
000003c0: ef18 2c3f 2dfe a3be b490 f3be 0e4f 1bbd
000003d0: 346b 4c3e a2a8 8ebd 0c43 2dbf 0992 61be
000003e0: 3b3c e53d e007 3ebd fa67 303e 04c3 f63b
000003f0: 54ef 243e 89f9 5fbe 93bb bfbe ccaa 0d3e
-0.2597811 -0.43803683 0.09150216 -0.17576323 0.13626954 0.2924962 0.51881194 -0.06964239
0.2560938 0.01995148 -0.12085242 -0.11309527 0.2368923 0.49193957 0.052429534 -0.035690814
-0.27490988 -0.08901037 0.06237411 -0.52656615 -0.48010293 0.22689605 -0.14176142 0.09696151
0.56813854 0.1336849 -0.50771767 -0.14877222 -0.062473062 0.2194041 0.13373503 0.4152687
0.10919991 0.31716028 0.042429607 0.34263447 0.24323851 -0.11864507 0.39101022 -0.4415661
0.2376779 -0.28864208 -0.09470817 -0.4466163 0.42304465 0.61107755 0.14803192 -0.112828895
0.43702757 -0.39674148 0.40430307 -0.07942513 -0.07581277 -0.20270304 -0.19482931 -0.010392588
-0.18513991 -0.1302197 0.34128636 -0.3381036 0.37543455 0.375941 0.009350478 0.18152815
0.3081748 -0.572289 -0.030720996 0.010475686 0.52059436 0.039344884 -0.12070642 0.2610733
0.070104554 -0.025738342 -0.15689744 0.21695171 0.187869 0.3020311 -0.09067661 -0.08883884
0.31918976 0.34202012 0.23043871 0.30393654 -0.087483235 0.38903204 0.14672102 0.36853093
-0.33382523 0.51556706 -0.071589306 0.26264068 -0.094883226 -0.171494 -0.5913661 0.44019812
-0.05342005 0.27474183 -0.14174518 0.14142044 -0.1399805 -0.28643987 -0.14598148 -0.3361881
-0.038915373 -0.27001008 -0.07136114 -0.34296414 -0.6274057 -0.039175842 0.16955814 -0.30101287
-0.36483103 0.48337865 0.20026214 0.026906725 -0.21175316 0.19606733 0.50086063 0.23787628
-0.1345551 -0.082420975 -0.19477516 -0.11503846 -0.1403375 0.05703408 0.27227017 -0.41461918
0.30036357 0.2531761 -0.15395005 0.19093542 -0.013316534 -0.2142161 -0.555747 -0.11116607
-0.0082869325 -0.0404796 0.3221979 0.12443571 -0.29862666 -0.3997336 -0.058327362 0.04983285
0.18648964 0.07617684 0.1979833 0.2557876 0.5540739 -0.17995848 0.08525686 -0.063475765
-0.51971793 -0.23937553 0.44195 0.23808126 0.005308654 -0.050422974 -0.15851453 -0.17166433
-0.09261659 -0.26847234 -0.020498615 -0.45764983 -0.11007691 0.14328697 -0.29923445 0.55129796
-0.4342958 0.31997007 0.23778307 0.24607666 -0.60793024 -0.52454394 -0.09881442 0.07926051
-0.20536768 0.6139568 -0.29730627 0.12523292 0.13510562 0.22388706 0.22709826 0.17227079
0.16917622 0.21995853 -0.4113166 0.4847666 -0.21882986 -0.5824703 -0.081423916 -0.24079852
-0.38035402 0.5800822 0.21668117 0.07017989 -0.34680745 0.11431129 0.15703157 -0.39156175
-0.16876674 -0.08927876 0.12940274 -0.23103184 0.04272393 -0.2134483 0.08866579 -0.036505975
-0.56846803 -0.34862238 -0.29845634 -0.20242247 0.20231728 -0.21232456 -0.27778718 -0.38885128
0.3207664 -0.38831702 -0.037878107 -0.18803968 0.03736313 0.05869591 0.34920114 -0.35528833
-0.13440295 -0.17683846 -0.019406976 -0.09883322 0.2528228 0.4636862 0.12302377 0.34465224
-0.11876967 0.053716935 -0.0691954 0.3779245 0.46802878 0.1546652 -0.3468411 0.19521151
0.67225546 -0.32029858 -0.47571337 -0.03791719 0.1996277 -0.06965758 -0.6768043 -0.22028364
0.11193129 -0.04639423 0.17227164 0.007530572 0.16106921 -0.21872534 -0.37447795 0.13834685

actor.bias f4 [3]
00000000: cf42 7cbd 63c2 17be 40c7 9b3d
-0.06158715 -0.14820246 0.07606363

critic.weight f4 [1, 128]
00000000: eb83 9ebb 01e9 983c 3aaa 6abd 18d3 20bd
00000010: 5b12 99bd 9630 25bd 63dc e4bb 09df a83d
00000020: 5e77 f6ba f140 9f3c a8bf 87bd cef2 9d3c
00000030: b523 38bb 459f dabc 39ae c7bb a510 263d
00000040: a7a2 3a3d aa6d 1fbd 14f2 9a3c 66b2 b73b
00000050: deb2 69bc 28a6 8cbc e6f7 8a3c de9c 0e3d
00000060: 1b34 1ebc df2b 4a3c 8274 033a 81a0 673a
00000070: 5ca7 0f3c f727 22bd 10ec 52bc 9ddb eb3b
00000080: 0081 2a3d 92e2 d93c 010a 3ebd 1890 94bc
00000090: b7b8 1cbc 9951 9d3b 56d7 a7bc 24fd 93bc
000000a0: 3353 323c 7805 41bd 5936 8d3c 1003 ecbb
000000b0: da60 c53c 09c4 593c ce4b dc3b a7ea 783c
000000c0: 7a67 55bc ddfd d5bc 7c07 c2bc 58b8 1d3d
000000d0: 03c3 b1bb 4d83 3cbd c654 1e3d 26b0 023d
000000e0: c9a6 8b3d 5778 21bd b751 853c 925f 78ba
000000f0: 83ea 033c c9a6 0b3c 2506 6dbc 9c4e 0d3d
00000100: ac14 02bd 7dfe ddbc 8d0b d5bc 8b1e c3bc
00000110: 5525 31bd 02be 2e3b bc51 853d c50b a73c
00000120: 8e6d 8bbc 99f4 9b3c 5b98 083d 6ba4 ee3c
00000130: 3b9a 163d 4919 c6bc 1867 5bbc a3ca 84bb
00000140: 0144 363c 7f82 2d3d ab47 4dbc 08ee 9bbb
00000150: a294 67bd 5dd9 263c c1e3 2a3c 62f7 f23c
00000160: 4d56 71bc fae0 773c 38d4 663d 2d1d 89bc
00000170: ec5a fb3c cb03 2f3c 73cd d73c f47d d5bc
00000180: efc1 13bb 0676 49bd b4fe 243d d9d8 71bd
00000190: bfad 82bd d4cd d13c ec2a f1bc 6fe3 233c
000001a0: ffe3 9f3c 4ac3 4cbc 1f00 423d 0171 c4bc
000001b0: 1d56 d73c 3fd1 39bc 6a05 3a3d 1a09 9bbc
000001c0: 0f55 b73a 25cb 863c 2d00 6abc 947f 54bd
000001d0: f2b7 d2bc c4ce 893b 30ef ecbb 015a 75bb
000001e0: eded 443b 218b 96bc ecf1 1d3c a632 183d
000001f0: 782f 4f3c 795c 1abc 8c17 52bc 64e7 00bd
-0.004837503 0.018665792 -0.057291247 -0.039263815 -0.07474204 -0.04032954 -0.00698428 0.082456656
-0.0018803885 0.019440146 -0.066283524 0.019280817 -0.0028097455 -0.026687274 -0.006093767 0.040543217
0.045565274 -0.038922943 0.01891426 0.0056059835 -0.014263837 -0.017169073 0.01696391 0.03481757
-0.009655978 0.012339561 0.00050146144 0.00088358676 0.008767929 -0.039588895 -0.0128736645 0.007197811
0.04162693 0.026597295 -0.04639626 -0.018135116 -0.009565524 0.004800987 -0.020488422 -0.018065043
0.010884094 -0.047124356 0.017237829 -0.0072025135 0.024094034 0.013291367 0.006722904 0.015192664
-0.013025159 -0.026122028 -0.02368521 0.038505882 -0.0054248585 -0.046023656 0.038655065 0.03190627
0.06818921 -0.039421406 0.016274316 -0.00094746903 0.008051517 0.008523651 -0.014466797 0.034498796
-0.031757995 -0.027098889 -0.026006484 -0.023818275 -0.043248493 0.0026663546 0.0650973 0.020391354
-0.017020013 0.019037532 0.033348422 0.029131135 0.03676818 -0.024181979 -0.013391279 -0.0040524765
0.011124612 0.04236078 -0.012529294 -0.0047586 -0.05653823 0.010183659 0.010430277 0.029658977
-0.014730048 0.015129322 0.05635473 -0.016737545 0.030683003 0.010682057 0.026343083 -0.026061036
-0.0022546013 -0.04918482 0.040281966 -0.059044693 -0.06380796 0.025610842 -0.029439412 0.010002955
0.019517897 -0.012497732 0.047363397 -0.023979666 0.02628618 -0.011341392 0.04541532 -0.018925238
0.0013987141 0.016454289 -0.0142822685 -0.05187948 -0.025722478 0.0042055566 -0.007230662 -0.003743768
0.0030049041 -0.018376889 0.009640198 0.037157677 0.012645595 -0.009421461 -0.012822997 -0.03147067
