model_params/model_params_30.pth (torch, 74912 bytes, 7 tensors)

rnn.weight_ih_l0 f4 [128, 6]
000000 e8 af 0f 3c 6b 08 c6 3d 3f 1a 9f 3d 5a e1 29 bf
       0.008769967 0.09669574 0.07768678 -0.66359484
000010 f9 67 05 bc a0 5d a9 3b 00 3f af b9 ab 12 bd 3d
       -0.008142465 0.0051686317 -0.0003342554 0.09232076
000020 95 58 9a 3d 76 2d 44 bf 4c 45 9f 3d 16 6a 63 3d
       0.07536427 -0.7663187 0.07776889 0.055521093
000030 00 e5 57 3b 4a 98 e5 bd 00 c9 48 bc dc dc 80 bd
       0.003294289 -0.112106875 -0.012254953 -0.062921256
000040 3d db e1 bd 2f 47 47 bb cb e5 5a bd 95 16 c4 bc
       -0.110281445 -0.003040742 -0.053441804 -0.02393655
000050 bc f6 b0 bd cd 24 e6 3e 25 2a 2d 3d 4b b5 9b 3d
       -0.08640811 0.44949952 0.04227652 0.07602938
000060 d0 6f 0b 3c 7a af 18 be d0 ad 8a bb 6b e0 c9 3e
       0.008510545 -0.14910689 -0.004232146 0.3942903
000070 15 0f 89 bd 12 7f 4f bc f5 c7 99 3d 0d 74 36 be
       -0.0669233 -0.012664573 0.07508842 -0.17817707
000080 8d 66 90 3d 0f cb 1e 3f 98 da 8d bd 95 f6 34 be
       0.0705081 0.6202859 -0.06926459 -0.17672189
000090 38 ca d1 bc 69 e1 14 be 99 28 9d 3d e8 d7 0a 3e
       -0.02560912 -0.14539112 0.07673759 0.13558924
0000a0 95 45 ff bd 3a 33 9b bd ca b5 05 bd 02 ef ea 3d
       -0.124644436 -0.0757813 -0.03264407 0.11471368
0000b0 7e 1d 20 3d c2 47 20 bf 4f 28 bb bc e4 81 0d bd
       0.039090626 -0.62609494 -0.02284637 -0.0345477
0000c0 26 db 13 bd ca 88 9d 3b 40 2c f0 ba 91 8a a0 3e
       -0.036097668 0.0048075663 -0.0018323734 0.31355718
0000d0 88 73 e6 bd 6d bc 32 bd 8b a8 85 3d b7 6b 59 3d
       -0.112525046 -0.043636728 0.06526288 0.05308124
0000e0 d0 f6 d1 bb eb a7 65 bf 3f a2 30 bd c3 ae ab bc
       -0.006407596 -0.8970935 -0.04312348 -0.020957356
0000f0 b9 61 94 3d 40 3f 66 bc 65 4b 70 bd 60 93 81 3f
       0.072452016 -0.014053166 -0.05866565 1.01231
000100 59 3e 84 3d 6a 30 e9 3c ab d7 8b 3d 5b 48 c4 bd
       0.06457204 0.028465468 0.06828245 -0.09584113
000110 19 0d a3 bd bd 14 3e be 72 0d 6f bc 57 97 76 bc
       -0.079614826 -0.18562599 -0.014590608 -0.015050731
000120 47 81 40 bd c7 18 81 3c f4 0d b3 3c 76 81 20 bf
       -0.04699829 0.015758885 0.02185724 -0.6269754
000130 fa 19 77 bd ec 0b 85 bd 6f 1d b2 3d 76 21 7c bd
       -0.060327508 -0.064964145 0.0869702 -0.06155535
000140 60 0b 60 bc b1 3e 31 3f a8 87 b3 bc af 6d 8d bd
       -0.013674587 0.69236284 -0.021915272 -0.06905686
000150 60 0d 1f bb 12 0f 9d 3d 48 51 72 3c 9d 44 cc be
       -0.0024269447 0.0766889 0.014789887 -0.39896098
000160 65 de 58 bd cb e2 a2 3d d5 9f 9e bd d9 96 40 bc
       -0.052946467 0.079534136 -0.07745329 -0.011754715
000170 1b 4f 94 3d b1 3b 3d bf d9 f2 5b bd 86 6f 48 3c
       0.07241651 -0.73919207 -0.053698394 0.0122336205
000180 40 06 e9 3a 45 29 54 bd e4 0d 80 bc 11 7a 4a 3f
       0.0017778352 -0.05179717 -0.015631624 0.7909251
000190 9d f6 90 bd 8e 79 8a 3d 9a 6a 1b bd 82 c5 c8 3d
       -0.07078288 0.06761466 -0.03794346 0.098032966
0001a0 dd 0b 8a 3d 23 c0 3a bf 84 24 b6 bd d2 47 71 bd
       0.06740544 -0.7294943 -0.088936836 -0.058906384
0001b0 e6 cc 70 3d dd 29 00 3e 54 cd f0 bc 0d 67 1c be
       0.058789156 0.1251597 -0.029394783 -0.15273686
0001c0 a4 ca 18 3d 3a 1b 94 bd 8e da 57 3d 25 19 a2 3c
       0.03730263 -0.072317556 0.052698664 0.01978738
0001d0 08 94 c4 bc 92 91 19 bf 7c 2a ee bd c4 3c d5 bd
       -0.023996368 -0.5998775 -0.11629197 -0.10411981
0001e0 78 8f c2 bc 2d f8 f6 3c 6a 5c 17 bd 8f 1b 6a bf
       -0.023750052 0.030147636 -0.036953367 -0.914483
0001f0 21 72 b1 bd 28 2d b6 bd 0c 95 83 bd 0f 7d 7a bd
       -0.086643465 -0.088953316 -0.06424913 -0.06115442
000200 06 3c 1d 3d da 8a 33 3d 19 c2 ff 3c c2 d1 d8 3d
       0.03838732 0.04383359 0.031220483 0.10586883
000210 38 e7 41 bc 60 96 87 bc f7 84 9a 3d 89 4f 13 bf
       -0.011834912 -0.016551197 0.07544892 -0.57543236
000220 d1 12 40 bd 9e 7d f2 bd 1a d7 b2 bd 7b dd 39 3d
       -0.046892945 -0.11840366 -0.087324336 0.045377236
000230 79 42 ae bd 7b e5 2d bf 82 3e 7f 3d 78 b8 97 3c
       -0.085087724 -0.67928284 0.06231547 0.018520579
000240 10 41 81 3c c7 98 a0 3d 27 0c 8a 3d 10 35 f0 be
       0.015778095 0.0784164 0.06740599 -0.46915483
000250 f8 f5 03 be 84 94 4e bd f2 64 3f 3d 58 8d 3e be
       -0.12886798 -0.050434604 0.04672713 -0.18608606
000260 d0 29 de 3b 06 97 de 3e 5a fc fd ba f2 e6 61 3d
       0.006779887 0.43474597 -0.0019377575 0.055151887
000270 69 6a 92 bd c5 f1 40 3d 8a 4f 81 bd d8 1f 26 bf
       -0.071492024 0.04710557 -0.06313999 -0.6489234
000280 d5 32 6c 3d 05 a2 2b bc e0 c4 69 bd c3 2c 4a bc
       0.057665665 -0.01047564 -0.05707252 -0.012339774
000290 90 89 0c bc 0f 8f 87 be c6 7b f2 3c cd 43 2b ba
       -0.008577719 -0.26476333 0.029600035 -0.00065332354
0002a0 22 22 6e 3d f3 b4 f3 bd 4a 43 ac bd 7f 71 21 3f
       0.05813802 -0.11899748 -0.08411272 0.63063806
0002b0 d3 a3 65 3d 80 1a 8d bd 2a 7b 37 3d c0 45 13 bd
       0.056064438 -0.0688982 0.044795193 -0.03595519
0002c0 b9 22 a8 3d de 71 55 3f e1 b8 42 bd ec 72 c5 bd
       0.08209748 0.8337687 -0.047539596 -0.0964106
0002d0 c1 f3 9b 3d c8 a1 e4 bc ce 0f 6d bd ee d1 f8 3e
       0.07614852 -0.027909175 -0.0578764 0.48597664
0002e0 fb 82 72 bd 3d 02 06 bd ba 10 15 3d 4c 71 0c be
       -0.059206944 -0.03271698 0.036392905 -0.13715094
0002f0 7d 11 90 3d 89 3c 4f 3f 04 2f 83 3d cb d0 70 bd
       0.070345856 0.80951744 0.06405452 -0.05879287
000300 80 0a 89 3c 34 3a 82 bd 20 78 95 bc 39 42 b0 3e
       0.01672864 -0.063587576 -0.018245757 0.34425524
000310 b3 d3 68 bd db 55 a0 bb 1e 19 26 3d 1a 3d c7 3d
       -0.056842517 -0.0048930473 0.040551297 0.09728451
000320 07 ad 53 bd ac 78 29 bf 68 22 73 3d 6f aa 87 3d
       -0.051678684 -0.66199756 0.059358984 0.066243045
000330 c0 3c d0 bc 8b 05 a8 b9 8f 41 98 bd b0 dc 42 3f
       -0.025419593 -0.00032047587 -0.07434379 0.7611799
000340 e6 49 42 bd 21 df c0 3d a0 46 5a 3b 25 d7 28 3d
       -0.047433756 0.094175585 0.0033306256 0.041220803
000350 8b b7 1f bd 36 47 32 bf 97 d1 bf 3c 1c 57 0f be
       -0.0389934 -0.6963991 0.02341537 -0.13998073
000360 24 53 aa bc b0 cd 82 bc 12 e3 62 3d 26 f0 d3 be
       -0.020791598 -0.01596722 0.055392332 -0.41394156
000370 de 78 a9 3d f9 8c 9b 3d 00 00 60 b6 b3 e0 1c 3d
       0.08275007 0.07595248 -3.33786e-06 0.038300227
000380 ac 67 96 3c 86 f4 3e bf f0 b2 ae bb 2a 35 c6 bd
       0.018359981 -0.74591863 -0.0053313896 -0.09678109
000390 b5 b3 84 bd b3 29 d1 3c e8 24 e6 3c f1 4a 0f bf
       -0.06479589 0.025532579 0.02809377 -0.55973727
0003a0 41 85 18 3d ae b8 2d 3c c8 e6 01 bc 6a 03 90 3b
       0.037236456 0.010603113 -0.007928558 0.0043949382
0003b0 d3 97 36 bd 7c c5 3e 3f 73 e4 12 3d 5d 9b 12 3e
       -0.044578385 0.7452009 0.035862397 0.14317079
0003c0 00 f3 a1 b9 ef 6f fe 3c f5 2c 97 3d 0a 44 2b 3f
       -0.00030889362 0.031059233 0.07381622 0.66900694
0003d0 21 03 6f 3c fe 86 6d 3c 1d 11 83 3d 47 4a 2d 3e
       0.014588148 0.014497517 0.063997485 0.16922866
0003e0 bd 86 99 bd 13 ce 80 3e 6d b2 bb 3c 86 bd 41 3d
       -0.074964024 0.25157222 0.022912228 0.047299884
0003f0 eb 78 ac bd 34 c7 c1 bd e8 24 d9 3c ce 56 1e 3f
       -0.08421501 -0.09461823 0.026506856 0.61851203

rnn.weight_hh_l0 f4 [128, 128]
000000 0e 1e c8 3b 72 e1 d4 bd c6 f2 60 bd 73 40 4b bd
       0.0061070984 -0.10394563 -0.054919027 -0.04962201
000010 ca 5f bb bd a5 dd 9a bd a4 be 54 bd de e7 94 bd
       -0.0914913 -0.075618066 -0.05193962 -0.07270788
000020 52 02 b5 3d f8 b6 28 3d 44 fb e9 bd 1d 14 89 3d
       0.08838333 0.041190118 -0.11424878 0.066932894
000030 c8 ac 95 3d ee 41 e3 bc 0a 16 4f bd 88 17 ac 3c
       0.07308346 -0.027741399 -0.050558127 0.021007314
000040 d9 6e 0b bd 76 54 25 bd 38 3f c4 bd da 1e ad 3b
       -0.03404126 -0.04036375 -0.095823705 0.005283219
000050 cb c1 93 3d 41 fa d2 ba c2 08 6f 3d c7 51 be 3c
       0.072146975 -0.001609631 0.05835796 0.023232354
000060 50 33 14 bd c4 5c 06 3e 3d ee 04 3d 8c 7f f1 3b
       -0.036181748 0.13121325 0.032453764 0.007369941
000070 b2 95 6a bc eb cb ae 3d 46 55 a1 3d fa 11 1e 3d
       -0.014317917 0.08534988 0.07877593 0.038591363
000080 ef c4 88 3d b4 e4 fe 3c 2b fe d2 bd 0f 87 1a 3d
       0.06678187 0.031114914 -0.10302385 0.03772646
000090 80 0e 35 bb 93 29 00 bd 83 9b 84 bd ef a6 30 3c
       -0.002762705 -0.03128965 -0.06474974 0.010781988
0000a0 33 c9 1f 3d 5a 13 e6 3c 1c 52 34 3c c4 94 27 bd
       0.039010238 0.0280854 0.0110059045 -0.04091336
0000b0 27 92 9f 3c b9 fc 13 3d a7 5a d3 bc fd 3b 63 3d
       0.01947887 0.036129687 -0.025800062 0.05547713
0000c0 96 69 d8 3c f4 60 cd 3c 79 1a 8d bc 66 48 26 bd
       0.026417535 0.025070645 -0.017224537 -0.04059639
0000d0 58 da 90 bc 86 5c cb bc 52 62 ce 3c 9d c5 39 3d
       -0.01768224 -0.024824392 0.025193367 0.045354474
0000e0 cb a8 36 3d 5b 91 81 3d 90 75 a0 3d c4 40 25 3d
       0.044594567 0.063265525 0.07834923 0.04034497
0000f0 ca 4d 2b 3d 96 d6 96 3d c7 b3 45 3d c7 2c 92 3d
       0.041822232 0.07365148 0.048267152 0.07137447
000100 8c e0 bd 3c f8 cc 14 3d 7d 46 ef bd c9 cc 58 3d
       0.023178361 0.036328286 -0.116833664 0.052929673
000110 a6 f2 a2 3c 22 fc 49 bd 84 9d 95 3c 00 cc fd 3a
       0.019891094 -0.04931272 0.018263586 0.0019363165
000120 b3 47 a6 bd 8b 00 b2 bc 5e dc c8 bd 78 39 59 3d
       -0.08119144 -0.021728775 -0.09807657 0.053033322
000130 c2 14 40 bd 62 1a ac bd 94 a0 cc 3a fa 6a 1b bd
       -0.046894796 -0.084034696 0.0015611821 -0.037943818
000140 f4 07 91 3d ca d5 42 3d da 28 47 bc f1 c2 b9 3d
       0.07081595 0.047567166 -0.012155736 0.09070385
000150 be 3c 5c bd 80 63 61 bd 20 9c 94 3c d5 c0 c3 bd
       -0.053768866 -0.05502653 0.018140852 -0.09558264
000160 21 e1 96 3d b9 98 76 bd b1 f3 c8 3c b1 84 ec bc
       0.07367159 -0.06020424 0.024530264 -0.028871866
000170 2b a6 6b 3d a6 1b a3 3b 9d 60 e6 3b 65 ad 19 bd
       0.057531517 0.004977661 0.00703056 -0.037518878
000180 25 38 50 bd 9a 7b cd 3c 3e dd b1 bd ab 6a 84 3d
       -0.050834794 0.025083352 -0.08684777 0.06465658
000190 06 42 a3 bd ca 9a a6 3d 45 22 8b bc 77 dd 94 3d
       -0.07971577 0.081349924 -0.016984114 0.072688036
0001a0 2e 56 79 3c 16 0b 86 bd 5a e6 4e 3b e4 8a 87 bc
       0.015218301 -0.06545083 0.0031570406 -0.01654572
0001b0 8a ba bc 3c 3c d3 c5 3b 97 90 85 bd d9 90 ec 3c
       0.023038168 0.006037144 -0.06521719 0.028877662
0001c0 2d a5 59 3d b0 87 20 3d 3a ca ad 3d ca c8 14 bd
       0.05313604 0.0391919 0.08485837 -0.0363243
0001d0 09 29 8d bc 5d 1d 94 3c 66 9c 76 bc d4 b8 e8 bd
       -0.017231481 0.018080408 -0.015051937 -0.11363378
0001e0 c2 d1 7e ba 94 a1 21 bd 2f 8c a5 bb 80 c0 fc 3c
       -0.00097205874 -0.039460734 -0.0050521116 0.03085351
0001f0 3f 5f 18 3c 56 33 fc 3c b3 a7 90 bc 33 06 33 3d
       0.009300052 0.030786198 -0.01765809 0.043707084
000200 79 d3 ea 3d 2d 4b 98 3d c0 e9 16 bc bb 03 0f bd
       0.114661165 0.07436214 -0.009211004 -0.034915667
000210 9b c0 a8 bd 7f 1b 6e bc 0c c3 6e bd f5 5c c2 3d
       -0.082398616 -0.014532923 -0.05829148 0.094903864
000220 e1 57 ba 3c bd 0b e2 3c 43 e0 b6 3c 78 1f 4d 3b
       0.022746982 0.027593488 0.022323733 0.0031299274
000230 57 ea b6 bc d3 52 82 bd f9 d5 a2 3c ba a9 3e bd
       -0.022328539 -0.06363454 0.01987742 -0.046548583
000240 95 7b 6e bd a0 54 cb bd 3c 78 ef bb 39 37 c5 bd
       -0.058223326 -0.0992825 -0.007308034 -0.096296735
000250 30 bb 92 bd 5a 75 7c 3c 17 5a 8f 3d 31 a2 8c 3d
       -0.071646094 0.015408838 0.06999605 0.06866873
000260 f6 a5 c4 bc 79 16 a6 bd ea 8f e4 bd 84 d2 ac 3d
       -0.024004918 -0.08109755 -0.11160262 0.0843859
000270 8e 9c 11 bd 71 33 be bd af 58 55 3d eb 67 83 3d
       -0.035549693 -0.092871554 0.05208653 0.06416305
000280 56 1d 99 bd f9 4c 81 3d 1c 93 0a be 99 d4 4b bd
       -0.074762985 0.063135095 -0.1353268 -0.049763296
000290 2b c8 84 3d 8b a3 2f 3c 5b 5e cb bd e4 e9 cc 3b
       0.064834915 0.010720144 -0.09930106 0.006253468
0002a0 b3 f5 95 bc d4 8b ba 3d f1 cd 18 3c dd 33 0e bd
       -0.018305635 0.09108701 0.009326444 -0.03471743
0002b0 8f d5 8a 3d a2 3c b4 bb 85 e9 39 3d 60 20 cd 3d
       0.06779014 -0.005500392 0.045388717 0.10015941
0002c0 9b 89 1c 3d 14 1b a1 bb 50 31 0c 3d 85 75 ca 3c
       0.03821717 -0.004916558 0.034226716 0.02471424
0002d0 f4 54 4e bd d2 f8 7c bd dc 23 66 3d 2f 3b 55 bd
       -0.050373986 -0.06176073 0.056186542 -0.052058395
0002e0 57 35 77 b8 68 ca 19 3e d5 2f a6 3d 1f 23 4d 3d
       -5.8939066e-05 0.15018618 0.08114592 0.050082322
0002f0 62 39 80 bd d3 de 9c bd ad ed b3 3d 3c 92 98 bd
       -0.06260945 -0.07659688 0.087855674 -0.07449767
000300 ba ab 59 bd 9f 29 64 3d 2d 45 0d be a1 3c 26 bd
       -0.053142287 0.055703755 -0.1379592 -0.040585164
000310 80 1f 56 bd e6 d9 46 3d f2 38 a4 bd c1 ee fa 3d
       -0.052276134 0.048547648 -0.08018674 0.1225257
000320 ea 39 d3 3b 0a 40 3a bd 2a 88 f0 3c 53 49 92 bc
       0.006446113 -0.04547123 0.029361803 -0.01785723
000330 a0 7d 99 3d 21 c7 38 bd b7 4d 9c bd 0d 1e 0a 3c
       0.07494664 -0.04511178 -0.076320104 0.008430016
000340 fe 93 e0 3c ab 9f 9f 3d 3f f4 c5 bd 91 e5 40 bd
       0.027414318 0.07794126 -0.09665727 -0.04709393
000350 de c9 ac bc 2f 94 d7 bc 30 b6 89 3c d9 c8 ec bc
       -0.021092352 -0.026315777 0.016810507 -0.028904365
000360 21 79 8d bd 71 60 cd bb 14 40 92 bd 25 0c 78 bc
       -0.06907869 -0.0062676 -0.07141128 -0.015139614
000370 12 1a fd 3c ed 24 77 bd f3 4e e6 3c 4c 8d 99 3d
       0.03089622 -0.06033795 0.028113818 0.07497653
000380 1e 32 22 bd 90 39 3b 3d cc fc 12 3c 8e c9 74 3d
       -0.039598577 0.045709193 0.008971404 0.05976253
000390 8b bb 8f 3d 68 53 f1 bc 38 15 bc 38 4e 1f a2 3c
       0.07018193 -0.029458717 8.968491e-05 0.019790318
0003a0 c1 cf ce bd fe 85 92 bd 2b f8 e5 3d 90 c0 29 3d
       -0.1009822 -0.07154463 0.11228975 0.041443408
0003b0 6a bd aa 3c 9a 57 16 bd 1e 28 0d bd 10 10 83 bc
       0.020842273 -0.036704637 -0.034462087 -0.01599887
0003c0 89 31 d0 3d 71 b1 0d bc c8 20 c5 3d 60 ca 04 bd
       0.10165698 -0.008648262 0.09625393 -0.032419562
0003d0 a6 32 03 bd 4f 6f 15 bd 0a 53 3c bd ad b7 0c be
       -0.032030724 -0.036483105 -0.04597763 -0.13741942
0003e0 2d df 38 bd 18 3e 3a bd 33 98 19 3c 6c 9e e3 bc
       -0.045134712 -0.045469373 0.009374666 -0.027785502
0003f0 e9 05 c3 3d b9 1b 25 3d 0c 41 1a bd e3 a5 95 3d
       0.09522612 0.04030964 -0.03765969 0.07307031

rnn.bias_ih_l0 f4 [128]
000000 63 75 bd 3b 13 f2 71 3e 40 a5 24 be f0 06 6f bc
       0.005781816 0.236275 -0.16078663 -0.014589056
000010 91 49 2c be 02 9b 1b be bb e4 92 bd 65 5f eb 3d
       -0.16824938 -0.1519585 -0.07172533 0.114928044
000020 c0 2f 79 bd 38 b9 44 bc 6a 43 0a 3b 1d a8 0f 3e
       -0.060836554 -0.01200705 0.002109731 0.14028974
000030 3e 15 a7 bd c7 18 2b 3d e6 a6 59 3d e2 75 b1 bd
       -0.081583485 0.041771676 0.053137682 -0.086650625
000040 60 41 75 3c ba 14 97 bd ee c3 40 be e2 c3 25 bd
       0.0149692 -0.07377 -0.18824741 -0.04047001
000050 f8 38 0a be 71 01 e7 3d 20 69 22 be cb d0 bf 3c
       -0.13498294 0.11279572 -0.15860415 0.02341499
000060 18 60 53 be 69 51 91 3d 35 ec 2f be 02 71 bb bd
       -0.20642126 0.07095606 -0.1717995 -0.09152414
000070 e0 c3 5a 3d 15 a0 7d 3d 07 d8 38 3c d1 99 c8 bc
       0.053409457 0.061920244 0.011281974 -0.024487408
000080 9d c0 fc 3c 04 55 6c 3c 6c 9f 5c bd da b7 6f bd
       0.030853564 0.014424566 -0.053862974 -0.058524944
000090 49 8f 2d 3e 57 1b 23 bd e1 29 c0 bd 93 3d 47 3e
       0.1694919 -0.039820995 -0.09382988 0.19457082
0000a0 1e 5b 13 3c a3 7e 2f 3d 87 64 cc 3b b2 8a c4 3c
       0.008993892 0.04284538 0.0062375697 0.023991916
0000b0 12 14 f3 3c 9b f4 bf 3d b5 62 f2 bb 90 c6 4e bd
       0.029672656 0.09372827 -0.0073970207 -0.050482333
0000c0 27 42 3c bd 51 98 fb bc 84 a3 61 3c aa 2c a4 3d
       -0.045961525 -0.030712279 0.013771895 0.080163315
0000d0 a2 c9 d8 bd 42 14 02 3d 04 ea 41 bd 5a 5f 52 bd
       -0.105853334 0.0317576 -0.047342315 -0.051360466
0000e0 f6 97 4f bd 96 c9 d6 3d 80 0b 93 3d c4 47 fc 3a
       -0.05068203 0.10487668 0.07179928 0.0019247462
0000f0 ce e1 32 bd 54 8e a7 bc 3a 18 13 3e 3c 24 d9 3c
       -0.043672375 -0.02045361 0.1436471 0.026506536
000100 d1 df 85 3c b1 d1 ed bc b1 b5 6f bd ef ac 4a 3d
       0.016342076 -0.029030653 -0.058522884 0.04948133
000110 52 9e 30 3e 2d 7c ef 3c 6d 0a 45 3d 0a c6 9a bd
       0.17247894 0.029234016 0.048105646 -0.07557304
000120 36 e5 97 3d 47 c0 d0 bd 1a 2d 0d 3d 4c 5b 05 bd
       0.074167654 -0.10192924 0.03446684 -0.03255777
000130 9f d6 b1 3c 95 36 22 3d 4c a3 95 3d 32 6c ec 3d
       0.021708785 0.039602835 0.07306537 0.11544074
000140 f3 25 1f be 48 2d 54 3d d4 40 71 3d 6d d6 08 3e
       -0.1554182 0.051800996 0.058899716 0.13363047
000150 a5 6d 90 3c da 63 be bc df 68 78 3c 72 44 5e bd
       0.017630408 -0.023240972 0.015161722 -0.054264493
000160 f1 da df 3c 6e 2e 1d 3e 57 32 07 be 93 7e c3 bd
       0.02732608 0.15349743 -0.13202797 -0.095456265
000170 07 f1 29 be d3 6a 3c bc b2 dd fc 3d 49 d9 10 3e
       -0.16595851 -0.011500078 0.123469725 0.14145388
000180 bc e2 2e 3d 1e 01 de ba 1a 5c 78 3c 83 10 fa bd
       0.0426967 -0.0016937589 0.0151586775 -0.122101806
000190 99 bf 49 bc df 3d ba bd cb 8c 0a 3d 10 9e fa 3c
       -0.012313747 -0.09093832 0.033825677 0.030592948
0001a0 91 a7 e1 bc 60 df 1d 3e 14 c1 ce 3d 05 43 f2 3c
       -0.027545722 0.15417242 0.100954205 0.029572973
0001b0 8f ce a6 3d 1b 31 1f 3e 39 db b9 bd c0 0a 8a bd
       0.08144867 0.15546076 -0.090750165 -0.06740332
0001c0 0e a2 0b 3e 18 1d 6b bd 73 0a 39 bd bb 6f 9b bd
       0.13636038 -0.057400793 -0.04517598 -0.0758967
0001d0 ad f7 8a 3b 4d 17 78 bd 07 df db bd 48 9e 17 3d
       0.004240951 -0.060569096 -0.107358985 0.037016183
0001e0 20 1a 89 bd a6 16 f5 3d fe 52 6a 3d e2 aa 28 3d
       -0.06694436 0.119672105 0.057208054 0.04117859
0001f0 8e b5 8a 3d 3e c2 1e 3e 42 ae 04 be 16 c2 17 bd
       0.0677291 0.15503785 -0.12957099 -0.03705033

rnn.bias_hh_l0 f4 [128]
000000 58 a5 b7 3d 6d 31 21 3e ce e0 42 be b5 0e e9 3d
       0.08967084 0.1574151 -0.19031069 0.11379758
000010 31 47 f2 bd 78 71 15 be 82 26 94 bc c3 aa 18 3d
       -0.11829985 -0.14594066 -0.018084768 0.037272226
000020 56 24 09 be 0d d5 63 3d 83 e0 79 3d e9 c6 28 3d
       -0.13392767 0.055623103 0.061005127 0.04120532
000030 f6 06 f0 bb 53 19 c6 bd ee d6 33 3d 89 9a db bc
       -0.0073250486 -0.09672799 0.043906145 -0.026807087
000040 b2 a6 c7 3c ff 83 65 3c 58 da 98 bd 59 22 02 be
       0.024371479 0.014008521 -0.07463521 -0.12708415
000050 c0 69 40 be 61 12 6b 3c aa 01 08 be 7f cb 25 3d
       -0.1879034 0.014347644 -0.13281885 0.040477272
000060 ee fd 1e be 1e 55 0a 3d 7d af 10 be 09 1c 73 bd
       -0.15526554 0.03377258 -0.14129443 -0.05935291
000070 fc af 1f 3d 1f 3d 90 bd d7 6d 6f 3c 12 52 ab 3d
       0.03898619 -0.07042908 0.01461359 0.08365263
000080 74 2c 89 3c d8 3c a0 3d 54 51 19 3d de ce bf bd
       0.01674483 0.07824105 0.037431076 -0.09365629
000090 6d 16 27 3e ad 60 7d bd 1f 6a 9c bd a2 05 9e 3d
       0.16317149 -0.061859775 -0.076374285 0.07715918
0000a0 9c a5 0a bd 06 53 ff 3d d8 1c 3f 3c 03 7f 08 3e
       -0.033849344 0.12467007 0.011664592 0.13329701
0000b0 00 97 15 3e af be 42 bd f8 ce 7f bd 4e 0b 65 3d
       0.14608383 -0.04754513 -0.06245324 0.055918984
0000c0 f1 85 36 3d 20 e1 ef 3c eb 04 01 3e 06 13 fd 3d
       0.04456133 0.029282153 0.12599532 0.12357144
0000d0 a3 7a 3d be 95 2d 17 3e 67 c7 02 3e dc ff bd bd
       -0.18503813 0.14763482 0.12771378 -0.09277317
0000e0 f0 a7 8b bb 5c 05 9e 3d e6 9b bb 3b 6c 3f e8 bc
       -0.004261963 0.07715866 0.0057253717 -0.028350554
0000f0 58 3d 54 bd be a5 08 be ec 94 a4 3d 3a 7a 06 bc
       -0.051816314 -0.13344476 0.08036217 -0.008207852
000100 c9 7c e0 3c 08 95 1e 3d 0b 7c d2 bd 83 b4 61 3d
       0.027403252 0.038716346 -0.102775656 0.05510379
000110 b4 b2 52 3e d4 10 a5 3b ad 7d 50 38 76 53 86 3d
       0.20575982 0.0050374065 4.970811e-05 0.06558888
000120 fa bc a8 3d b7 ed d6 3c cc 23 f1 bc 92 e6 1a 3d
       0.082391694 0.026236398 -0.029436015 0.037817545
000130 9a 54 b7 3a 5d bb 07 3e f5 39 b9 bc 48 0a 59 3e
       0.0013987005 0.13255067 -0.022610644 0.21195328
000140 71 83 5a bc 5a 81 0b 3c e8 68 a6 bd 35 2d e8 3d
       -0.013337002 0.008514727 -0.08125478 0.113367476
000150 3c 4b 58 3d 2f a7 ba 3d 53 48 ae 3d fb b1 8c bb
       0.052806124 0.09113919 0.085098885 -0.004293678
000160 9d ad d2 bd b9 7e 03 3e 8c 4c 4b bc aa 46 19 be
       -0.1028702 0.1284131 -0.012408387 -0.14968362
000170 17 78 15 be 2a 41 7a bc 08 99 92 3c cf 18 e2 3d
       -0.14596592 -0.015274325 0.017895237 0.11039888
000180 4b 57 04 3c 46 34 cd bc fe 57 c4 3a 57 cf e1 bd
       0.008077453 -0.02504934 0.0014979837 -0.11025875
000190 17 37 40 3d de 4f 14 bd 5e a0 8e 3d 3f b1 40 bd
       0.046927538 -0.03620898 0.06964181 -0.047044035
0001a0 52 88 f5 bd 0f 6e 03 3e 1e 8b cd 3d cb 25 d5 bc
       -0.11988892 0.12834953 0.100363 -0.026018998
0001b0 dc 32 46 3d 97 38 fa 3d ec 37 11 3d 76 cb 00 bd
       0.048388347 0.12217825 0.035453722 -0.031444035
0001c0 a3 76 d6 3d fe f0 19 be 47 82 18 3d 88 ad b1 3b
       0.10471847 -0.15033337 0.037233617 0.005422298
0001d0 6e 92 69 3d 49 77 65 3c 4d 9c 9c bd 53 a0 88 bc
       0.05702441 0.014005491 -0.076469995 -0.016678011
0001e0 32 93 1f bd 01 8a 08 3e d7 f7 d8 3d f2 87 06 3d
       -0.038958736 0.13333894 0.10594147 0.03284449
0001f0 bd 58 2d 3e 0e 4b 5b 3e 32 3f 28 be 1c a1 b9 3d
       0.16928382 0.2141535 -0.16430357 0.09063932

actor.weight f4 [3, 128]
000000 f1 7b 30 3e 7a e1 c2 3d 35 64 4c 3d f2 73 5c bd
       0.1723478 0.095156625 0.049900252 -0.05382151
000010 e1 bd 76 bd 06 7d cf bd 47 b2 b1 3c 3d 37 d9 3d
       -0.060239676 -0.10131268 0.021691455 0.10606239
000020 9d 86 ca 3d 39 8d c1 3e 32 30 12 bf 4c 9c 58 bd
       0.09888957 0.37803057 -0.5710479 -0.05288343
000030 c1 5e 16 3e 8c 15 32 be 4b 0f 05 3e c9 61 ef 3e
       0.14684583 -0.17391032 0.12994115 0.46754292
000040 e6 ce 20 bf 6b 61 4c 3e f4 13 2b 3e 95 c3 a6 3e
       -0.628157 0.19959037 0.1670683 0.32571092
000050 84 a2 05 3f b9 bf 9d bd cc 48 2c 3e 19 0e d6 3d
       0.52201104 -0.07702584 0.16824645 0.10451908
000060 82 39 ac 3d 2e ac da bd d8 de b7 3e 51 c3 bb bc
       0.08409406 -0.10677372 0.35912204 -0.022920283
000070 c9 ad 24 be 88 bc 1b be d5 60 ca bd 1b 3d a1 be
       -0.16081919 -0.15208638 -0.098817505 -0.31491932
000080 58 2d 08 be df b7 b9 3e cc 46 02 bf 53 3f a7 3e
       -0.13298547 0.36273095 -0.5088928 0.326655
000090 33 be 8d 3d 09 37 cf 3e 21 1e 7e 3e 3b ed d2 be
       0.06921043 0.40471676 0.24816181 -0.41196617
0000a0 d4 7b 89 be 6a ca 72 be cc 9c 96 be 2d d5 e5 3c
       -0.26852286 -0.23710027 -0.29416502 0.028055752
0000b0 92 13 82 be 03 9b 29 be a4 d3 31 be cd a6 f0 be
       -0.25405556 -0.16563039 -0.1736589 -0.4700226
0000c0 1e 2e 3e bd 99 53 1d 3e 21 ce 2b 3e 85 4b 15 bd
       -0.0464307 0.15363921 0.1677785 -0.036448974
0000d0 a7 5a 81 3e 8d 5e 3d 3d 98 e1 08 bf 7d 2c 14 3f
       0.25264475 0.04623275 -0.5346923 0.57880384
0000e0 ad 16 cb bd 3b 1c 56 be b4 20 08 3f 03 8a 33 3e
       -0.099164344 -0.20909207 0.531749 0.17533116
0000f0 0e 0c 31 be d2 63 a3 be 76 cf 23 be 6f 40 13 3f
       -0.17289755 -0.31912094 -0.15997109 0.5752019
000100 97 fc 97 3e 19 f1 3a 3e 29 77 81 be a6 78 67 3d
       0.29684898 0.18256034 -0.25286224 0.056511544
000110 83 9f 33 3d 42 f9 3d 3e ee bc 0b 3d 5c f1 6e 3e
       0.043853294 0.18552116 0.034115724 0.23334259
000120 2a d0 8c be d1 94 ef 3e 4e f7 10 3e 5d 12 e8 bd
       -0.27502567 0.46793225 0.14156839 -0.113316275
000130 db ee 38 be ff 18 58 bc ff f0 78 3e 66 dc 81 bd
       -0.18059866 -0.013189553 0.24310683 -0.06340866
000140 48 57 f5 bd d1 ad a7 3d 75 4c 89 be e6 d7 4c be
       -0.11979538 0.0818745 -0.26816145 -0.20004234
000150 f1 c9 cd 3e 06 d6 8f be e3 ab 16 3d 83 0b e1 be
       0.40193132 -0.28092974 0.036785018 -0.43954095
000160 25 27 ab 3e 10 53 6b be f4 35 2b bd 25 a6 dd 3d
       0.33428302 -0.22980905 -0.0417995 0.10822705
000170 cf e3 8a 3d 0f 95 16 bf 7b 88 79 3c 85 43 9a 3c
       0.06781732 -0.58821195 0.015230293 0.018831024
000180 6e 3e a0 be 9e 4c bd 3e 85 d3 c3 be fc fe e4 3e
       -0.3129763 0.36972517 -0.38247314 0.44725788
000190 11 22 bc be 7c c8 be 3d 22 cf 61 3e f9 f9 4a 3e
       -0.3674474 0.09315583 0.22051671 0.1982192
0001a0 d4 79 7e 3d d2 4f 01 bf 70 6d 51 3e 95 05 11 3e
       0.062127903 -0.5051242 0.20451903 0.14162286
0001b0 a5 56 bc bc ce 12 05 bf 00 6e 1a 3f 77 fe 25 3e
       -0.022990534 -0.5198182 0.60324097 0.16210352
0001c0 eb fb 00 bc 41 70 6f 3d c2 ca 8c be 7f 46 15 3f
       -0.007872562 0.058456663 -0.27498442 0.58310694
0001d0 2a 85 bc 3e d6 f7 93 be b3 ae a3 be a3 f5 e4 be
       0.36820346 -0.2890002 -0.31969222 -0.44718656
0001e0 80 54 ae 3b 28 c9 99 bd 8e 7e 8f bc 9d b7 c3 bd
       0.005320132 -0.07509071 -0.0175164 -0.09556506
0001f0 c1 60 4c bd 02 20 22 be 6e bb 55 3e 0d 36 43 3a
       -0.04989696 -0.15832523 0.2087228 0.0007446714
000200 86 ff 47 be 84 ab 11 be 8e c3 31 3e 11 7e 4d 3e
       -0.19531068 -0.14225584 0.17359754 0.20067622
000210 34 7f 7f 3e f3 50 9b 3e e9 bf 21 3e 3e 5a 1e be
       0.24950868 0.30335197 0.15795864 -0.15464112
000220 63 7f 48 3e 23 32 08 bf 35 1c dd 3e b4 ba 21 3e
       0.19579844 -0.532015 0.43185583 0.15793878
000230 39 9e b3 bd 0b c8 a0 3e ac e1 3d be 02 2f 36 be
       -0.08770413 0.3140262 -0.18543118 -0.1779137
000240 31 80 82 3e 36 18 72 be 04 d7 8b 3d 1d 5f 78 be
       0.25488427 -0.23642048 0.0682812 -0.24255033
000250 dc f2 82 be 1a 1b e1 bc 48 ca e9 bd 93 de 70 be
       -0.25575912 -0.027478743 -0.11415535 -0.23522405
000260 b7 10 7b bc 2a c8 7b 3d 9f 1a 6f bd 0e d9 d7 b9
       -0.015323809 0.06147019 -0.058374997 -0.00041169714
000270 54 58 e5 3e 0f cc 82 3e a6 60 8b 3d dc b9 0c 3f
       0.44793952 0.2554631 0.068055436 0.549711
000280 22 8f 34 bc ad 57 d5 be bb 1a 48 3e 9e 97 ea bd
       -0.011020454 -0.41668454 0.19541447 -0.114547
000290 19 3b bc bd 6b b2 78 be 6b 19 2f be 8f db 4d 3e
       -0.091909595 -0.24286811 -0.1709954 0.20103286
0002a0 64 e4 66 3e a1 9c e1 bc a6 99 9d 3e 13 3e 17 3d
       0.22548062 -0.027540507 0.30781287 0.036924433
0002b0 81 35 4a 3e 85 3a db 3d b0 69 e0 3d 88 cc ce 3e
       0.19746973 0.10704521 0.10957658 0.4039042
0002c0 ce 23 44 3d 9c 23 9a bd 60 a2 cf bd 05 12 4b be
       0.04788571 -0.07526323 -0.101383924 -0.19831093
0002d0 b8 53 3f bb ef be 4b be cb 4d e8 3e 03 ed 9e be
       -0.0029194187 -0.19897054 0.4537185 -0.310402
0002e0 1d 73 b0 3a 0f 95 90 3e 3e 1b a5 be 91 cc eb bd
       0.0013462041 0.28238723 -0.32247347 -0.11513627
0002f0 64 59 73 3e 25 22 f4 3e e9 e9 d8 bb 35 aa b6 be
       0.23764569 0.476823 -0.006619681 -0.35676733
000300 b0 e0 fe be a8 ba 77 be 34 c0 bc 3e 19 38 b1 be
       -0.49780798 -0.24192297 0.3686539 -0.34613112
000310 c9 46 11 be dd 3d f1 be 9e a4 e6 3c 2b 4a 8d be
       -0.14187159 -0.4711751 0.028154667 -0.27595648
000320 4a 28 cb 3d 8c a5 b7 be 00 d6 a9 be f2 fc c4 3d
       0.09919794 -0.3586849 -0.33171082 0.09618558
000330 89 8a 0f 3e a5 5b 48 3e 41 c6 9b be 1a 16 c4 bd
       0.1401769 0.1956621 -0.30424693 -0.09574528
000340 b6 89 16 3e 61 8c 13 be 1b 4c 6d 3e c0 8d bd 3d
       0.1470097 -0.14409019 0.23173563 0.09255552
000350 9d 62 08 bf a0 ac d4 3e 67 91 ec bb cb de 9a 3e
       -0.5327547 0.41537952 -0.0072194817 0.30248103
000360 73 51 e5 be 8d b3 2a 3e 89 12 09 bd 92 30 10 be
       -0.44788703 0.16670056 -0.033464942 -0.14081028
000370 04 33 02 3e 7c 64 c2 3e 82 d8 0e be c4 ec a6 3d
       0.12714773 0.37967288 -0.13949779 0.08150628
000380 14 9e eb 3e e0 55 fa be 57 15 c2 3e 61 be 94 bd
       0.46019042 -0.48893642 0.37906906 -0.072628744
000390 a4 83 95 3e ff e6 62 3d 03 29 5c be b1 07 bf be
       0.29201996 0.055396076 -0.2150002 -0.37310556
0003a0 84 8c 94 bc 77 12 96 3e b8 98 fc be 6a a8 1e be
       -0.01813341 0.29310963 -0.49335265 -0.15493932
0003b0 b1 84 23 3c 0e 34 9b 3d c9 b3 b5 be 4a 0d 22 bd
       0.009980367 0.07578288 -0.35488728 -0.039563455
0003c0 f8 9b 9f bd 99 4e d4 bc dc d5 9b 3e 21 5b 03 bf
       -0.077934206 -0.025916385 0.304366 -0.51310927
0003d0 04 e7 6b be 29 1e b5 3e 78 7b 08 3f 53 5b f6 3e
       -0.23037344 0.35374573 0.533134 0.4811655
0003e0 0c 69 b4 3d 7b 46 02 bd 9d 19 9e 3c 49 3c 01 3d
       0.088090986 -0.031805497 0.019299323 0.031551633
0003f0 ea 70 8b be c9 ed 6a 3c c2 14 d1 3d 2c 5a 04 be
       -0.27234584 0.014338919 0.10209037 -0.12925023

actor.bias f4 [3]
000000 2e e5 06 be 37 79 59 be 99 23 23 3e
       -0.13173363 -0.21237646 0.15931548

critic.weight f4 [1, 128]
000000 4a 8c 58 bb ee fb 28 3d e5 3c e4 bb 2e f7 32 3b
       -0.0033042603 0.041255884 -0.006965267 0.0027307975
000010 25 72 59 3c c9 1d 4e 3d a2 a2 6e 3d 68 c8 cb bb
       0.013271843 0.050321374 0.058260567 -0.0062189586
000020 7c 5b 5c bd 28 ce 25 bb ec 45 54 3c c6 95 0f 3d
       -0.053798184 -0.002529988 0.012956124 0.035054944
000030 f3 f4 24 3b dc 40 43 3b 9e 2b bd bb ac f6 17 3c
       0.0025170415 0.0029793298 -0.005773022 0.00927512
000040 e1 ad f1 bb 9a 6e 4c 3a 07 ce 57 3c c7 11 ba 3b
       -0.0073754643 0.00077984633 0.013171679 0.0056783888
000050 ac 0d ea bc a9 12 38 3a 0b 2f a0 bb 55 56 7f bb
       -0.028570972 0.00070218235 -0.0048884205 -0.003896137
000060 33 c4 12 bb 89 74 42 3b 3c ff a4 bc 01 03 72 bc
       -0.0022394776 0.002967151 -0.020141236 -0.014771224
000070 e5 5d 99 3c a2 92 1c 3b 1c 2a 27 bb 6a 63 12 3b
       0.01872153 0.002389111 -0.0025507277 0.0022337087
000080 d7 59 c9 39 c5 2d fa bb 23 18 87 bb ed 45 62 bb
       0.00038404643 -0.0076348507 -0.0041227504 -0.0034526542
000090 df 16 fc 3c 16 82 e6 3b ea ec 10 3c a3 83 25 3d
       0.030772625 0.0070345504 0.008845547 0.04040874
0000a0 4f 9c 83 bb 9d 1e 76 bd 00 46 31 3a 3a d3 b6 bb
       -0.004016436 -0.06008779 0.0006762445 -0.0055793794
0000b0 54 2c 80 3b 08 d0 17 b8 fc 1a c3 bc 72 66 be 3a
       0.0039115343 -3.619495e-05 -0.023816578 0.0014526381
0000c0 bc 3a 90 bb 76 87 32 3b 48 fd 19 bb 34 ae f4 bb
       -0.004401533 0.0027241386 -0.0023496915 -0.0074670557
0000d0 96 16 74 bd 56 98 31 39 db 8e 54 3b 66 f3 b1 bc
       -0.059591852 0.00016936785 0.0032433781 -0.021722507
0000e0 61 2b 9e bb c6 79 81 bb 2b eb 5a 3c 2e 2f 12 bc
       -0.0048269485 -0.003951284 0.0133617325 -0.008922381
0000f0 73 46 07 3c 7a 17 15 bd f0 9d 40 39 c1 85 c7 3c
       0.0082565425 -0.036399342 0.00018369383 0.024355771
000100 31 5d 80 bb 25 d4 30 bb 22 c4 37 bd a4 76 c0 3b
       -0.0039173593 -0.0026981917 -0.04486478 0.005873518
000110 cb 86 37 bc 39 08 0b bc fa ca 17 3a 41 2d ad 3b
       -0.011201571 -0.008485847 0.0005790439 0.0052849357
000120 3f 1b 85 3c f6 42 ea bb 2f e3 ca ba a5 12 8b bb
       0.016248344 -0.0071490956 -0.0015479083 -0.004244166
000130 8f 10 33 3b 42 69 46 3c c1 dc 8d bb 3d a7 12 3b
       0.0027323102 0.012110056 -0.0043292944 0.0022377514
000140 00 05 d2 bc 82 a1 df bb 87 f7 a2 3b d2 1a e5 3b
       -0.02563715 -0.006824673 0.004973355 0.0069917226
000150 a0 d9 50 bb 7c a0 dd b9 f8 d8 ec 3b ad b5 6d bc
       -0.0031867996 -0.00042271975 0.007228013 -0.014508647
000160 76 0b c8 bb fd 2f 9e 3c 8d 3e 72 3b 29 30 86 bb
       -0.006104882 0.019309992 0.0036963553 -0.0040950966
000170 24 b5 c1 bc f0 96 9b 3a 48 dc 92 bd 98 c1 38 bb
       -0.023645945 0.0011870544 -0.071709216 -0.0028191563
000180 0f 58 20 3c df 49 92 3a 26 b2 ff ba 85 82 95 bd
       0.00978662 0.0011160931 -0.0019508048 -0.07300285
000190 4d 47 1f 3a 83 b2 8f bd 7c 5b aa 3c 52 8f 1c 3c
       0.00060759933 -0.0701647 0.020795576 0.009555655
0001a0 cf 26 a2 bb 42 34 15 3c 75 95 5d bc c1 1a 9f 3b
       -0.004948474 0.0091066975 -0.013524403 0.0048554842
0001b0 e0 d5 b5 3a bc 91 a2 3c f3 31 b1 ba 86 db af 3a
       0.0013872944 0.019844882 -0.0013518914 0.0013416864
0001c0 87 80 64 3c 8f b1 89 ba 5c b4 0d 3c 71 3d ad 3b
       0.013946659 -0.0010505187 0.008648958 0.0052868654
0001d0 69 c6 95 3b 3b 95 cb 3b c8 72 c8 bc db ce 05 3c
       0.0045707715 0.006212858 -0.024468794 0.008166994
0001e0 4a 7d 07 3c 11 88 23 3c 26 c7 75 3a 65 dd 73 3a
       0.008269617 0.009981171 0.0009375684 0.0009302705
0001f0 36 a2 44 3d d5 8a 8e 3c 8d c8 a3 3d cc a0 c4 bb
       0.04800626 0.017400185 0.079972364 -0.006000614
