model_params/model_params_20.pth (torch, 74912 bytes, 7 tensors)

rnn.weight_ih_l0 f4 [128, 6]
000000 10 75 65 bd 7f 44 83 3c f5 4e ab 3d b6 5b 88 bd
       -0.056019843 0.016023872 0.08364669 -0.066581175
000010 a8 a5 8b bd b7 f1 47 bd c0 25 90 ba e4 0a 82 bc
       -0.06818706 -0.0488145 -0.0010997579 -0.015874334
000020 98 c3 66 bc 10 ad 1a 3f 30 cd 3f 3d bc f9 87 3d
       -0.014084719 0.6042032 0.04682654 0.0663943
000030 7c 4f 3b bd 29 e5 3f 3c 70 49 46 bd 91 d3 f6 bd
       -0.0457301 0.011712351 -0.04840988 -0.12052072
000040 7e 96 e6 bd 9a 9c 57 bd a0 e6 5d bb cd 95 03 be
       -0.11259173 -0.05263958 -0.0033859387 -0.12850113
000050 e3 72 47 bd 23 dc 09 3f ef 04 32 3d 18 77 b7 3d
       -0.04869355 0.53851527 0.043461736 0.08958262
000060 98 4b 6d 3c d1 66 89 bc 27 34 30 bd ec 81 ab bb
       0.014483355 -0.01677266 -0.043018486 -0.0052339938
000070 33 dd 85 3d dd 98 8b 3d d2 23 5f bd e6 c0 e6 3d
       0.06536331 0.06816266 -0.05447752 0.11267261
000080 08 cb c0 bc 72 0b f8 be 72 aa 31 3d 88 72 99 3c
       -0.023534313 -0.48446232 0.04337544 0.01873137
000090 e4 2f a0 bc 12 87 6c bd e0 e9 e8 bc 56 f9 f9 3e
       -0.019554086 -0.057746 -0.028431833 0.4882304
0000a0 09 35 97 3d 28 df 8c 3d b0 3f 5c bc 0a f8 ac 3d
       0.073831625 0.06878501 -0.013442919 0.08445747
0000b0 fc 13 c9 bc f2 d7 fa be 94 50 d3 3b a8 b3 3e bd
       -0.024545662 -0.48992878 0.0064488146 -0.046558052
0000c0 70 dc b3 bd 57 0b c5 bd e0 aa 91 3b 52 0b a5 3d
       -0.087822795 -0.096213035 0.0044454187 0.080588
0000d0 1f e3 d1 3d 3a 94 13 3e f3 14 83 3d 6d d7 cb bd
       0.10248398 0.14412013 0.0640048 -0.099531986
0000e0 9d a3 80 3d a4 87 f6 3e 9f 79 b6 bc 75 00 7b 3d
       0.06281207 0.4815036 -0.02227479 0.061279733
0000f0 93 62 a8 3d e6 6d 9b bc 05 ce 1c bd e1 a0 9a 3d
       0.082219265 -0.018973302 -0.038282413 0.075502165
000100 53 94 8b bd 82 ca 94 bb 23 59 01 bd c1 bf 87 bd
       -0.068154 -0.0045407424 -0.031579148 -0.06628371
000110 96 e2 47 bd d7 71 33 3e e5 5f 58 bd c8 a0 08 3c
       -0.048800074 0.17523895 -0.052825827 0.0083391145
000120 69 55 b2 3d dc e1 04 3e a6 2d 61 3d e9 e5 b7 be
       0.08707697 0.12976784 0.054975174 -0.35917595
000130 cc 6d 23 bb ef 0f 14 bd be e2 26 3d 92 e8 01 bc
       -0.002493727 -0.036148008 0.040743582 -0.007928984
000140 09 fa 68 bd 45 fd 96 3e cc c7 80 3c 81 86 14 3d
       -0.056879077 0.29490104 0.01572027 0.036261085
000150 d8 c0 52 bd a9 2e f1 bd 2a 54 6c 3d fc 41 84 3e
       -0.05145344 -0.11776478 0.057697453 0.25831592
000160 00 eb 9a 3d 5e 38 29 bd ed 20 91 bd 35 60 45 bd
       0.07564354 -0.04131352 -0.07086358 -0.048187453
000170 e6 b0 40 3d 64 18 e6 3e 4d 16 9a bd 45 e7 e3 3c
       0.047043703 0.44940484 -0.07523785 0.027820239
000180 8c 4d bd 3c 25 ca a6 3d 62 56 e2 bc f2 a7 aa be
       0.023108266 0.08144025 -0.027629081 -0.33331257
000190 d5 6c f6 3d 80 8d 49 3c 09 6e a7 bd 31 da 50 3d
       0.12032477 0.012301803 -0.081752844 0.050989334
0001a0 56 70 5a bd 69 7a 94 be 99 b9 3a 3d 56 ee 96 3d
       -0.05332979 -0.28999642 0.045587156 0.07369678
0001b0 b0 0a 91 bb 00 59 19 be 2b ab 9a 3d 55 57 06 3f
       -0.004426323 -0.14975357 0.07552179 0.5247701
0001c0 5c f0 a3 bc 10 e2 57 bd 44 5e a3 bc ee e5 ab 3d
       -0.020012073 -0.052705824 -0.01994241 0.08393465
0001d0 9a 61 b2 bd 94 af 40 be ac a6 e0 3c 92 5c 5f bb
       -0.08710022 -0.18816978 0.027423225 -0.0034082276
0001e0 cd ad 2f bd e7 83 ef bd b2 80 11 3d 73 55 c4 3e
       -0.04289036 -0.1169508 0.035523124 0.38346443
0001f0 8c fe 16 bd c8 1c a8 bd ea 96 a2 bd 14 31 de 3d
       -0.03686385 -0.082086146 -0.07938941 0.10849205
000200 74 90 5a bd fa 14 b6 be 17 22 16 bc 3d 60 e0 3b
       -0.053360417 -0.3556288 -0.009163401 0.00684741
000210 da 5e 24 bd 30 d8 a8 bd d7 4d a8 3d f5 0e 33 3d
       -0.04012952 -0.082443595 0.08217972 0.043715436
000220 0d 3c 4c bd ae ee df bd 8b 98 9e 3d a3 2c 02 3e
       -0.049861956 -0.109341964 0.07743939 0.1271234
000230 f2 ac 56 3d 28 b0 14 bf d8 16 bb 3c 05 0c 51 3c
       0.052411027 -0.58081293 0.022838041 0.012759213
000240 e0 a4 9e bd 82 09 a8 3d 38 6e 70 bd fd f1 b3 be
       -0.07746291 0.082049385 -0.058698863 -0.3514556
000250 56 53 31 3c f5 f7 bb bc 14 2f 8e bd 7a 4c 22 bc
       0.0108230915 -0.022945384 -0.06942573 -0.009905929
000260 8e 79 5a 3d 04 2a a1 3d 1c 86 d0 bd 4e a8 1f 3d
       0.05333858 0.07869342 -0.10181829 0.038978867
000270 9c e0 ba 3c 66 de a7 b8 ab d1 ae 3d a8 3f a8 3d
       0.02281218 -8.0046055e-05 0.08536085 0.082152665
000280 86 25 b9 3c 55 40 cb bb 0d 69 8e 3d ea 3c 06 be
       0.0226009 -0.0062027373 0.069536306 -0.13109174
000290 6c 48 ae bc a7 94 d7 3e ac 52 50 3d a5 00 d6 3c
       -0.021274768 0.421056 0.050860092 0.026123354
0002a0 4d 02 b2 3d ba 00 d0 bc 50 7f c4 3c b3 e7 ad 3c
       0.08691845 -0.025390971 0.023986489 0.021228647
0002b0 f6 8f 09 be a4 44 7a 3c 94 45 8f bc 03 68 b1 3d
       -0.13433823 0.015275154 -0.017489232 0.08662417
0002c0 84 eb c1 bc 59 de 15 bf 64 7c 1e 3c 42 c9 a8 3b
       -0.023671873 -0.585424 0.009673212 0.005150945
0002d0 6f c6 8d 3d f5 ff 2d 3d 02 28 5d 3d e9 d5 7b be
       0.06922614 0.042480428 0.053993233 -0.24593319
0002e0 73 fb 5d 3d f9 b2 ef bd 61 b4 11 bd 53 be 24 3d
       0.05419488 -0.11704058 -0.035572413 0.04022057
0002f0 c8 be 67 bc 9a 16 17 3e d4 0d 81 3c 5d b8 93 bd
       -0.014144607 0.14754716 0.015753664 -0.07212899
000300 c2 5f 23 3d 53 e9 d8 3d 00 69 d3 3a 30 d3 9e bd
       0.039886244 0.10591378 0.0016129315 -0.077551246
000310 33 af 22 3d da 68 de 3d f0 6d dc bb 48 bb 07 be
       0.039717864 0.108598426 -0.0067269728 -0.13255036
000320 de ae 16 3d 1f 46 15 3f 74 17 78 3d b7 f0 c8 3d
       0.03678786 0.5831012 0.06056924 0.09811538
000330 c8 7f 1b bd 08 f6 0e 3d 96 d4 66 3d 47 1a 01 3e
       -0.03796366 0.034902602 0.05635508 0.1260768
000340 dd 19 59 3d d6 bf 85 bd 70 83 3f bd d7 fe b9 3d
       0.05300318 -0.065307304 -0.046756208 0.0908181
000350 73 53 ad 3d 09 86 20 be 1f f3 f9 bc 1b 45 24 3d
       0.08463182 -0.1567613 -0.030511437 0.040104967
000360 82 42 35 3d 99 1c 08 bd 60 4d 9a bb 78 91 95 3e
       0.04425288 -0.033230398 -0.004708931 0.29212546
000370 0c 97 a2 3c 13 82 af bd 96 31 7a 3d 2c eb 0c bd
       0.019847415 -0.085697316 0.061082445 -0.034403965
000380 3e 93 88 bd 5d 38 91 3e 39 01 88 3d cf 10 a1 3d
       -0.06668709 0.28363314 0.06640858 0.07864534
000390 e0 61 10 bc 29 a2 cb 3c d8 10 95 3c 21 7b 83 be
       -0.008812398 0.024857597 0.018196508 -0.25679877
0003a0 c5 51 b9 bd 67 32 be bd ce b4 4b bd 34 de 9c 3c
       -0.090487994 -0.09286957 -0.049732976 0.019148923
0003b0 c8 c0 3e 3c ec c0 20 bf 90 b8 6d 3d 7d b0 74 bc
       0.011642642 -0.62794375 0.05803734 -0.014934656
0003c0 e7 86 af bd 0a 18 e5 bd 76 ac 73 bd d5 a0 09 3f
       -0.085706525 -0.11186226 -0.059490643 0.53761035
0003d0 ec 03 1a 3d ac ac 5a 3c bd e7 b2 3d f1 ad 82 3d
       0.037601396 0.013346832 0.08735607 0.06380833
0003e0 ee 22 90 bd 0c c8 ed bd bb c6 a6 3c 5d f2 49 3c
       -0.07037912 -0.116104215 0.020358434 0.01232585
0003f0 75 cf 89 bd e2 a2 22 bd 3a 6b 34 3d f9 bd ac 3e
       -0.067290224 -0.03970612 0.04404757 0.33738688

rnn.weight_hh_l0 f4 [128, 128]
000000 e2 8a 48 bc 18 17 76 3d 1f d1 ce bc 69 5f 77 bc
       -0.0122401435 0.060080618 -0.025246201 -0.015098431
000010 2f f1 69 3d 80 cb 62 b9 c4 c9 76 3d a3 55 bd bd
       0.057114776 -0.00021628849 0.060251012 -0.092448495
000020 71 03 d8 bc c9 72 d9 bb 4e 0e f9 3c 06 fa 70 bd
       -0.026368828 -0.006635998 0.030402329 -0.05883219
000030 1e 9f 7d 3d 09 42 b4 3d 1f e8 e1 bd 50 c1 42 bd
       0.061919324 0.08801658 -0.11030602 -0.04754764
000040 51 27 5a bc 9e d1 d4 3c be c2 84 3d fe 4e 67 bd
       -0.013315038 0.02597886 0.064824566 -0.056471817
000050 03 f3 b5 bd 26 03 34 3d 65 7b 62 bc db 99 c0 3d
       -0.088842414 0.043948315 -0.013823365 0.094043456
000060 f5 34 f7 3c 6f f0 34 3d dd 08 db 3c 58 e8 82 bd
       0.030176619 0.044174608 0.026737625 -0.06391972
000070 3a f1 88 bc ae b5 ae 3c d7 b6 dc bd 68 d1 46 bd
       -0.016716588 0.021326866 -0.107770614 -0.04853955
000080 a3 cb 81 bd 48 ee ba 3d cc 76 86 bd 8b 5b a6 3c
       -0.06337669 0.0912748 -0.065656275 0.020307323
000090 44 f7 a2 3c 42 16 49 bc 58 27 90 3d 2d e7 66 3d
       0.019893296 -0.012273373 0.07038754 0.05637281
0000a0 2b 3f 77 bd 6f 4c 2e 3d d2 ab 75 3d 2f d7 38 3d
       -0.060362976 0.04255336 0.059978314 0.04512709
0000b0 bf 82 12 bd ee 04 70 3c 5a 3e 3d bd 03 f3 fd 3c
       -0.03576922 0.014649613 -0.04620204 0.030999666
0000c0 a9 04 f4 bc 2c 10 03 3d 02 30 51 3d 09 7c b3 3c
       -0.029787378 0.031997845 0.051071174 0.02190973
0000d0 d1 f3 a3 3d 05 f2 02 3b 30 85 3c 3d 55 38 9f bc
       0.08005489 0.001998068 0.046025455 -0.01943604
0000e0 07 55 a8 bd e9 5a e0 bc 54 e5 1d 3d c3 c7 35 3c
       -0.08219343 -0.0273871 0.038548782 0.01109499
0000f0 b9 21 26 3d 5d 87 e2 3c 33 1b cc bc ec 9e ed 3a
       0.040559504 0.027652437 -0.024915313 0.0018129027
000100 c7 1d 83 3d d3 53 82 bc be 05 e6 bd b2 d4 6a bd
       0.06402164 -0.015909111 -0.11231564 -0.05733175
000110 b3 67 a8 bc 49 2b c9 3d 00 8b ad bd 09 9e 27 bd
       -0.02055726 0.09822709 -0.08473778 -0.0409222
000120 1c b6 a5 bc ad e4 95 3d d8 e6 28 3c 25 3a 74 3d
       -0.020228438 0.07319007 0.010308944 0.059625763
000130 1c fd 61 bd 6e 33 82 bc bd 0a 0a 3c 5f 93 c9 bd
       -0.055173025 -0.015893664 0.008425412 -0.09842562
000140 cc 51 48 bd 94 89 00 bd 33 fe 2e 3d b9 cf 6f bd
       -0.048906133 -0.031381205 0.042722892 -0.05854771
000150 97 75 b0 3d f1 1e e5 3d c4 ee 3d 3c ee 91 5a 3b
       0.086161785 0.11187542 0.011592571 0.003335114
000160 87 82 ae bd 8a d8 b7 3d 4c f6 c2 3d 3e 92 b9 bd
       -0.0852099 0.089768484 0.09519634 -0.090610966
000170 96 77 d6 3c 20 e9 ad bd ed 8f a5 3d cc 28 b2 3b
       0.02618007 -0.08491731 0.08084092 0.0054369923
000180 bd 5c 0b bd 7d ca 9d 3d 07 f6 f3 3c 6f c3 90 bd
       -0.03402399 0.07704637 0.0297804 -0.07068526
000190 b0 a4 03 bd ab 96 98 bb 19 22 c9 bd 78 d9 ee bc
       -0.03213948 -0.004656633 -0.09820957 -0.029156432
0001a0 81 38 57 bd c3 b7 71 3d d7 8e e0 bd b3 3b 12 bd
       -0.05254412 0.05901314 -0.109647445 -0.035701465
0001b0 42 f7 81 3c 54 bc 9b 3c 41 54 79 3d 99 89 c4 bc
       0.015864972 0.0190107 0.060871366 -0.023991393
0001c0 b6 c3 8c bd c6 2f 44 3d 01 8e 80 bd f0 f4 4d bc
       -0.068732664 0.047897123 -0.06277085 -0.012570605
0001d0 31 c7 5a 3d d6 e7 82 bd f7 aa b8 bd 78 5e 03 3d
       0.05341262 -0.063918754 -0.09016984 0.032072514
0001e0 77 00 cc 3d 4c 2e 95 3d 78 ee 00 3b f0 6a fc 3c
       0.09961026 0.07284221 0.0019673388 0.03081271
0001f0 13 91 12 3d 69 26 dd 3c 73 16 58 3c 46 05 94 bc
       0.035782885 0.026995854 0.013188946 -0.01806892
000200 c6 5d e9 bd e9 72 82 bd d1 30 cb bc fc d6 c3 3c
       -0.11394839 -0.063695736 -0.02480355 0.023906223
000210 68 bf 00 bd 0b 71 d7 bb 87 40 ab 3d 7d ff c4 bd
       -0.03143254 -0.006574755 0.08361917 -0.09619043
000220 1b 70 2d bd a6 2e 93 3c 06 73 08 3d 25 05 4b 3d
       -0.04234324 0.01796658 0.03331282 0.049565453
000230 5d 15 91 bd e7 b3 46 bd 31 8f d2 3a aa f2 c9 3d
       -0.07084153 -0.048511412 0.0016064403 0.098607376
000240 96 bb 27 3d 93 6a c8 bd b8 06 f5 3a a5 1b 48 3c
       0.04095038 -0.097859524 0.0018694019 0.012213622
000250 61 90 64 3d 9b 80 e6 3c 04 6c 71 bc 01 03 34 3d
       0.055801753 0.028137496 -0.014735226 0.043948177
000260 11 74 8a bd d1 37 47 3c 16 f8 19 bd a7 09 28 3d
       -0.06760419 0.012159304 -0.03759011 0.04102483
000270 17 44 da bd 37 84 b6 3d c3 fa 4b 3d 1d 91 a4 3d
       -0.10657518 0.08911937 0.049799692 0.08035491
000280 e5 b1 8b bd 1c b5 88 3d 62 b7 b7 3b 28 b5 75 3c
       -0.0682104 0.06675169 0.0056065777 0.014996804
000290 af b4 21 bc 6a 7e 88 bd 72 31 a2 3d 1e 3c 93 3d
       -0.0098697385 -0.066647366 0.07919587 0.07189201
0002a0 8c c2 81 3d ab ff 94 bd ab 9e 48 3d e6 90 a2 3d
       0.06335935 -0.07275327 0.048979443 0.079377934
0002b0 59 37 2c 3d 83 d6 96 bc 7e bb 8c bd f8 13 7b 3d
       0.04204497 -0.018412834 -0.06871699 0.06129834
0002c0 09 67 44 bb 88 d7 3a 3c b1 6d 1c bd 12 49 26 3d
       -0.002996864 0.011403926 -0.038190547 0.04059703
0002d0 ff e9 86 3d 59 8d ae bd 45 5b 71 bd 91 99 e2 3a
       0.065876 -0.08523054 -0.058924932 0.0017288198
0002e0 af 3f 0e 3d 21 2a 9e bd ef 91 71 bd cf 5f 8a 3d
       0.034728702 -0.07722879 -0.058977064 0.06756555
0002f0 9b 8b fa 3c 0d 6f 58 3d 06 1f e3 3c 23 71 aa bd
       0.030584147 0.05284028 0.027724754 -0.0832236
000300 7b 58 9e 3d 43 fd 68 bc 2d b9 e0 bc cf f4 43 bc
       0.0773172 -0.014220539 -0.027432049 -0.011960222
000310 54 d1 46 bd 33 ce ef 3d ce 73 84 3d 39 f5 bc 3a
       -0.048539475 0.11709251 0.064674005 0.0014416344
000320 d0 cf 56 bd 00 6c 1a bd 4f 6e 8e bd ab e4 f3 bc
       -0.05244428 -0.037700653 -0.069546334 -0.029772123
000330 1c 1f 3c 3b 2c 34 23 ba dd 2a 16 bd 68 e8 5b bd
       0.0028705066 -0.0006225731 -0.03666197 -0.053688437
000340 40 c1 b2 bd 39 3c 9f bd 20 0f 54 bd 39 1b f1 bc
       -0.08728266 -0.077751584 -0.051772237 -0.029431926
000350 7c 7f 6b 3d 1c ad ee 3c e5 69 ce bd ae c7 58 bd
       0.057494625 0.02913528 -0.100787915 -0.052924804
000360 e3 98 ac 3c a8 8c 92 bd e9 1c 04 3d 92 c5 7a bd
       0.021068996 -0.07155734 0.032254133 -0.061223574
000370 3b 98 5a 3d 22 6e 08 3d 95 6a c2 bd a1 86 01 bc
       0.053367835 0.033308156 -0.09492985 -0.007905633
000380 04 f0 b0 3d c7 6c f6 3c 49 55 c6 bd e4 20 1a bb
       0.08639529 0.030081166 -0.096842356 -0.002351814
000390 4e 76 ca 3d 92 06 b3 3b fe b2 fa 3a 96 25 42 3d
       0.09885846 0.0054634297 0.001912683 0.047399126
0003a0 1a df 5f 3d f5 13 a9 bd 9f 54 0c bb 73 4f 8d bc
       0.054656126 -0.082557596 -0.0021412743 -0.017249798
0003b0 8b 62 00 bd be 03 60 3d 07 af cb 3d 71 d8 c9 bc
       -0.031343978 0.05469107 0.09945493 -0.02463934
0003c0 53 60 a2 3b d1 c5 53 3c c3 63 9f bd 66 0e db bd
       0.0049553304 0.012925581 -0.077827 -0.10696106
0003d0 f6 ae a3 bd 3d 30 8f 3c 31 44 92 bd f2 b1 6f bd
       -0.079923555 0.017479056 -0.07141913 -0.05851931
0003e0 39 e3 99 3d d1 7b 8f bd ca 33 8c bd f4 93 6c 3d
       0.075140424 -0.07006038 -0.068458155 0.057758287
0003f0 1e fd 62 3d 56 21 86 3d de 32 e5 3c 9b 17 0c bd
       0.055417173 0.06549327 0.027978357 -0.0342022

rnn.bias_ih_l0 f4 [128]
000000 24 7d 51 ba 68 ea 07 3d 3c c0 40 3d 33 71 fe bc
       -0.00079913647 0.03318253 0.04705833 -0.031059837
000010 4b 0f fd 3d 13 6f 10 3c b0 f6 6e 3d 8f ad 2e bc
       0.123564325 0.008815545 0.05834073 -0.010661497
000020 6a f5 0e 3e 88 1e e1 3d 1f 6f 9d 3c ba 66 89 3d
       0.13960806 0.109921515 0.019218026 0.06709047
000030 10 43 b6 bd 5c 3f 97 3d 65 b3 e7 bd 85 c8 ac 3d
       -0.0889951 0.07385132 -0.11313514 0.084366836
000040 22 8d 68 3d b7 0f b1 bc 6d cf d8 bd 4c 38 d2 3d
       0.05677522 -0.021613939 -0.10586438 0.10264644
000050 f4 4b 6e 3b 4d 35 d5 bd 44 62 0f be b1 3b 5f bd
       0.003636119 -0.10410557 -0.14002329 -0.054500286
000060 aa 16 a3 3c 8c c3 01 bc cf 7c 7d 3d b1 99 d0 bb
       0.019908268 -0.007920157 0.061886605 -0.0063659777
000070 5a 0b e5 bd 78 54 14 bd 13 b7 36 bd a1 a0 83 bd
       -0.11183806 -0.03621337 -0.044608187 -0.06427122
000080 64 a0 88 3d 6c af 2d 3b 34 32 c9 3d 39 c4 85 3d
       0.06671217 0.0026502265 0.098240286 0.06531567
000090 a4 a6 06 be e7 b2 16 3e ec ea a4 bd 1a df dc bd
       -0.13149506 0.14716683 -0.0805262 -0.10784741
0000a0 f0 a3 86 bd da a0 eb bd b2 9d eb 3d 74 09 c0 3b
       -0.06574237 -0.115052894 0.11504687 0.005860502
0000b0 85 51 75 3d f4 fc e7 bd cc 16 d8 3c 58 1b 48 bd
       0.059892196 -0.11327544 0.026378058 -0.048854202
0000c0 8f 20 a3 3d b7 7a 8b 3d f4 52 43 3c 83 24 0d 3e
       0.079651944 0.068105154 0.011921633 0.1378346
0000d0 53 75 2d 3d 4b f9 12 bd ac 29 c4 bd ab ff 0e be
       0.042348217 -0.035882276 -0.09578261 -0.13964717
0000e0 57 49 8f 3d e8 41 3e 3d 1c 73 6e bd 4b 26 11 3e
       0.0699641 0.04644957 -0.058215246 0.14174764
0000f0 bb e2 ee bb b7 3f 4e bc 20 f5 c9 bc 27 6f 41 3d
       -0.007290212 -0.012588433 -0.024653018 0.047225144
000100 1c 63 7b bd 26 8a 96 bd 3b ca 70 3d 52 f9 49 bd
       -0.061373815 -0.073505685 0.058786612 -0.049310036
000110 30 ff 38 bd 67 25 fa bb 75 2d c8 b9 c9 55 ed 3d
       -0.04516524 -0.0076338532 -0.0003818084 0.11588628
000120 3d eb 8b 3d ca c6 8c bc e3 50 58 b8 da 4d 92 3d
       0.068319775 -0.017184634 -5.1573745e-05 0.07143755
000130 72 18 9e bc b8 fd 1f 3c 79 7d 84 3d 33 c6 fb bc
       -0.019298766 0.009765081 0.064692445 -0.030734157
000140 f9 22 96 3d c2 99 6a bd ef e7 a7 bd c2 f6 f0 bd
       0.07330889 -0.05727554 -0.08198535 -0.11765815
000150 e8 97 37 3d 73 cf 02 3e 0b 7d cd bd ce 32 84 3d
       0.044822603 0.12774448 -0.10033616 0.06455003
000160 a5 32 4e 3c c0 34 46 bd 05 a2 86 3d 9e 06 bb 3d
       0.012585317 -0.04839015 0.065738715 0.091321215
000170 2f 26 2a 3c 9e 5f cc bd a5 89 16 3e 43 b3 36 bd
       0.01038508 -0.09979175 0.14700945 -0.04460455
000180 ea 08 5c bd 98 f6 fb 3d d1 b1 5d bd b6 49 99 3d
       -0.05371944 0.123028934 -0.054124657 0.07484762
000190 3e c8 45 bd cf da 4d 3c fe 69 a4 bd f2 c4 6b bd
       -0.04828667 0.012564375 -0.08028029 -0.05756087
0001a0 92 ad 00 be 86 f8 a3 3d 38 ba c7 bd 71 e2 0e 3e
       -0.12566212 0.080063865 -0.09752315 0.13953568
0001b0 6a bd 1f bd 22 7b 52 bd 4f cb cd 3d ff 18 f7 bd
       -0.038999 -0.05138696 0.10048544 -0.120653145
0001c0 0d d6 06 3e 75 c9 3a 3d f6 42 8f bc 35 30 60 3d
       0.13167591 0.04560228 -0.017487984 0.054733474
0001d0 79 bc 44 bd ed 3f 55 bd b1 91 e4 bd 05 7a 10 3d
       -0.048031304 -0.052062918 -0.11160601 0.035272617
0001e0 57 92 20 bd 82 07 67 3d aa 69 b0 3d 96 e0 00 bc
       -0.03920206 0.056403644 0.08613904 -0.007866045
0001f0 e6 a4 c5 3b 3e a8 05 bd 0c 6a 43 3c ff 50 0e bd
       0.0060316203 -0.03263115 0.011927139 -0.034745213

rnn.bias_hh_l0 f4 [128]
000000 06 21 18 bd 0a 0d 53 bc 0a 95 cc bd 53 18 f2 bc
       -0.03714087 -0.012881527 -0.099893644 -0.029552614
000010 0c ae 0f 3e 60 39 e2 3d a8 cc 3b 3c 09 0c 8f bc
       0.14031237 0.110461 0.011462368 -0.017461793
000020 21 0a 25 3c 77 1b 05 3d 24 ed d1 bd a7 7d 2d bd
       0.010073216 0.032496896 -0.10250309 -0.04235616
000030 be 77 4c 3c 62 a3 98 3d 0f 55 92 bd 2b ce a0 3d
       0.012479721 0.07453038 -0.0714513 0.078518234
000040 e9 1b 0b 3e 68 04 3e 3c aa ec 5d 3d 22 ce dc 3d
       0.13584866 0.01159773 0.05418078 0.10781504
000050 6e c2 e9 3b 59 c8 49 bd 93 28 27 bb 97 d6 47 3d
       0.0071337735 -0.049263332 -0.0025506362 0.048788633
000060 8c 54 b4 bc 40 a5 94 bd 22 b3 31 bc ef 9e 07 3d
       -0.022012971 -0.072580814 -0.010845931 0.033110555
000070 c6 99 de bd 85 a2 c3 bd 4c a5 cb bd f4 82 8d bd
       -0.10869174 -0.095524825 -0.09943637 -0.06909743
000080 a8 b7 da 3d d3 42 53 3d 4a 41 8e 3d ca 6e 4d bc
       0.10679561 0.0515774 0.06946047 -0.012538621
000090 8a 5e 31 bd 8e 71 34 3d c8 27 1b be 9e 74 37 3d
       -0.04330305 0.044053607 -0.15151894 0.04478895
0000a0 95 4d 2c bd 1c 9e b9 bd 51 ee 64 bc 2a f6 cb 3b
       -0.042066175 -0.0906336 -0.013972835 0.0062244134
0000b0 dd 59 9a 3c fc f1 98 bd 9c 84 61 3d 0f 5d f9 bc
       0.018841678 -0.0746803 0.055058107 -0.030439882
0000c0 e8 af 82 3d eb df bd 3d 85 f5 2d bb e3 cb 8c 3d
       0.06381208 0.092712246 -0.0026544046 0.06874826
0000d0 dd 36 84 3d ee a9 a1 bd 46 52 e7 bd 04 50 c5 bd
       0.06455777 -0.0789374 -0.11294989 -0.096344024
0000e0 cc 39 a2 3d 2e af 0a 3d 39 48 65 3b 88 b3 c5 3d
       0.0792118 0.03385847 0.0034985675 0.096533835
0000f0 54 9a af 3d 38 57 c5 3d b9 3f e3 bd cd 31 d5 3d
       0.08574358 0.09635776 -0.110961385 0.10409889
000100 d8 96 cb bd e8 10 e7 bd 0e 2d f4 3c 14 5e ed 3c
       -0.099408805 -0.112825215 0.02980664 0.028975524
000110 aa 11 9f 3d 8e 34 b3 bc a5 d0 2e be 47 43 df 3c
       0.07767041 -0.021875646 -0.17071779 0.02725376
000120 ed 66 0b 3d fc 6b 53 3d 56 28 20 ba c5 4d 83 bc
       0.034033705 0.051616654 -0.0006109526 -0.016028294
000130 f7 c8 fd bc 89 ff 3e 3d 23 b8 2e 3e 6f 03 a1 3c
       -0.030979617 0.046630416 0.1706243 0.019654958
000140 c9 cd 90 bc 6c a7 1f be c3 56 c7 3c b3 6b 93 bd
       -0.017676251 -0.1559121 0.024333363 -0.07198276
000150 76 18 e1 bd 98 b2 a3 bc 70 3d 07 be 53 b3 63 3d
       -0.10990994 -0.019982621 -0.1320703 0.05559094
000160 d4 9b aa bd fd d0 82 bd fa 13 04 3d 28 4f aa 3d
       -0.08330503 -0.063875176 0.032245614 0.08315879
000170 c4 00 dc 3b b5 ac 33 3d 0d 4d ac bb 3d 14 b9 bd
       0.0067139585 0.043865878 -0.0052582086 -0.09037063
000180 96 10 fb bd 17 d2 65 bc d8 16 86 3c 44 86 24 3d
       -0.12259023 -0.01402714 0.016368315 0.04016711
000190 c0 7e 2f bd 33 1b 94 ba 77 99 7e bd 5f 23 11 be
       -0.042845488 -0.001129961 -0.062158074 -0.14173649
0001a0 75 e7 0a bd 22 c2 ab 3d e0 8e d3 bd 2a dc e9 3d
       -0.03391214 0.08386637 -0.103299856 0.11418946
0001b0 3e 7a 71 bd 37 05 7f 3c 2a f7 a7 bc 07 e9 92 bd
       -0.05895447 0.015565208 -0.0205036 -0.07173353
0001c0 19 ce fa 3d 2a 57 0e 3e ef 97 23 3d 64 55 d3 bd
       0.12246341 0.13900438 0.039939817 -0.10319021
0001d0 a5 5d 48 3d 91 00 89 3d 85 f5 20 bd eb d1 5e 3d
       0.04891743 0.06689561 -0.039296646 0.054399412
0001e0 3f 4b a8 3d b9 39 64 3c 7c 49 67 bb 2f e7 a3 3a
       0.08217477 0.013929778 -0.0035291603 0.0012504811
0001f0 cd 0b e0 bd 9a cb fd 3d 0d f8 eb bc 95 7d bf bd
       -0.10939751 0.123923495 -0.028804803 -0.09350125

actor.weight f4 [3, 128]
000000 91 c9 8b 3b e4 92 a1 be ce bf fe 3d e5 e6 f3 bd
       0.004265972 -0.3155738 0.124389276 -0.11909274
000010 0a dc 4b 3d 9b 18 53 3e 25 d5 3d be 60 2b 8e 3d
       0.049770392 0.20614855 -0.1853834 0.06941867
000020 fa d2 2e be ef 27 8c be e7 d6 85 bd 2f 30 64 bd
       -0.17072669 -0.27374217 -0.0653513 -0.055710014
000030 1a 73 19 3e 18 8b 6e be d4 36 a7 3a 28 b9 8d be
       0.14985314 -0.23295248 0.0012757429 -0.27680326
000040 c8 22 ad 3d bc 46 e0 3c a5 05 37 be 0c 9e 6b bc
       0.084538996 0.027377479 -0.17873247 -0.014380943
000050 5f 58 0f be cb f0 94 3e 9a 50 53 3d e5 62 3d 3e
       -0.13998555 0.2908996 0.05159054 0.18494757
000060 c0 2b e0 3d ba 4e ab bc 57 d9 33 bd 93 74 33 be
       0.10945845 -0.020911563 -0.043908443 -0.17524938
000070 3b 73 21 3c 4b 21 8d 3e 1a cf b4 3d c2 8a 2b 3d
       0.009854133 0.27564463 0.08828564 0.041880377
000080 d6 38 04 bd 62 e9 a2 be a5 e6 c1 3c b8 66 b6 bc
       -0.032280765 -0.31818682 0.02366955 -0.022265777
000090 63 8b bf bd ac f0 06 be 29 6b 4a 3e 47 8f 9f 3e
       -0.09352758 -0.13177747 0.19767441 0.31164
0000a0 da 6c 6f be 25 83 cd bc 02 ca 86 be df f1 86 be
       -0.23381367 -0.025086949 -0.26325995 -0.26356408
0000b0 8d 9e 13 3e e5 ec 60 3e be 45 7e bd d3 80 87 3e
       0.14415951 0.21965368 -0.06207823 0.26465473
0000c0 90 ba ac be d3 a1 9c 3d f8 32 11 be c8 47 0f be
       -0.33736086 0.07648053 -0.141796 -0.13992226
0000d0 ab 2f f2 3c 81 38 44 3e dd 8a e3 3d 96 fb 37 bd
       0.029563745 0.1916218 0.111104704 -0.044917665
0000e0 1c 0b ac bd 3d 0b d6 bc e3 95 28 be 17 ee af 3c
       -0.084005564 -0.026128406 -0.16463427 0.021475835
0000f0 29 2b 5b be 6a f5 a9 be 53 29 44 bd 9a 5a 3b be
       -0.21403183 -0.3319505 -0.047890972 -0.1829628
000100 f0 34 b9 bd b8 c2 d5 3d 1d b1 c9 be 63 bf 08 bd
       -0.090433 0.1043753 -0.3939294 -0.033385646
000110 83 3e d6 be 54 79 80 be ca 35 a4 3c cc 10 23 3e
       -0.41844568 -0.25092566 0.02004518 0.15924376
000120 24 07 5f 3e 4e f6 76 3e 1b eb 9d bb 5a 84 a0 3c
       0.21780068 0.24117395 -0.0048192865 0.01959436
000130 fd 59 ad 3e fb 6e 4d 3d e4 6f e9 bd 11 dc 66 bd
       0.33857718 0.050154667 -0.113982946 -0.056362215
000140 80 e7 9e 3d 56 0b 49 39 4e 50 4d 3e d0 14 ff bb
       0.07758999 0.00019173077 0.20050165 -0.0077844635
000150 1d b8 19 3e 4d e4 19 be 94 50 bb 3c 09 a5 63 3d
       0.1501164 -0.15028496 0.022865571 0.05557731
000160 e0 a1 12 be b4 b8 9b 3e bb 6d 59 3c 35 5b 18 be
       -0.14319563 0.30414355 0.013270791 -0.14878543
000170 87 65 15 be 7f 23 f3 ba a5 d6 ea 3c 52 83 83 3d
       -0.14589511 -0.0018550007 0.028666804 0.06421532
000180 4c 62 ff bd c0 b6 86 be e1 05 f5 3d 71 92 58 3d
       -0.124699205 -0.26311302 0.11964012 0.052874032
000190 5e c6 16 be 0f a5 86 3e 89 90 14 3e 1e 3b ef 3d
       -0.14724109 0.26297805 0.14508261 0.116811976
0001a0 e3 00 15 bd 9c 1d 21 3c 1a 9f 11 3e 3f d3 f7 bd
       -0.0363778 0.00983372 0.14220849 -0.12100839
0001b0 2b 33 af 3e 1c 9c 2e 3e 9f 7b ad be f4 68 13 3d
       0.34218726 0.17051739 -0.33883378 0.035988763
0001c0 6d c3 08 be a7 61 8a bc d9 c2 7e 3e 31 67 b1 3c
       -0.13355799 -0.016892267 0.24879016 0.02165565
0001d0 13 1f 5e be 3d 63 cc be cf 97 43 3d ff a1 42 3e
       -0.21691541 -0.39919463 0.047752198 0.19007109
0001e0 ed 13 09 3d a0 fa 1a 3e e6 83 a1 be 31 d2 ca bd
       0.03346627 0.15134668 -0.31545943 -0.09903372
0001f0 b0 a1 6f 3d 9c be ff bc a4 04 04 be 4d ea 9b 3e
       0.058503807 -0.03121882 -0.12892395 0.30452195
000200 a1 8a e1 bd a8 f0 3f 3e 5e b6 94 bd d1 bd b3 3e
       -0.110127695 0.18744147 -0.07261346 0.35105756
000210 0f b3 4b bc 20 39 fb bd 84 90 1b 3e 56 ea ba be
       -0.012432828 -0.12266755 0.15191847 -0.3650691
000220 61 2d aa 3d c6 01 46 3e 8f 96 0c 3c 39 1f 55 3c
       0.083094366 0.19336614 0.008580818 0.013007932
000230 4b 10 4a be 2e 9c 57 3e 10 1f 4b 3e f9 82 47 3e
       -0.19732778 0.21055672 0.19836068 0.19483556
000240 28 35 55 be 08 4c ba bd b4 31 d1 3e 67 60 03 be
       -0.20821059 -0.09096533 0.40858233 -0.12829743
000250 22 49 71 3e f9 4e 3e be 48 9b 28 3d 42 a9 c7 be
       0.23563054 -0.18584813 0.041163713 -0.3899632
000260 8a 68 a2 bd 72 a5 ab bc cd 91 64 3d 45 ec 7f 3e
       -0.079300955 -0.020952914 0.05580311 0.24992473
000270 46 0d 4c bc 1d 69 3d be 30 36 02 be c9 b5 4f 3c
       -0.0124543365 -0.18497129 -0.12715983 0.012677618
000280 d3 3a 04 be f0 16 8d 3e ff 71 03 3d 30 4b b9 bb
       -0.12913065 0.27556562 0.032091137 -0.005654715
000290 08 28 26 3e 94 90 38 3e ec e9 ae bd f5 84 97 be
       0.16226208 0.18023902 -0.08540711 -0.29593626
0002a0 ac 94 a1 3e a8 05 f6 bd 7d e3 91 3d ff fa 86 3e
       0.3155874 -0.120127976 0.07123468 0.2636337
0002b0 9c d8 01 be 5c 62 09 be f4 22 9f bc be 6d 7c be
       -0.12680286 -0.13416427 -0.019425847 -0.24651238
0002c0 42 41 9e 3e eb 4f cd bd 96 4e 4c 3e 28 97 7d 3d
       0.30909163 -0.10025009 0.19951853 0.061911732
0002d0 82 56 74 be b8 25 1b be e0 17 15 bb 60 d7 b9 3c
       -0.23861125 -0.15151107 -0.0022749826 0.022685707
0002e0 92 b5 79 bc fb 3c f0 bc 5d 4e 81 3e 69 69 cc bd
       -0.015241044 -0.029325953 0.252551 -0.09981043
0002f0 5c e3 a0 3e 09 f9 64 3e 9d f8 87 3e 6b f3 06 3e
       0.3142346 0.22360624 0.26556864 0.13178794
000300 05 89 54 3e 40 eb 53 3d f0 f9 8f 3e b1 93 b7 3d
       0.20755394 0.051738024 0.28120375 0.08963717
000310 cb 84 64 3e 76 3a c6 3e 77 4e 32 3e 13 e7 0d be
       0.22316281 0.38716477 0.17412744 -0.13857679
000320 d7 e2 8a be 2a 43 d7 be 61 b0 dc bc db 3c 09 bc
       -0.2712619 -0.4204343 -0.026939573 -0.0083763255
000330 8a 4d 8e be 85 3c 1c be fc f8 2a 3e 43 21 d8 3c
       -0.27793533 -0.15257461 0.16696543 0.026383048
000340 54 d4 d1 bd 26 c4 3c 3e 1c fc 01 be f4 e4 dc bd
       -0.102455765 0.184342 -0.12693828 -0.10785857
000350 ac 13 1e be 46 00 01 3e e4 dd 12 3d 1c ad c0 3c
       -0.15437192 0.1259776 0.035856143 0.023520045
000360 96 74 14 3e ef ee a5 be a9 3c 52 be e6 df 95 3d
       0.14497599 -0.32408854 -0.20530953 0.07318096
000370 94 2a 59 3e 63 86 ce 3d 87 11 6d 3c d9 04 1d 3c
       0.21207649 0.10084226 0.014469511 0.009583675
000380 3a 82 d8 3d f8 19 57 3e 62 fe 90 be fd e5 02 be
       0.10571714 0.21006 -0.2831908 -0.12783046
000390 d3 8f 10 3e 60 ac 92 be f6 85 1c be fa f6 3b bd
       0.14117365 -0.28647137 -0.15285477 -0.045889832
0003a0 73 1c 3a 3c fe 13 9e bd 4f 5a 06 be 53 39 3b bd
       0.011359322 -0.07718657 -0.13120387 -0.045708966
0003b0 ce b5 80 be c0 fd ba bd e5 ec bd 3e 58 a9 b6 3d
       -0.25138706 -0.0913043 0.370948 0.089190185
0003c0 ce 61 9e 3d 51 d2 07 3e 1d d9 12 be 6f 30 a8 3d
       0.077334985 0.13263823 -0.14340635 0.08212363
0003d0 31 15 a5 3e ad 4b 63 3e aa 73 c3 bd bb 4b a5 be
       0.3224273 0.22196837 -0.095435455 -0.3228434
0003e0 ce 1f 5d be 6d 4b a0 be 2f fa 30 3e ee 44 9a 3d
       -0.21594164 -0.31307545 0.17282937 0.075326785
0003f0 1b b5 c0 bd 88 95 8b bc 6f b5 68 3e 21 58 16 be
       -0.09409543 -0.017039075 0.22725461 -0.14682056

actor.bias f4 [3]
000000 af c6 c2 bd b5 03 4e bd 5c b4 e8 3b
       -0.09510552 -0.050296504 0.0071015786

critic.weight f4 [1, 128]
000000 d9 97 90 bd e7 65 7a bc 36 58 e3 3c 65 38 03 3d
       -0.07060213 -0.0152830845 0.027752023 0.032036204
000010 3a d1 b1 3d d8 bc 2b 3d ca 62 6f 3c a1 07 40 bd
       0.08682485 0.041928142 0.0146109555 -0.046882275
000020 f5 01 b8 3d 33 70 36 3d 82 75 ff bc 9a 72 21 3b
       0.08984748 0.044540595 -0.031183962 0.0024634958
000030 fa 41 9e bc 41 71 61 3d 2f 3c 26 bb 77 45 ef 3c
       -0.01931857 0.055039648 -0.0025365462 0.029207928
000040 10 62 97 3d 6d c0 4a 3c 1e c2 88 bc e3 0f 2a 3d
       0.07391751 0.012374979 -0.016694125 0.041519057
000050 75 bb 28 bd 33 dc 3d bd 21 9f 28 bd a3 15 79 3b
       -0.041194398 -0.046352576 -0.041167382 0.0038007281
000060 eb 07 30 3c 7c c6 98 bc e7 5e 0f 3d 5c a2 51 3c
       0.010744075 -0.018649332 0.035002615 0.012795057
000070 7c 15 03 bd dd 90 ce bc 45 05 86 bc c1 75 33 bd
       -0.03200291 -0.02521556 -0.016359935 -0.04381347
000080 37 9a 6c 3d 20 93 13 3b be 5f 2f 3d 6e 4b ef bc
       0.05776426 0.0022518113 0.042815916 -0.029210772
000090 61 63 ac bd cc 13 af 3d 12 4f 85 bd a2 a4 83 3b
       -0.084173925 0.08548698 -0.06509222 0.0040174285
0000a0 eb 7d 0b bc e0 7f 13 bd ee 10 72 bc 84 e3 31 bd
       -0.008513908 -0.036010623 -0.014774544 -0.043429866
0000b0 20 95 8b 3c d4 29 c9 bc 1a e7 c8 bc 7a 3e 8a 3c
       0.017038882 -0.024556078 -0.02452426 0.016875494
0000c0 6a f8 f9 3b 4b 40 a5 3c a0 79 44 bc 93 f5 7a 3d
       0.00762849 0.020172259 -0.011991888 0.061269354
0000d0 21 00 98 bc 40 64 ac 3c 97 7d 6f bd b0 b2 d7 bd
       -0.018554749 0.021043897 -0.05846938 -0.10532129
0000e0 d3 3e 77 3d 06 ce 1f 3d 5a 6f a5 bc c3 0e 88 3d
       0.06036265 0.03901484 -0.020194698 0.066434406
0000f0 a9 d9 98 3c 50 40 04 3d d6 47 4c 3c 3a 32 2c 3c
       0.018658476 0.032287896 0.012468299 0.010510022
000100 f1 d2 d0 3a d6 88 20 bd e5 e8 7e bc b5 70 33 bd
       0.0015932006 -0.039192997 -0.015558456 -0.043808658
000110 02 08 b0 3a 21 be a8 3c cf e1 cb 3a 40 2f 08 3d
       0.0013430121 0.020598473 0.0015554967 0.033248186
000120 be 1f 83 bc b9 3c 7b bc c1 81 6b 3c e3 db cf bc
       -0.016006347 -0.015334302 0.014374197 -0.025373405
000130 ab 17 c3 3c 8a dc e9 3c c9 e5 fb 3b 8f 7d 82 bc
       0.023814997 0.028547544 0.0076873046 -0.015929012
000140 8d ae 09 3d 10 1f 1a bd 08 02 bb 3b f0 54 2a 3c
       0.03361373 -0.03762728 0.0057070293 0.010396227
000150 30 96 be bc 0b 9c 61 3d 95 db 90 bd c3 0e 18 3d
       -0.023264974 0.055080455 -0.07073132 0.037123453
000160 7d 3a 6a bc 5e 7c 86 3c 01 6e 77 bc fb 68 13 3c
       -0.014296171 0.016416725 -0.015101911 0.008997197
000170 2a e6 26 bc e2 c9 9f bc 8b cf 64 3b 7a 21 81 bc
       -0.010186711 -0.019505445 0.0034913744 -0.015763033
000180 53 88 e8 3c 30 a2 ea 3c 60 7f 65 3c 82 fb 14 bc
       0.028385317 0.02864179 0.014007419 -0.009093167
000190 6f 5c 09 bd 4c 9b 90 3c 12 b3 af bc 6a ad b5 bd
       -0.033535417 0.017652176 -0.021447692 -0.08870967
0001a0 4b da 8f bd 79 6c 50 3d 55 d1 89 bd 6f d6 bb 3d
       -0.07024058 0.050884698 -0.0672938 0.09171759
0001b0 c5 17 7f bc 2d 3d 37 3c b4 e6 4a bc d4 79 0d bd
       -0.015569632 0.011184019 -0.0123841055 -0.034540012
0001c0 40 06 1f bb 96 00 24 3d b2 ba 88 bc 44 aa 6e bd
       -0.00242652 0.04003962 -0.016690586 -0.058267847
0001d0 e7 7d 9d bc 50 14 43 bd dd 39 1c bd bc 53 d3 3c
       -0.019225074 -0.047626793 -0.03814112 0.025796764
0001e0 05 e5 8f 3c d2 ca c3 bc 2b ea 6c 3c c0 7b 1a bb
       0.01756526 -0.023900423 0.014460127 -0.0023572296
0001f0 ad 54 2c bd ee 10 0c 3d 86 39 74 bd e0 da 28 bb
       -0.04207294 0.034195833 -0.05962517 -0.0025765225
