model_params/model_params_25.pth (torch, 74912 bytes, 7 tensors)

rnn.weight_ih_l0 f4 [128, 6]
0	0xbd90c0ae	-0.07068001
1	0xbd4c75c3	-0.049916994
2	0xbd7cb155	-0.061692555
3	0xbecd7cf0	-0.40134382
4	0xbc9a535c	-0.018838577
5	0x3d8ed586	0.0697432
6	0x3d152520	0.03641236
7	0x3d4433a6	0.04790082
8	0xbd0a39ef	-0.033746656
9	0x3e703452	0.23457459
10	0xbd93ae9b	-0.07211038
11	0x3c1f537a	0.009724492
12	0xbd95042f	-0.072761886
13	0x3de7bf9e	0.11315845
14	0xbd405ed4	-0.046965435
15	0xbebd111f	-0.36927125
16	0x3cdc4c7b	0.026891937
17	0x3d8e39a0	0.06944585
18	0x3c9f5b04	0.01945258
19	0xbce31de5	-0.027724216
20	0xbd48cb59	-0.049022052
21	0xbe59ab2f	-0.21256708
22	0xbb3464d3	-0.0027525916
23	0xbca581e4	-0.020203538
24	0xbd5a7b62	-0.053340323
25	0x3ceb9e90	0.028762132
26	0x3da32723	0.07966449
27	0xbe837643	-0.25676164
28	0x3dafd811	0.08586133
29	0x3d3f4409	0.046695743
30	0x3cd9f15c	0.026604347
31	0x3d8c5c36	0.06853525
32	0xbd8488a1	-0.064713724
33	0xbeebd972	-0.46064335
34	0x3d95290b	0.07283219
35	0x3d121dad	0.035672832
36	0xbb84ded0	-0.0040548816
37	0x3d75227f	0.05984735
38	0xbdb0c264	-0.08630827
39	0xbea6f2e1	-0.32607177
40	0xbd3804a8	-0.044926316
41	0x3da5b9a3	0.08092048
42	0xbd4f8023	-0.05065931
43	0x3d8c6ff5	0.068572916
44	0xbc9d2660	-0.019183338
45	0x3ea71808	0.32635522
46	0xbd78ffda	-0.060790874
47	0x3d56de82	0.052458294
48	0x3bd10580	0.0063788295
49	0x3d2d948d	0.042377997
50	0xbdb4534b	-0.088049494
51	0xbeb355b6	-0.3502633
52	0x3d0e1a6b	0.034693163
53	0xbdbded18	-0.09273738
54	0xbda3827f	-0.079838745
55	0xbce0ac62	-0.027425949
56	0xbcf4a8c2	-0.029865626
57	0x3e6d47fd	0.23171993
58	0x3d3c6366	0.04599323
59	0x3da218ec	0.0791491
60	0xbdb3dd15	-0.087824024
61	0x3d9eabe1	0.07747627
62	0x3d9af20b	0.07565697
63	0xbe3a67e3	-0.18203692
64	0x3db1c993	0.08681025
65	0x3cef2047	0.029190196
66	0x3d1d77ae	0.038444214
67	0x3da77316	0.08176248
68	0x3d50688a	0.050880946
69	0xbed730fd	-0.42029563
70	0x3c99a009	0.018753069
71	0x3d94bdb1	0.07262743
72	0xbda9671b	-0.08271619
73	0x3d21f8e1	0.03954399
74	0x3d57be86	0.05267193
75	0x3dce98da	0.10087748
76	0xbda9e4d2	-0.08295597
77	0x3db3069e	0.087414965
78	0xbcd9f024	-0.026603766
79	0x3bffc8aa	0.0078059034
80	0xbda851b2	-0.08218707
81	0x3f017d14	0.5058148
82	0xbd5a24ab	-0.053257626
83	0xbb4873f9	-0.0030586703
84	0xbda0bd60	-0.078486204
85	0x3ca1fe7c	0.019774668
86	0xbd80af85	-0.06283478
87	0xbee5fb23	-0.44918165
88	0x3d1cddda	0.03829751
89	0xbd98335a	-0.074316695
90	0x3c88d710	0.016704112
91	0x3dd8d490	0.10587418
92	0x3cdcb3a4	0.026941128
93	0xbe3b34a2	-0.18281797
94	0xbd1b7db5	-0.03796168
95	0x3d700a5f	0.05860364
96	0x3d4af2fa	0.049548127
97	0x3ce0ea3f	0.027455447
98	0xbd9b38e4	-0.075792104
99	0xbea5a9d6	-0.32356137
100	0x3d40cfa6	0.04707303
101	0xbd9628a9	-0.07331974
102	0xbc20c3a8	-0.009812273
103	0xbdb55ac3	-0.08855202
104	0xbc33ab00	-0.010966063
105	0x3e8a4211	0.2700353
106	0xbc53f665	-0.012937163
107	0x3d0034e4	0.03130044
108	0xbd46da4c	-0.048548028
109	0xbc106962	-0.008814188
110	0xbd7cbf7c	-0.06170605
111	0x3eb5c47d	0.3550147
112	0x3d175804	0.036949173
113	0x3d0aef37	0.03391954
114	0xbdacf0ce	-0.08444367
115	0xbcb06532	-0.021532629
116	0x3d4e4a96	0.0503641
117	0x3d0304be	0.031986944
118	0xbd60dc93	-0.054897856
119	0x3dc9fd8f	0.098628156
120	0x3d34e862	0.04416693
121	0x3b93c44c	0.0045094844
122	0xbd9f6dd4	-0.0778462
123	0x3e79a613	0.24379759
124	0x3d0a976a	0.033835806
125	0x3d0959f0	0.033533037
126	0x3d9d81a1	0.076907404
127	0x3cca3002	0.024681095
128	0xbc821bd8	-0.015882418
129	0xbe08bb9a	-0.13352814
130	0x3d8bcfda	0.06826754
131	0x3d371c5c	0.04470478
132	0xbd8e6f30	-0.06954801
133	0x3dc9eb81	0.09859372
134	0x3d20772a	0.039176144
135	0xbf00a468	-0.50250864
136	0xbc9cfc22	-0.019163195
137	0xbbc4f49f	-0.0060106064
138	0xbbd57c90	-0.006515093
139	0x3d7e70c2	0.062119253
140	0xbd43dab8	-0.04781601
141	0x3e9d42f6	0.3071515
142	0x3d047ce8	0.032345682
143	0x3dbef9a1	0.09324957
144	0xbd1a4af3	-0.037669133
145	0xbd97c51b	-0.07410642
146	0xbd3eac1f	-0.046550866
147	0x3e24f4f3	0.16109066
148	0x3ccf0bfb	0.025274267
149	0xbc09070e	-0.008363498
150	0xbdaf59f3	-0.08562078
151	0x3da9f342	0.08298351
152	0xbd8bd67a	-0.068280175
153	0xbe2131f7	-0.15741716
154	0x3d9d9184	0.076937705
155	0x3d7d7a7e	0.061884396
156	0x3d27b38a	0.040942706
157	0x3d2b0ee3	0.041762244
158	0x3da30979	0.07960791
159	0xbed2997b	-0.4113272
160	0xbd677d50	-0.05651599
161	0xbd452b26	-0.048136853
162	0x3d7d52a6	0.061846398
163	0xbc11a4cf	-0.008889391
164	0xbc9ec9c0	-0.019383311
165	0xbe52690f	-0.20547889
166	0x3dae49c2	0.08510162
167	0xbd52fcef	-0.051510748
168	0x3d8f50c7	0.06997829
169	0x3c350f44	0.011051003
170	0x3d60a8a2	0.05484832
171	0x3f0a6d68	0.5407319
172	0xbd33de82	-0.04391337
173	0x3d33c521	0.04388917
174	0xbd8deaa2	-0.06929518
175	0x3db786d7	0.089612655
176	0xbca8ca90	-0.020604402
177	0xbed4a042	-0.41528517
178	0xbd8651d6	-0.06558578
179	0x3d8dbf87	0.069212966
180	0x3d460286	0.04834225
181	0x3d111bd3	0.035426926
182	0x3da301cd	0.07959328
183	0xbee9c92c	-0.45661294
184	0x3d0908ab	0.033455532
185	0xbd0b73d7	-0.03404602
186	0x3d9ceac1	0.07661963
187	0x3d1352e4	0.035967723
188	0xbd59e818	-0.053199857
189	0xbe53f9f5	-0.2070082
190	0xbd19430c	-0.037417457
191	0x3d7c27f6	0.061561547
192	0x3d40e842	0.0470965
193	0xbdb7c961	-0.08973957
194	0xbd25dcbc	-0.04049371
195	0x3ee45f03	0.44603738
196	0xbd5b01b6	-0.05346843
197	0xbd7233d1	-0.059131447
198	0xbbac3b70	-0.005256109
199	0xbbd576e3	-0.0065144165
200	0x3dadf6ad	0.08494315
201	0xbee6ff66	-0.4511673
202	0xbd1eb3cc	-0.038745686
203	0xbd408242	-0.046999224
204	0xbc7a8288	-0.01528991
205	0xbd9eee55	-0.07760302
206	0xbd9d70dd	-0.076875426
207	0x3ee9dd42	0.4567662
208	0x3d6697c3	0.056297075
209	0x3d1e09d2	0.038583584
210	0x3d0b8538	0.034062594
211	0xbd47ef43	-0.048812162
212	0xbb2fac20	-0.0026805475
213	0x3d69812a	0.057007946
214	0x3db89968	0.09013635
215	0xbddfde0d	-0.10931025
216	0xbdb04bc6	-0.08608203
217	0x3c8ea503	0.017412668
218	0xbd52add4	-0.051435307
219	0x3ea84691	0.32866338
220	0x3d683e86	0.056700252
221	0x3ddb55df	0.10709738
222	0xbc9da338	-0.019242868
223	0x3dcc9b4a	0.099905565
224	0x3d96ae15	0.07357422
225	0xbeed4d2a	-0.46347934
226	0x3d36ec57	0.044658985
227	0xbc9fbf9b	-0.019500544
228	0xbb9d9ab0	-0.0048097
229	0x3c6758d8	0.014120303
230	0x3c62a3a0	0.013832957
231	0x3ea6f303	0.32607278
232	0xbce7188e	-0.02820995
233	0xbd1443db	-0.036197525
234	0x3a13f400	0.0005643964
235	0x3da75476	0.081704065
236	0xbd2e3bf9	-0.042537663
237	0xbe8fc9d5	-0.28083673
238	0x3d6b83c1	0.057498697
239	0xbd4ea2c9	-0.050448213
240	0x3d3693e2	0.044574626
241	0x3c8f83ee	0.017518964
242	0x3c75ff30	0.015014455
243	0x3e4055d3	0.1878274
244	0xbdaa4cdc	-0.08315441
245	0xbcdad1c6	-0.026711356
246	0x3d2f23ce	0.042758755
247	0xbcaff03b	-0.021476856
248	0xbd0ed399	-0.034869764
249	0xbdf6fc88	-0.12059885
250	0xbd3c22e4	-0.04593171
251	0xbdcd38a8	-0.10020572
252	0xbca09cbc	-0.019605987
253	0xbd328b43	-0.04358984
254	0xbced3d1c	-0.028959803
255	0x3cb5a4fd	0.0221734

rnn.weight_hh_l0 f4 [128, 128]
0	0x3db149b9	0.086566396
1	0xbc094ffb	-0.008380885
2	0x3ddaa976	0.10676853
3	0xbd75bdfd	-0.05999564
4	0xbd7ead2f	-0.06217688
5	0xbd0de2b5	-0.034640033
6	0x3d92fa5d	0.07176659
7	0x3d477a9c	0.048700914
8	0x3d859995	0.06523434
9	0x3d57a4f8	0.05264756
10	0x3daf0ea3	0.085477136
11	0xbcbb39c3	-0.022854691
12	0xbc63c13d	-0.013901052
13	0xbd1cdf0f	-0.038298663
14	0x3bc0ad35	0.005880023
15	0xbd8f229a	-0.069890216
16	0x3d3568c0	0.04428935
17	0x3d3fa683	0.046789657
18	0xbd5850b7	-0.05281135
19	0x3d8fd5c4	0.070231944
20	0xbab179db	-0.0013540344
21	0xbcbcaaf8	-0.023030743
22	0x3d6afbdd	0.0573691
23	0xbcb148ca	-0.021641154
24	0x3cbf8c74	0.023382403
25	0x3c69ea09	0.01427699
26	0xbcf8ca1f	-0.030369816
27	0xbd8d2142	-0.06891109
28	0x3c552177	0.013008467
29	0xbc714c79	-0.014727705
30	0xbd3b713b	-0.045762282
31	0x3dd45078	0.10366911
32	0x3c86ceb4	0.016455986
33	0xbdab4fa9	-0.08364803
34	0xbda8a083	-0.0823374
35	0x3d980bf8	0.07424158
36	0xbdb0ceae	-0.08633171
37	0xbd37f777	-0.044913735
38	0xbdde23b8	-0.108466566
39	0x3ddd0415	0.10791794
40	0x3d6149a5	0.055001874
41	0x3d998dde	0.07497762
42	0xbd3a1bff	-0.045436855
43	0x3bd5d86a	0.0065260427
44	0x3d6fcedd	0.05854689
45	0x3db08b6e	0.08620344
46	0x3d63f41b	0.05565272
47	0x3d858ed4	0.06521383
48	0xbbcc5308	-0.006235484
49	0x3d137c79	0.03600738
50	0xbddda8f1	-0.10823239
51	0xbda0f74d	-0.07859669
52	0x3d7d09c3	0.061776888
53	0x3daea0b7	0.08526748
54	0xbb590867	-0.003311658
55	0xbd0a994d	-0.033837605
56	0x3d404bb5	0.0469472
57	0x3ac032f8	0.0014663627
58	0xbc835640	-0.016032338
59	0x3d934c1b	0.0719225
60	0x3ca491bc	0.020089023
61	0xbd117f79	-0.035521958
62	0x3b0f6a98	0.0021883603
63	0x3d6f7ba6	0.05846753
64	0x3c0445e9	0.0080733085
65	0xbb1c0dc1	-0.002381191
66	0xbc100fc5	-0.008792822
67	0x3c332207	0.010933406
68	0x3d897c45	0.06713156
69	0x3c06c13c	0.008224782
70	0xbd3fb02e	-0.046798877
71	0xbd71b5a0	-0.0590111
72	0xbb2f02ac	-0.0026704473
73	0xbbf887b7	-0.007584538
74	0xbc3663b2	-0.011132168
75	0x3e09d07a	0.13458434
76	0xba67f9b7	-0.0008849161
77	0xbccc8abb	-0.024968496
78	0xbd686191	-0.05673367
79	0x3b36f150	0.002791483
80	0xbc06f2a0	-0.008236557
81	0xbd33d49f	-0.043903943
82	0xbd98e708	-0.07465941
83	0x3d3aafba	0.045577742
84	0xbd21cff8	-0.039504975
85	0x3d0a14c4	0.03371121
86	0x3cf352b5	0.029702524
87	0x3d1cd7a5	0.038291592
88	0xbcb17df2	-0.0216665
89	0xbd938bb5	-0.072043814
90	0x3acec46d	0.0015775092
91	0x3c0e94a3	0.00870243
92	0xbd6c1f51	-0.057647053
93	0x3d734a1f	0.05939686
94	0x3da029cd	0.07820473
95	0x3de176da	0.11008997
96	0xbc0f059f	-0.0087293675
97	0xbd715505	-0.05891897
98	0xbdbc2b57	-0.09187954
99	0xbd9bd2d2	-0.0760857
100	0xbd843080	-0.06454563
101	0xbd84290b	-0.06453141
102	0xbdaa0d65	-0.08303336
103	0xbd75111f	-0.05983078
104	0x3d5de231	0.05417079
105	0x3d6843b8	0.056705207
106	0x3d7debd3	0.061992478
107	0x3d89f349	0.06735856
108	0x3d85f17a	0.065401986
109	0x3ce5e801	0.02806473
110	0xbcbe4b21	-0.023229184
111	0xbd981a66	-0.0742691
112	0x3c45c478	0.012070768
113	0x3d4993ff	0.049213406
114	0x3d91d2e1	0.071203
115	0x3da0c54d	0.07850132
116	0x3c272271	0.010201083
117	0xbd769f29	-0.06021038
118	0x3dbf9afb	0.09355732
119	0x3d83f9dd	0.06444142
120	0xbc87ab19	-0.016561078
121	0xbd93a480	-0.0720911
122	0xbd77b43c	-0.06047462
123	0xbca0424b	-0.019562861
124	0xbdada274	-0.08478251
125	0xbd659689	-0.056051765
126	0x3da2027d	0.07910631
127	0x3d5d03b7	0.05395862
128	0x3c5ce097	0.013481281
129	0x3d39b9fc	0.045343384
130	0x3cfac4fb	0.030611506
131	0x3bb278ce	0.00544653
132	0x3d17bf9a	0.03704796
133	0x3cc50a54	0.024052776
134	0xbd845054	-0.06460634
135	0x3d1f370f	0.038870867
136	0xbd0c3a20	-0.03423512
137	0x3c90ee4d	0.017691756
138	0x3d4814a3	0.048847806
139	0xbd9c912a	-0.07644875
140	0x3dcce120	0.10003877
141	0x3de70407	0.11280065
142	0x3d81b11a	0.063326076
143	0xbdc404af	-0.09571206
144	0xbcff636a	-0.031175334
145	0x3ce69803	0.028148657
146	0x3d86f60f	0.06589901
147	0xbc42c79d	-0.011888412
148	0x3b4fc986	0.003170581
149	0xbd70b4eb	-0.058766287
150	0x3d711470	0.05885738
151	0xbc4b52c2	-0.012409868
152	0x3dd0bb1e	0.1019194
153	0xbd3f83df	-0.04675662
154	0xbdda82ec	-0.106695026
155	0xbd868f38	-0.065702856
156	0x3ca7b86f	0.020473687
157	0xbc8588f2	-0.016300652
158	0xbcd4b52c	-0.025965296
159	0x3d62a4ea	0.055333056
160	0xbcbc6ae5	-0.02300019
161	0xbd577553	-0.052602123
162	0x3e08a13b	0.13342755
163	0x3d789339	0.060687277
164	0x3d9d59f7	0.07683175
165	0x3c4aca4e	0.012377335
166	0x39ee5c66	0.0004546374
167	0xbd80aed4	-0.06283346
168	0xbb79637a	-0.0038053677
169	0xbd800ba5	-0.06252221
170	0x3da244ff	0.07923316
171	0x3d28facd	0.041254807
172	0x3bfc3534	0.007696772
173	0xbc6d0a5c	-0.014467802
174	0xbd31fc99	-0.043453787
175	0x3db6d899	0.089280315
176	0xbdfd7a38	-0.12376827
177	0xbc8762fb	-0.01652669
178	0x3e133d41	0.14378835
179	0x3d5d8e35	0.054090697
180	0xbc2169d4	-0.009851892
181	0xbdf9ae4b	-0.12191447
182	0xbd3dd97d	-0.04634999
183	0xbca13c4d	-0.019682074
184	0xbde9f927	-0.11424475
185	0x3dd7402a	0.10510285
186	0x3d4512dc	0.04811369
187	0x3d4d1120	0.05006516
188	0xbdce2064	-0.10064772
189	0xbd1a0dba	-0.037610747
190	0xbd59e477	-0.053196397
191	0xbc4700e0	-0.012146205
192	0xbc2e6234	-0.010643531
193	0x3dff65c7	0.12470584
194	0x3cf88405	0.03033639
195	0x3d9612f8	0.07327837
196	0xbd533e6d	-0.051573206
197	0xbc4a233f	-0.012337505
198	0xbe088f92	-0.13336018
199	0x3dcdc064	0.10046461
200	0xbccd9542	-0.025095586
201	0x3da2de49	0.07952554
202	0x3c9eb0b0	0.01937136
203	0xbd994bd5	-0.07485167
204	0xbc9c0cd8	-0.019049093
205	0x3c6814b4	0.014165092
206	0xbd37ec09	-0.044902835
207	0xbd0609d8	-0.03272423
208	0x3dd5d639	0.1044125
209	0x3dcbecec	0.09957299
210	0x3dc154b6	0.094399855
211	0xbe0ee976	-0.13956246
212	0x3cf4d6fd	0.02988767
213	0xbc31c9dd	-0.010851351
214	0x3d892af6	0.06697647
215	0x3d5fddb0	0.054654777
216	0xbc54745a	-0.0129671935
217	0x3d9340e5	0.07190112
218	0x3d58ee69	0.05296174
219	0x3e24cf38	0.16094673
220	0xbdcada82	-0.09904958
221	0x3d0b2f53	0.03398068
222	0x3d80284d	0.06257687
223	0x3d24e6eb	0.040259283
224	0xbe1a6944	-0.15079218
225	0xbd28762d	-0.041128326
226	0x3c761745	0.015020196
227	0xbc0f47c4	-0.008745138
228	0x3d1a3f87	0.03765824
229	0xbdae56fc	-0.08512685
230	0xbde5c68c	-0.112195104
231	0x3d90167f	0.07035541
232	0x3dcdcd61	0.100489385
233	0xbe346f7b	-0.17620651
234	0x3d62d74b	0.0553811
235	0xbdf39d85	-0.11895279
236	0xbdcb8630	-0.099377036
237	0x3d5a1fa9	0.05325285
238	0xbd5c25f5	-0.053747136
239	0x3e094bee	0.13407871
240	0xbd0164a5	-0.031590123
241	0x3bc41335	0.005983735
242	0x35ba4ec8	1.3881008e-06
243	0xbc133131	-0.008983896
244	0xbd52b6f4	-0.05144401
245	0xbd9f815d	-0.07788346
246	0xbd900a33	-0.07033195
247	0x3d5fab32	0.054606624
248	0xbcda1134	-0.026619531
249	0xbd950742	-0.07276775
250	0x3d2e86d1	0.04260904
251	0xbceff92d	-0.029293621
252	0x3c3b403f	0.011428892
253	0x3c53831e	0.012909679
254	0xbd243425	-0.04008879
255	0xbd0d1f7f	-0.034453865

rnn.bias_ih_l0 f4 [128]
0	0x3c8ea29b	0.01741152
1	0x3d61c672	0.055120893
2	0x3d0f9364	0.035052672
3	0x3d80cb7c	0.062888116
4	0x3d524d6a	0.05134336
5	0xbd9eba3a	-0.07750364
6	0x3aaafc8e	0.0013045238
7	0x3d90fed1	0.07079852
8	0xbab4b6df	-0.001378741
9	0xbd6bca73	-0.057566117
10	0x3d2c5348	0.04207161
11	0xbd199ecb	-0.037504952
12	0x3dcdaccf	0.10042726
13	0xbc0b3339	-0.008496099
14	0x3d410bb8	0.047130316
15	0xbd474c1b	-0.048656564
16	0x3d38138b	0.044940513
17	0xbd99c514	-0.07508293
18	0xbd35539e	-0.044269197
19	0x3dc335b5	0.09531728
20	0x3d0842dd	0.03326689
21	0x3d00ee6f	0.031477388
22	0x3ccffad0	0.025388151
23	0xbc63e982	-0.013910653
24	0xbce743f4	-0.028230645
25	0xbd7fef2d	-0.062483955
26	0x3d809197	0.06277769
27	0x3d4a895c	0.049447402
28	0x3cbab24e	0.0227901
29	0xbcb87027	-0.022514416
30	0x3c8085d2	0.01568881
31	0xbbce14d0	-0.006289102
32	0x3ca49b7a	0.020093668
33	0x3da35453	0.07975068
34	0xbca64476	-0.020296317
35	0x3d837196	0.06418149
36	0xbd6355bc	-0.055501685
37	0x3cd73502	0.026270393
38	0x3cf605e2	0.030032102
39	0x3d7ee882	0.062233455
40	0x3c786e8f	0.015163078
41	0xbdb91179	-0.09036536
42	0xbc79f7ae	-0.015256805
43	0x3d2a5c49	0.041591916
44	0xbd7dbb50	-0.061946213
45	0xbd1f1758	-0.03884062
46	0x3dc77ff3	0.09741201
47	0x3d4552b5	0.04817458
48	0x3d5c6c0a	0.05381397
49	0x3d8f86bb	0.0700812
50	0x3ce480d5	0.027893463
51	0xbd639a44	-0.05556704
52	0xbd905036	-0.07046549
53	0x3c377c28	0.011199035
54	0xbd16dcb6	-0.03683158
55	0x3d50086f	0.050789293
56	0x3cb4143e	0.021982308
57	0x3da81993	0.08208003
58	0xb9155fa8	-0.00014245382
59	0xbd7d3d0a	-0.06182579
60	0xbc920d25	-0.017828533
61	0xbdc3057f	-0.09522533
62	0x3d501372	0.050799794
63	0x3dd4c0dd	0.10388348
64	0xbdf0fd1c	-0.11767027
65	0xbb2f788d	-0.0026774735
66	0xbd0a9500	-0.033833504
67	0x3de452d2	0.11148609
68	0xbda04521	-0.07825685
69	0x3d3eac89	0.04655126
70	0x3d74c64f	0.059759434
71	0x3d2139b1	0.03936166
72	0x3dbc52af	0.09195458
73	0xbc00b36d	-0.007855278
74	0x3c8a0f69	0.016853051
75	0xbb866b44	-0.0041021425
76	0x3d69e329	0.057101402
77	0x3b59761a	0.0033181966
78	0xbdb484c2	-0.08814384
79	0xbdcefe80	-0.10107136
80	0x3c9277b2	0.01787934
81	0x3b35f19e	0.0027762423
82	0xbc7453eb	-0.014912586
83	0x3cb38133	0.021912193
84	0x3d6e9e52	0.058256455
85	0xbd4ab614	-0.04949005
86	0x3d183ded	0.037168432
87	0x3c652aaf	0.013987227
88	0x3d88d84a	0.06681879
89	0xbdcbf1cc	-0.099582285
90	0xbc2f2e92	-0.010692256
91	0x3c3bd734	0.011464883
92	0xbd1c2807	-0.03812411
93	0x3d6e18dc	0.058129176
94	0x3c31b4cb	0.010846327
95	0xbd9a2433	-0.07526436
96	0x3d637fd6	0.055541836
97	0xbc373541	-0.01118213
98	0x3d8d1e69	0.06890566
99	0xbc8e3b92	-0.01736239
100	0xbcee91cb	-0.029122254
101	0x3d857dbe	0.06518124
102	0xbdb38249	-0.08765084
103	0x3d2db80e	0.042411856
104	0xbd18676c	-0.037208006
105	0xbda15fd6	-0.078796074
106	0xbd94f225	-0.07272748
107	0xbcec4c89	-0.028845089
108	0x3d4e1e14	0.050321653
109	0x3bb0ddd4	0.0053975377
110	0x3d8572e4	0.06516054
111	0x3d6a1bbc	0.057155356
112	0xbda5e0b3	-0.080994986
113	0xbd04df33	-0.03243942
114	0xbd8e8c3a	-0.0696034
115	0xbaa92dfe	-0.0012907383
116	0x3d31dd2b	0.043423813
117	0xbbd8f152	-0.0066205645
118	0x3d9ee315	0.07758156
119	0xbbb23715	-0.005438695
120	0x3b70d8e8	0.003675038
121	0xbdcf8fa5	-0.1013482
122	0xbcc06ee2	-0.023490373
123	0x3d4741a8	0.0486466
124	0x3e002579	0.12514295
125	0xbcbbde37	-0.022933109
126	0x3d66cfdd	0.056350578
127	0xbd3e82ad	-0.04651134

rnn.bias_hh_l0 f4 [128]
0	0x3c718e04	0.014743332
1	0xbd2daa98	-0.04239902
2	0x3cbeaf03	0.023276811
3	0xbb214575	-0.002460805
4	0xbd777c3c	-0.060421214
5	0x3d23412c	0.039857075
6	0xbd43c71d	-0.04779731
7	0x3b84f6c4	0.004057737
8	0xbd8dbd26	-0.06920843
9	0x3dc01d46	0.093805835
10	0x3d901f6f	0.070372455
11	0x3d8adc4c	0.067802995
12	0x3d351158	0.044205993
13	0x3c964425	0.01834304
14	0x3dc4662b	0.095897995
15	0x3d4e1903	0.05031682
16	0xbd4e136d	-0.050311495
17	0x3d9502e2	0.072759405
18	0xbccb94fa	-0.024851311
19	0x3d1a5a86	0.037683986
20	0x3d655016	0.05598458
21	0x3d03b8f9	0.032158826
22	0x3d1d50fe	0.03840732
23	0xbb95a693	-0.0045669763
24	0x3d9f24fc	0.07770726
25	0xbb3b6818	-0.002859598
26	0x3d6719af	0.05642098
27	0xbd33d722	-0.04390634
28	0xbc59ce70	-0.013293847
29	0x3c95e77d	0.018298859
30	0xbd9af6e4	-0.07566622
31	0x3bf0bf6e	0.007347039
32	0xbc6557e7	-0.013998008
33	0xb9953a58	-0.00028462964
34	0xbd2d754b	-0.042348187
35	0xbd40b78b	-0.04705004
36	0xbc0c3c3b	-0.008559282
37	0xbd07455f	-0.03302514
38	0x3d3ac02a	0.04559342
39	0xbdddeeb8	-0.108365476
40	0xbc58e9f3	-0.013239372
41	0x3c8ab8f1	0.01693389
42	0xbe006fb3	-0.1254261
43	0xbcb8f664	-0.022578426
44	0x3ca23050	0.019798428
45	0x3c7aaaa4	0.015299473
46	0x3dccd525	0.100015916
47	0x3dccb636	0.099956915
48	0xbcaec979	-0.021336304
49	0x3bb22b87	0.005437318
50	0x3d7edca7	0.06222215
51	0xbd5d4a24	-0.054025784
52	0x3d074147	0.033021238
53	0xbce1e369	-0.027574258
54	0xbd848420	-0.06470513
55	0xbd587609	-0.052846942
56	0x3d0555c3	0.032552492
57	0xbc29ffd0	-0.010375932
58	0xbbfbdd00	-0.0076862574
59	0x3d423c27	0.047420647
60	0xbb84539a	-0.0040382864
61	0x3d49bd33	0.0492527
62	0xbd62e698	-0.055395693
63	0xbc1a5e5e	-0.009421913
64	0xbd18bca6	-0.037289284
65	0x3bd6776d	0.0065449984
66	0x3db870cf	0.090058915
67	0x3e0c8814	0.13723785
68	0xbd6e8bb7	-0.05823871
69	0xbd42a79d	-0.04752313
70	0xbca8dbf6	-0.020612698
71	0x3d38e35b	0.045138698
72	0xbd0867b1	-0.033302013
73	0x3cec52a0	0.028847992
74	0xbd2014b5	-0.039082248
75	0xbd084694	-0.033270434
76	0x3d1a3655	0.03764947
77	0xbce5b9ec	-0.028042756
78	0xbca875ef	-0.020564048
79	0xbdd182e2	-0.10230042
80	0x3d0598cc	0.03261642
81	0x3d5d67b6	0.054053985
82	0x3d87c993	0.06630244
83	0xbcf5360f	-0.029933004
84	0x3dc6b0ab	0.097016655
85	0xbd1bac56	-0.03800615
86	0xbd792bb8	-0.06083271
87	0x3cac46b7	0.021029813
88	0xbdaa0e47	-0.083035044
89	0xbda012e4	-0.07816103
90	0xbdad2827	-0.08454924
91	0x3d305a2a	0.043054737
92	0x3d636c2d	0.055523086
93	0x3d920952	0.07130684
94	0x3d3c60e9	0.04599086
95	0xbd8ede6f	-0.069760196
96	0x3be69594	0.007036874
97	0xbd99d6ee	-0.07511698
98	0xbb1cecf4	-0.0023944946
99	0xbdab0b3e	-0.08351754
100	0x3d87c03d	0.066284634
101	0x3cc68fb9	0.024238454
102	0xbc0bd032	-0.008533524
103	0xbd29a140	-0.041413546
104	0x3cfc96cf	0.03083363
105	0x3d231131	0.039811317
106	0x3d660536	0.056157313
107	0xbca6b2b3	-0.020348882
108	0xbd5fc392	-0.05462987
109	0x3c751129	0.014957705
110	0xbd312fe5	-0.043258566
111	0xbdb9d5cb	-0.09073981
112	0x3cc9b352	0.02462164
113	0x3db3ccbd	0.08779285
114	0x3d87af0e	0.06625186
115	0xbd7f92a8	-0.06239572
116	0xbd2a18d3	-0.04152758
117	0x3dcc933f	0.099890225
118	0xbcabef3b	-0.020988097
119	0xbd575dfb	-0.05257986
120	0x3d918755	0.07105891
121	0xbca835ea	-0.02053352
122	0xbd7c6603	-0.061620723
123	0x3d3ed8ec	0.04659359
124	0x3d96e17d	0.07367227
125	0xbb2fb877	-0.002681283
126	0x3d238f01	0.0399313
127	0x3dbf00eb	0.09326347

actor.weight f4 [3, 128]
0	0x3e7a12b8	0.24421203
1	0xbe0fa263	-0.1402679
2	0x3e5311a6	0.20612201
3	0x3e06fbec	0.13182038
4	0x3dcaea80	0.099080086
5	0x3d8738f4	0.0660266
6	0x3df59c09	0.11992652
7	0xbc7b4463	-0.015336129
8	0x3de0fc0c	0.10985574
9	0xbd9e3102	-0.07724191
10	0x3d9528d3	0.07283177
11	0x3e2eb94f	0.17062877
12	0xbe104b2e	-0.14091179
13	0xbd92c35f	-0.0716617
14	0x3e0f70f7	0.14007936
15	0x3d878adf	0.066182844
16	0x3e1c3d42	0.15257743
17	0xbe243985	-0.16037567
18	0xbde82c85	-0.113366164
19	0xbdde5eae	-0.108579025
20	0xbd62f0b3	-0.05540533
21	0x3db697d1	0.089156754
22	0x3e85929b	0.26088414
23	0xbe0b4c53	-0.13603334
24	0xbb19a5dc	-0.0023444807
25	0x3d9ba4b3	0.07599773
26	0x3e3f302e	0.18670723
27	0x3defa7f2	0.11701955
28	0xbe9b6fc3	-0.30358705
29	0x3e4031ab	0.18768947
30	0x3e5d6e17	0.21624027
31	0x3d82529b	0.06363412
32	0xbe123513	-0.14278059
33	0x3e3a0278	0.18165004
34	0xbe7cf2b3	-0.24701957
35	0x3d247de1	0.04015911
36	0xbde223c0	-0.11041975
37	0x3e3a7463	0.1820846
38	0xbe3018f8	-0.17197025
39	0x3e8fa38d	0.28054467
40	0xbde7ccdc	-0.11318371
41	0x3de1d2f6	0.11026566
42	0xbc1d7465	-0.00961027
43	0x3e188572	0.14894655
44	0xbe00899e	-0.12552497
45	0x3e36b96c	0.1784417
46	0xbd7eb18a	-0.062181033
47	0x3dbe3dda	0.09289141
48	0x3d7be9f7	0.061502423
49	0xbbff0d23	-0.0077835484
50	0xbe5e6c72	-0.21721056
51	0xbd84e738	-0.06489414
52	0xbdd0178f	-0.101607434
53	0x3e860549	0.26175907
54	0xba9d8912	-0.0012019
55	0xbe325a69	-0.17417301
56	0x3daaf4ea	0.08347495
57	0xbe7bc179	-0.24585523
58	0xbe9441e3	-0.28956518
59	0xbd1662b1	-0.036715213
60	0x3da14c4d	0.07875881
61	0xbdbdf631	-0.09275473
62	0x3e2df217	0.16986881
63	0xbe64de50	-0.2235043
64	0x3e88a244	0.266863
65	0xbe4ccaeb	-0.19999282
66	0xbe5997cc	-0.21249312
67	0xbe4337d1	-0.19064261
68	0x3e813d0d	0.2524189
69	0xbe8a88d1	-0.27057508
70	0x3e6fda80	0.23423195
71	0xbe49a4e3	-0.19691806
72	0xbded2928	-0.115801156
73	0xbe4310ad	-0.1904933
74	0x3de46e2b	0.11153825
75	0x3e359291	0.17731692
76	0xbb8271ec	-0.0039808657
77	0x3cf951e6	0.03043456
78	0x3d809204	0.0627785
79	0x3dc167b5	0.09443609
80	0xbe1b26fa	-0.15151587
81	0xbe5e777e	-0.2172527
82	0xbe4125c7	-0.18862067
83	0x3e593785	0.21212585
84	0xbd700397	-0.058597174
85	0x3d87c266	0.066288754
86	0x3e0f8280	0.14014626
87	0xbe876151	-0.26441434
88	0xbde722b1	-0.11285914
89	0x3babcd11	0.0052429517
90	0xbd7d97e1	-0.06191242
91	0xbe75132f	-0.23933099
92	0xbbe52f56	-0.0069941683
93	0xbd41f489	-0.047352348
94	0xbe1b2c98	-0.1515373
95	0x3dd62244	0.104557544
96	0x3e808b5e	0.2510633
97	0x3b4df772	0.0031428006
98	0xbdecdcf3	-0.1156558
99	0x3d3dfd37	0.046384063
100	0x3e212b9b	0.1573929
101	0x3e2efda9	0.17088951
102	0x3e2ba6cf	0.16762851
103	0x3e222f31	0.15838315
104	0xbe8b5e9c	-0.2722062
105	0x3e87af2f	0.26500842
106	0xbd15fb93	-0.036616873
107	0x3e43482a	0.19070497
108	0x3e71f52c	0.23628682
109	0x3d008c90	0.03138405
110	0x3e4303c3	0.19044404
111	0x3da6600b	0.081237875
112	0xbd9cde47	-0.076595835
113	0xbe65678b	-0.2240278
114	0x3e5d8c34	0.21635514
115	0xbd8918cb	-0.06694182
116	0x3db1e9ee	0.08687197
117	0xbcb174ed	-0.0216622
118	0x3dd57c61	0.10424114
119	0xba25299c	-0.0006300451
120	0x3d764c15	0.06013115
121	0x3de10de0	0.109889746
122	0x3dab50a6	0.08364992
123	0xbdc00a92	-0.09377016
124	0xbd3d3d65	-0.04620113
125	0xbd9788d7	-0.07399147
126	0x3e0983fa	0.13429251
127	0x3d6d8f7f	0.057998177
128	0xbe4ca820	-0.1998601
129	0x3d8420d7	0.06451576
130	0xbe6b3f0b	-0.22973268
131	0x3d32d26f	0.043657716
132	0xbe2e5a3a	-0.17026606
133	0xbe99fed8	-0.30077243
134	0xbe26a737	-0.16274725
135	0x3e1b1906	0.15146264
136	0xbdea4c47	-0.1144033
137	0x3dd4d434	0.10392037
138	0xbe234cc5	-0.15947254
139	0xbe59080e	-0.21194479
140	0xbcc15c95	-0.023603717
141	0x3e8ed5d1	0.27897504
142	0xbe676365	-0.2259651
143	0xbe44d23a	-0.1922082
144	0xbd864f6b	-0.065581165
145	0x3e154d5f	0.14580296
146	0x3e259688	0.16170704
147	0xbc497fca	-0.012298534
148	0x3dcc5006	0.09976201
149	0xbdcc29ff	-0.099689476
150	0xbe0a3112	-0.13495281
151	0x3c0f6a7e	0.008753417
152	0x3cf55a0c	0.029950164
153	0x3da53b8d	0.08067999
154	0xbe88c3e4	-0.26711953
155	0xbde690b1	-0.112580664
156	0x3e48b18a	0.19598976
157	0xbe6d9f4e	-0.23205301
158	0xbd879154	-0.06619516
159	0xbe273985	-0.16330536
160	0x3e75ba1e	0.2399678
161	0xbe3b5570	-0.1829431
162	0x3e43b9cd	0.19113846
163	0xbc055aa8	-0.00813929
164	0x3e26b236	0.1627892
165	0xbe61b764	-0.22042614
166	0x3e166435	0.14686663
167	0xbe63fc88	-0.22264302
168	0x3e24328f	0.16034912
169	0xbd7414f6	-0.059590302
170	0xbc3dcb1f	-0.011584072
171	0xbe54b0c0	-0.2077055
172	0x3e2678b2	0.16256979
173	0xbe80c1ee	-0.25147957
174	0x3c816860	0.01579684
175	0x3dc04ba8	0.0938943
176	0xbdbd31aa	-0.09237988
177	0x3c24bb8d	0.010054481
178	0x3e8728de	0.26398367
179	0x3e148c24	0.14506584
180	0x3d736b01	0.05942822
181	0xbe1b41a5	-0.1516176
182	0x3ded572c	0.11588892
183	0x3dfdd240	0.12393618
184	0xbdb87f95	-0.09008709
185	0x3e7cf815	0.24704011
186	0x3e03365b	0.12813704
187	0x3da43164	0.08017233
188	0xbd966818	-0.07344073
189	0x3e48019d	0.19531865
190	0xbe307c26	-0.17234859
191	0x3e0e9886	0.1392537
192	0xbdbb60e0	-0.09149337
193	0x3e0a8496	0.1352714
194	0x3e37591f	0.17905091
195	0xbbedd993	-0.007258603
196	0xbdcc9a44	-0.09990361
197	0x3e62fbd2	0.22166374
198	0xbea2d684	-0.31804287
199	0x3e215be0	0.15757704
200	0xbc7f48dc	-0.015581336
201	0x3d6f9042	0.058487184
202	0xbd9c60ec	-0.07635674
203	0xbe995d9a	-0.29954225
204	0xbdb593e1	-0.08866096
205	0xbd26f4a2	-0.040760644
206	0xbe094156	-0.1340383
207	0x3b3f99b9	0.0029235913
208	0x3e403ebf	0.18773936
209	0x3e84f8c5	0.25971046
210	0x3d8ef3a3	0.06980064
211	0xbe804795	-0.25054613
212	0x3db4c623	0.08826854
213	0xbd76f704	-0.060294166
214	0xbe45dcb4	-0.19322473
215	0x3e16c022	0.1472173
216	0x3d974126	0.07385473
217	0x3d7cadc5	0.061689157
218	0x3ce4998f	0.027905254
219	0x3dfb58eb	0.12272819
220	0x3cf2c389	0.029634254
221	0x3e025ab2	0.1272991
222	0x3e04f456	0.12983832
223	0xbc0e78e5	-0.008695816
224	0xbe1c7caa	-0.1528193
225	0x3d75dcae	0.06002491
226	0x3d8e9f52	0.06963982
227	0x3c9cf0df	0.019157825
228	0xbe2981ea	-0.16553465
229	0xbe0915da	-0.13387242
230	0xbd750108	-0.059815437
231	0xbe35ef24	-0.17767006
232	0x3e7788dc	0.24173301
233	0xbe592d73	-0.21208744
234	0x3cfe8319	0.031068372
235	0x3c582b45	0.01319391
236	0xbe4d7053	-0.2006238
237	0xbddaaa54	-0.10677019
238	0xbe398063	-0.18115382
239	0x3dd8b8a9	0.10582096
240	0x3dbb1244	0.09134343
241	0x3e42716b	0.18988578
242	0xbe7d3c86	-0.24730119
243	0xbd398c76	-0.04529997
244	0xbe5a0bf1	-0.21293618
245	0xbe0f7fe4	-0.1401363
246	0xbcfa9ca6	-0.030592274
247	0xbdf45a7b	-0.1193132
248	0xbdcb29f2	-0.0992011
249	0x3d1e128b	0.038591903
250	0xbe070fbf	-0.131896
251	0xbdc45ebf	-0.09588384
252	0xbd213c9a	-0.039364435
253	0xbc5dccad	-0.013537568
254	0xbe238eb7	-0.1597241
255	0xbe1c2bc6	-0.15251073

actor.bias f4 [3]
0	0xbcf10d6f	-0.029425351
1	0xbda42b52	-0.08016075
2	0x3d329995	0.0436035

critic.weight f4 [1, 128]
0	0x3ccac8ac	0.024753891
1	0xbba3715a	-0.004987878
2	0x3cbbd4a7	0.022928549
3	0x3d280a89	0.041025672
4	0xbc6aa48e	-0.014321459
5	0xbcad8234	-0.02118025
6	0x3b990926	0.00467028
7	0xbb987a76	-0.0046532704
8	0xbc3ff7fd	-0.01171684
9	0x3d0d5345	0.03450324
10	0x3d4c6a20	0.049905896
11	0x3c8da069	0.017288404
12	0x3d8c74c6	0.0685821
13	0xbc0aace8	-0.008464076
14	0x3c286841	0.010278762
15	0xbd27dff0	-0.040985048
16	0xbc15fad7	-0.009154043
17	0x3d5526df	0.052039023
18	0x3bb4c2d1	0.005516388
19	0x3ca82ee5	0.020530174
20	0xbc3bc5c3	-0.011460724
21	0x3cd7a3ff	0.026323317
22	0x3c95f3e0	0.018304765
23	0xbc085609	-0.008321294
24	0x3cf2e426	0.029649805
25	0x3cc281a0	0.02374345
26	0x3cbe9392	0.023263726
27	0xbc7ffc5f	-0.015624135
28	0xbc860298	-0.016358659
29	0xbd380a02	-0.04493142
30	0x3c8d7eb0	0.017272323
31	0xbd266b14	-0.04062946
32	0x3caa1fb7	0.020767076
33	0x3cd5aa75	0.026082257
34	0xbc8f36c8	-0.017482176
35	0xbc27ba0c	-0.010237228
36	0xbcb3746f	-0.021906106
37	0x3a918b32	0.0011104106
38	0x3ccf5fe1	0.025314273
39	0xbd566e71	-0.05235142
40	0xbd1f77c3	-0.038932573
41	0xbd9b4fc2	-0.07583572
42	0xbbd25ab9	-0.0064195064
43	0xbc8c3041	-0.017112853
44	0xb51a4896	-5.7475097e-07
45	0xbc0674d7	-0.008206568
46	0x3d32d701	0.043662075
47	0x3d6d227f	0.057894226
48	0xbb3dd821	-0.0028967934
49	0x3bcfc4f1	0.006340616
50	0x3cc5d3b7	0.024148805
51	0x3d3015c5	0.04298951
52	0xbc939ba0	-0.018018544
53	0x3b8a0f99	0.004213285
54	0x3cb36650	0.021899372
55	0x3b02cb56	0.0019957623
56	0xbcdd55bd	-0.027018422
57	0xbc892227	-0.016739918
58	0xbc445290	-0.011982575
59	0xb9a1c7c0	-0.00030857138
60	0x3a7cb123	0.00096394325
61	0x3c91b7a0	0.017787755
62	0x3ce79c7e	0.028272863
63	0x3bec8fa9	0.007219274
64	0x3c46d5b4	0.012135912
65	0xbcd3e2dd	-0.025865013
66	0xbbc308d8	-0.005951982
67	0x3dac201b	0.08404561
68	0x3d3c1109	0.045914683
69	0xbb9abaf5	-0.004721994
70	0xbca4137b	-0.02002882
71	0xbc4d7773	-0.012540686
72	0xbb6214fb	-0.0034497369
73	0xbd20da72	-0.039270826
74	0x3d2a2f29	0.04154888
75	0xbce7519a	-0.028237153
76	0x3ca7cf67	0.02048464
77	0x3c0d916a	0.008640626
78	0xbc2b5095	-0.010456224
79	0xbd85b29a	-0.06528206
80	0x3a891bfa	0.0010460608
81	0xbc83650f	-0.0160394
82	0x3d1cd58e	0.0382896
83	0x3b877d3b	0.0041348017
84	0x3d5601a8	0.052247673
85	0x3cae6946	0.021290433
86	0x3d12eaa2	0.035868295
87	0xbcf90281	-0.030396702
88	0xbb735dad	-0.0037134693
89	0xbd2c8e48	-0.042127877
90	0xbc9d66c0	-0.019214034
91	0xbc6a700e	-0.0143089425
92	0x3c0366fc	0.008020159
93	0xbb9d40a0	-0.0047989637
94	0x3ad9c46c	0.0016614324
95	0xbd03447b	-0.03204773
96	0x3cdb8cb0	0.026800483
97	0xbc898b10	-0.016789943
98	0x3ba4a7b8	0.0050248764
99	0xbd90e2f1	-0.07074536
100	0x3c4eb2e1	0.01261589
101	0x3aa02847	0.0012219035
102	0xbbeee24e	-0.007290161
103	0xbd0aa0d2	-0.033844776
104	0xbc37f249	-0.011227199
105	0xbd107468	-0.035267264
106	0xbb9ee610	-0.004849203
107	0x3d08e436	0.033420764
108	0xbbaac1e8	-0.0052111037
109	0xbb06659a	-0.0020507337
110	0xbc7af6aa	-0.015317598
111	0x3ca0d220	0.019631445
112	0xbd42c903	-0.04755498
113	0x3cd38743	0.025821334
114	0xbce6ada4	-0.02815897
115	0xbd4445e1	-0.047918204
116	0x3c19a52c	0.009377759
117	0xbc0dae20	-0.008647472
118	0x3ca308f5	0.019901732
119	0x3cb901dc	0.022583894
120	0xbc9329a8	-0.0179642
121	0xbcfe5e3c	-0.031050794
122	0x3b9bafb8	0.004751172
123	0xbd8c4383	-0.06848814
124	0x3d951f0f	0.072813146
125	0xbc023800	-0.007947922
126	0x3b97fbda	0.0046381773
127	0xbb47b4e4	-0.003047281
