model_params/model_params_30.pth (torch, 74912 bytes, 7 tensors)

rnn.weight_ih_l0 f4 [128, 6]
0	0xbe4ce593	-0.2000945
1	0x3e83e2de	0.25759023
2	0x3d49bb9a	0.049251176
3	0xbf5219bb	-0.8207051
4	0xbd8fe137	-0.07025378
5	0x3cf1ba3b	0.029507747
6	0xbdb71967	-0.08940392
7	0x3e532600	0.20619965
8	0x3c709c20	0.014685661
9	0xbf054602	-0.5205995
10	0xbd844a39	-0.06459469
11	0x3d908812	0.07057203
12	0x3b9bb808	0.004752163
13	0xbd4a947e	-0.04945802
14	0xbda3ac0b	-0.07991799
15	0xbe36f112	-0.17865399
16	0xbe4fec5f	-0.20305012
17	0xbe290a6f	-0.16507886
18	0xbe3d0334	-0.18458253
19	0x3e539f33	0.20666198
20	0xbd140bc9	-0.03614405
21	0xbf5296a4	-0.8226111
22	0x3daddef3	0.0848979
23	0x3d36fee2	0.04467667
24	0xbdbd28f8	-0.0923633
25	0xbcb03760	-0.02151078
26	0xbbf25b20	-0.007396117
27	0xbeb59206	-0.3546297
28	0xbd38dc9b	-0.04513226
29	0xbe0127eb	-0.12612884
30	0x3e8597cc	0.26092374
31	0xbe7376bd	-0.23775764
32	0xbdab9e68	-0.08379823
33	0x3f0d575a	0.5521141
34	0x3b68fa4f	0.0035549586
35	0xbcdd5fdc	-0.027023248
36	0x3e34a5f6	0.17641434
37	0xbe76c346	-0.24097928
38	0xbc8627c8	-0.016376391
39	0x3f5195ba	0.8186909
40	0x3d5e06ca	0.054205693
41	0xbca4aa3d	-0.020100707
42	0xbda3161a	-0.079632
43	0x3dbc7c77	0.09203427
44	0xbd0fbf8f	-0.035094794
45	0xbf518177	-0.8183817
46	0xbda5e708	-0.08100706
47	0xbd97a2c8	-0.07404095
48	0x3e0fce2a	0.14043489
49	0x3d4ee31e	0.050509565
50	0xbc68adb0	-0.014201567
51	0x3e8e71f3	0.2782131
52	0x3b22dd1d	0.0024851032
53	0xbd0e2972	-0.034707494
54	0x3d587bdd	0.0528525
55	0x3c62af88	0.013835795
56	0x3b9b4e40	0.0047395527
57	0x3e101394	0.14069968
58	0xbcb7572f	-0.02238044
59	0xbe2fb845	-0.17160137
60	0xbd3346fc	-0.043768868
61	0x3c305c14	0.010764141
62	0x3d315916	0.04329785
63	0x3ed430b4	0.41443408
64	0xbd43a6ce	-0.0477665
65	0x3cbea965	0.023274133
66	0x3e34131e	0.17585418
67	0xbe281f54	-0.164182
68	0xbcad6cb8	-0.021170005
69	0x3f1c6676	0.61093843
70	0xbc934e91	-0.0179818
71	0x3c83d596	0.016093057
72	0x3e864aef	0.26229045
73	0xbe1be13e	-0.15222642
74	0xbd81bdb2	-0.0633501
75	0x3f272e10	0.6530466
76	0x3c3abe8e	0.011397971
77	0x3e41735d	0.18891664
78	0x3d503082	0.05082751
79	0x3e12160a	0.1426622
80	0x3d73818a	0.05944971
81	0x3e8068f2	0.25080067
82	0x3df567eb	0.119827114
83	0x3df9b6b0	0.12193048
84	0x3e4c8d19	0.199757
85	0xbe2c4751	-0.1682408
86	0xbdabff6c	-0.08398327
87	0x3ee2ac36	0.44272012
88	0x3d72bce8	0.059262186
89	0x3dc197db	0.09452792
90	0xbddeac6a	-0.10872729
91	0x3e4b47ba	0.1985158
92	0x3b1560e0	0.0022793338
93	0xbf28af61	-0.65892607
94	0xbd7cde13	-0.061735224
95	0xbca2246e	-0.019792762
96	0x3d087dd4	0.033323124
97	0x3de296d3	0.11063924
98	0xbc7b2fd8	-0.015331231
99	0x3f0e24c5	0.55524856
100	0x3c99f63c	0.018794172
101	0x3de86b97	0.11348646
102	0x3db61f2b	0.088926636
103	0xbdb70844	-0.089371234
104	0x3d0db874	0.034599736
105	0x3df154e0	0.11783767
106	0xbdd6f3f8	-0.10495752
107	0xbde787c5	-0.11305193
108	0xbda9364e	-0.08262311
109	0x3e173de7	0.14769708
110	0x3d76c66e	0.06024783
111	0xbf55ee8e	-0.8356713
112	0xbd8bae02	-0.06820299
113	0x3bb544bd	0.005531876
114	0xbda00067	-0.07812577
115	0x3d2faefc	0.042891487
116	0x3db1f30f	0.08688938
117	0xbf51f285	-0.8201068
118	0x3d34b054	0.044113472
119	0x3dcf03cd	0.10108147
120	0xbe05e43e	-0.13075349
121	0x3c778129	0.015106478
122	0x3d9baf9b	0.076018535
123	0xbe0aa2f5	-0.13538726
124	0x3ddb4d8e	0.10708152
125	0xbdfc8582	-0.12330152
126	0xbcc56ea7	-0.024100615
127	0x3ae1f145	0.0017238042
128	0x3dad9607	0.08475881
129	0xbf02f781	-0.5115891
130	0xbdc98a45	-0.09840826
131	0xbe23245a	-0.15931836
132	0x3dafb070	0.08578575
133	0x3d23ee03	0.040021908
134	0xbd9e90c2	-0.07742454
135	0xbf22be00	-0.63571167
136	0xbd86c57f	-0.06580638
137	0x3de44ae1	0.111470945
138	0x3d916c53	0.07100739
139	0xbd7e987b	-0.062157135
140	0xbd537807	-0.05162814
141	0x3e46e8e3	0.19424777
142	0xbcf16638	-0.029467687
143	0xbde61f47	-0.112364344
144	0xbe65b4c4	-0.22432238
145	0x3e4dc218	0.20093572
146	0x3db13ae5	0.08653811
147	0xbf031b05	-0.51213104
148	0xbcc7764c	-0.0243484
149	0x3d10b43d	0.03532814
150	0x3dce5dca	0.100764826
151	0xbdbf06e5	-0.09327487
152	0x3cc2c1c0	0.023774028
153	0x3f32d206	0.6985172
154	0xbcfd1ac5	-0.030896554
155	0x3de8a88b	0.11360272
156	0x3df33d43	0.11876919
157	0xbdc1d641	-0.09464694
158	0xbda558da	-0.08073588
159	0x3f1a6203	0.60305804
160	0xbde3bfa8	-0.1112054
161	0xbe0ac8a1	-0.13553096
162	0xbdf5071b	-0.11964246
163	0xbdbdf440	-0.092751026
164	0xbd9fed3d	-0.078089215
165	0xbeb766db	-0.3582066
166	0xbe17e51d	-0.14833494
167	0xbcb17464	-0.021661945
168	0x3d93a728	0.07209617
169	0x3d892881	0.06697179
170	0xbcfa2960	-0.030537307
171	0x3cd6ba82	0.02621198
172	0x3dff9be4	0.12480906
173	0x3e0c154d	0.1368
174	0x3de7ff53	0.11327996
175	0xbdb475fe	-0.08811568
176	0xbdae5933	-0.08513107
177	0x3f4f21d0	0.8091097
178	0x3d8cdf6b	0.06878551
179	0xbcec87ed	-0.028873408
180	0xbe8b8ded	-0.27256718
181	0x3e64ce7c	0.22344393
182	0xbd44d892	-0.0480581
183	0xbf223986	-0.63369024
184	0xbcb42725	-0.021991322
185	0xbd55f19b	-0.052232366
186	0xbe34feba	-0.17675295
187	0x3decdb69	0.11565287
188	0x3d1ade52	0.037809677
189	0xbf411079	-0.7541576
190	0xbaaaa240	-0.0013018325
191	0xbe1ed597	-0.15511166
192	0xbe1b9159	-0.15192164
193	0xbb392311	-0.002824966
194	0xbd1ad4a6	-0.037800454
195	0xbf09304e	-0.5358933
196	0x3cdbb92d	0.026821697
197	0xbd485916	-0.048913084
198	0xbc74105d	-0.014896479
199	0x3e9456f1	0.2897258
200	0xbcbaaf34	-0.022788621
201	0xbe9f535d	-0.3111829
202	0x3da8a262	0.08234097
203	0x3e25710b	0.16156404
204	0xbe34aca0	-0.17643976
205	0x3de342fe	0.11096762
206	0xbd7dfeb0	-0.062010467
207	0xbf0fdccc	-0.56196284
208	0x3cbddaca	0.023175616
209	0xbce33cef	-0.027739016
210	0xbd9340c8	-0.071900904
211	0x3d2480d6	0.04016193
212	0x3d881145	0.06643919
213	0xbe317c95	-0.1733268
214	0x3cc1401a	0.023590136
215	0xbddcf222	-0.10788371
216	0x3db607af	0.08888184
217	0xbe582de7	-0.2111126
218	0xbcc55914	-0.024090327
219	0x3ea87606	0.32902545
220	0xbd26bdfc	-0.040708527
221	0xbe0fb1eb	-0.14032714
222	0x3e582c90	0.21110749
223	0xbdec9cfd	-0.11553381
224	0x3d0f889e	0.035042398
225	0x3f0fcd02	0.5617219
226	0x3d226772	0.039649434
227	0x3e1ed32b	0.15510242
228	0x3dda93dc	0.10672733
229	0x3e2af494	0.16694862
230	0x3d7d6f1e	0.061873548
231	0x3e0a49dd	0.13504739
232	0x3d609fe6	0.05483999
233	0x3cb198b0	0.021679252
234	0x3d292e09	0.04130367
235	0x3e07b18b	0.13251321
236	0xbd5616e2	-0.052267917
237	0xbec89f55	-0.3918406
238	0xbd187ab1	-0.037226383
239	0x3d9015b8	0.070353925
240	0x3e5d7942	0.21628287
241	0xbe1f3a2e	-0.15549538
242	0xbcca8204	-0.0247202
243	0x3f4e6fa7	0.8063912
244	0xba8f9737	-0.00109551
245	0x3c99b8f8	0.018764958
246	0x3e1240b0	0.14282489
247	0xbe14043c	-0.1445474
248	0xbb2752c0	-0.00255315
249	0x3efda949	0.49543217
250	0xbc8d43fc	-0.017244332
251	0xbd69e71a	-0.05710516
252	0x3d3a8e42	0.045545824
253	0xbe1bfaf9	-0.15232457
254	0x3d9008bd	0.07032917
255	0x3f1f38d2	0.62196076

rnn.weight_hh_l0 f4 [128, 128]
0	0x3dd95783	0.10612395
1	0xbccfa04e	-0.025344994
2	0x3d9f6562	0.07783009
3	0x3dfacbc0	0.122458935
4	0x3d7f5045	0.06233241
5	0xbdd5bb70	-0.104361415
6	0xbe17ae63	-0.14812617
7	0x3d0be98f	0.034158286
8	0x3cb187dd	0.02167123
9	0x3c79b562	0.015240999
10	0x3d9bfe86	0.07616906
11	0xbe022178	-0.1270808
12	0xbcff6c18	-0.031179473
13	0x3d8fef88	0.07028109
14	0xbd31c349	-0.04339913
15	0x3a22cbcb	0.0006210177
16	0x3d35ae2d	0.04435556
17	0x3d9e3374	0.07724658
18	0x3dd3be06	0.103389785
19	0x3d57589b	0.052574735
20	0x3ce3cf03	0.027808672
21	0xbc36d67e	-0.011159537
22	0xbcff7df8	-0.031187996
23	0xbdd03714	-0.10166755
24	0xbdb158fb	-0.0865955
25	0xbd8bd139	-0.068270154
26	0x3dca9727	0.09892111
27	0x3d805467	0.062660985
28	0x3d1a096a	0.037606634
29	0x3a9734e0	0.0011536144
30	0xbb204050	-0.0024452396
31	0xbd809a8c	-0.062794775
32	0x3d7c5464	0.06160392
33	0xbd5c79b8	-0.053827018
34	0xbcb7f43a	-0.022455323
35	0x3d250743	0.04029013
36	0xbe18e751	-0.1493199
37	0x3dcd2469	0.1001671
38	0x3d88cc03	0.06679537
39	0xbcd5b340	-0.02608645
40	0xbca4f05b	-0.020134142
41	0x3c41e2ba	0.011833841
42	0xbd4c081c	-0.04981242
43	0x3cf3d153	0.0297629
44	0xbd0f24e7	-0.034947302
45	0xbd8e766e	-0.069561824
46	0xbd1ca6d0	-0.038245022
47	0xbda93a91	-0.08263124
48	0x3c9e48f8	0.019321904
49	0x3dcbc645	0.09949926
50	0xbcecdc59	-0.028913664
51	0x3c6f10fd	0.014591453
52	0x3d32673a	0.043555476
53	0xbca2f445	-0.019891867
54	0xbd6a09bb	-0.057138186
55	0xbd8db87c	-0.06919953
56	0x3d4d85c8	0.050176412
57	0x3e0bd9f1	0.13657357
58	0x3d9afadb	0.07567378
59	0xbc7a319b	-0.015270616
60	0xbcfdd77d	-0.030986542
61	0x3d503431	0.050831024
62	0x3c944ee4	0.018104024
63	0xbd39ec0b	-0.045391124
64	0x3d8779a3	0.06614997
65	0xbd65168a	-0.055929698
66	0xbd1da2ad	-0.038485218
67	0x3e0f8322	0.14014867
68	0xbd390db2	-0.045179076
69	0xbcaf3456	-0.02138726
70	0x3d15c595	0.036565382
71	0xbc0b002d	-0.008483929
72	0x3c9180dd	0.017761642
73	0xbdbcc599	-0.09217376
74	0xbd278a6e	-0.0409035
75	0xbda3b521	-0.07993532
76	0x3c32c5f6	0.010911455
77	0x3dbf9c34	0.09355965
78	0x3dc9c01a	0.098510936
79	0xbd116091	-0.035492484
80	0xbc0e4491	-0.00868334
81	0x3a0293f6	0.00049811543
82	0xbd859f58	-0.06524533
83	0xbdf45335	-0.11929933
84	0xbdc6f21d	-0.09714148
85	0xbccec0b4	-0.025238372
86	0xbcac7345	-0.021051059
87	0x3a932579	0.0011226378
88	0xbd1a6ddf	-0.037702437
89	0xbdc82569	-0.097727604
90	0x3d0e0895	0.034676153
91	0xbc94e8c9	-0.018177407
92	0x3d1a146a	0.037617125
93	0x3d2e5a9f	0.04256689
94	0xbdada44b	-0.08478602
95	0x3bb9c209	0.0056688827
96	0xbd59d1c0	-0.05317855
97	0xbd849d91	-0.06475366
98	0xbe0b49ba	-0.13602343
99	0xbcd5f679	-0.026118504
100	0xbd8962e4	-0.06708315
101	0xbd862211	-0.065494664
102	0xbcb1a078	-0.021682963
103	0xbd8371ae	-0.06418167
104	0xbdbde585	-0.09272293
105	0xbbfbe0de	-0.0076867184
106	0xbd8f1259	-0.069859214
107	0xbb6f225a	-0.003648898
108	0xbca54d73	-0.020178532
109	0x3d9edbe5	0.07756785
110	0x3cb232e5	0.021752784
111	0xbd04e1b6	-0.032441817
112	0xbe04a46b	-0.12953345
113	0x3ce0d490	0.027445108
114	0xbd45e961	-0.04831827
115	0xbcb8831e	-0.022523459
116	0xbdd6c8a9	-0.10487492
117	0x3d76f1d0	0.060289204
118	0xbd2fddbe	-0.04293608
119	0xbcf31f39	-0.029677974
120	0xbdc2b7ed	-0.09507737
121	0xbc69b2fb	-0.014263864
122	0x3d3bd660	0.04585874
123	0x3d10845d	0.03528248
124	0xbd5788a1	-0.052620534
125	0xba93913b	-0.0011258492
126	0xbcb9fa35	-0.022702316
127	0xbdaba079	-0.08380217
128	0x3d50c69d	0.050970662
129	0xbd328e85	-0.04359295
130	0xbd150d78	-0.036389798
131	0xbbe07acb	-0.0068505756
132	0xbd518965	-0.05115642
133	0xbc59d850	-0.013296202
134	0x3cb233d4	0.02175323
135	0x3d4dd59c	0.050252542
136	0xbce25c01	-0.027631762
137	0x3c3ffe24	0.011718307
138	0x3db428a5	0.08796815
139	0x3cd20ee6	0.02564187
140	0x39977f3c	0.0002889576
141	0xbda947fc	-0.08265683
142	0xbd3ddac7	-0.04635122
143	0xbd3d1d85	-0.04617073
144	0xbc97fbab	-0.018552622
145	0x3d062c08	0.032756835
146	0xb9d497fb	-0.00040549025
147	0x3bc1fc8c	0.0059199985
148	0x3b1f1b17	0.0024277621
149	0xbd8defe3	-0.069305204
150	0x3d51c176	0.05120989
151	0x3dc154bd	0.09439991
152	0x3a1eafe3	0.0006053431
153	0x3dd3e71f	0.10346817
154	0xbc130f78	-0.008975856
155	0xbd59a779	-0.05313823
156	0xbd7fe354	-0.062472656
157	0x3ce861f1	0.028367015
158	0xbdb27de1	-0.08715416
159	0xbd8d2d70	-0.06893432
160	0xbc8ed544	-0.017435677
161	0x3b8819d0	0.0041534677
162	0xbd7875e0	-0.06065929
163	0xbded3931	-0.11583174
164	0x3d9ab8d6	0.07554786
165	0xbd057046	-0.032577775
166	0x3d21ab71	0.03947014
167	0x3da132d4	0.07871023
168	0xbc066832	-0.008203553
169	0xbd8d5901	-0.06901742
170	0x3dc8259e	0.097728
171	0x3d40d049	0.047073636
172	0xbbdaf8bf	-0.006682485
173	0xbc86b417	-0.016443295
174	0xbd248e54	-0.040174797
175	0xbc5a7fcf	-0.013336136
176	0x3b98b821	0.0046606218
177	0x3d62d930	0.055382907
178	0xbdfa1ea7	-0.12212878
179	0x3d842a77	0.06453412
180	0xbe108944	-0.14114863
181	0x3d2612b5	0.040545184
182	0xbd294e64	-0.041334525
183	0x3bdd011e	0.006744518
184	0x3d62a740	0.055335283
185	0x3d1890ed	0.037247587
186	0xbd2284c6	-0.039677404
187	0x3d1ff169	0.039048586
188	0x3d05f081	0.032700066
189	0x3d574d87	0.05256417
190	0x3dce7a84	0.10081962
191	0x3c91966d	0.017771924
192	0x3da7da82	0.08195974
193	0xbd4fd3f5	-0.050739247
194	0x3de122ef	0.10992991
195	0x3d20ec36	0.03928777
196	0x3d577348	0.052600175
197	0x3d0dedfa	0.03465078
198	0xbc8c530b	-0.017129442
199	0xbabf65df	-0.0014602504
200	0x3d849dac	0.06475386
201	0x3dbd8cbc	0.092553586
202	0x3e23cb77	0.15995584
203	0x3cafa144	0.021439202
204	0x3db60c3f	0.088890545
205	0x3c723667	0.014783478
206	0x3d20b990	0.039239466
207	0xbdbf8327	-0.09351187
208	0x3daab483	0.08335211
209	0xbd0f7eda	-0.035033084
210	0xbdd13c2e	-0.102165565
211	0xbd4514de	-0.048115604
212	0x3c6b029e	0.014343886
213	0x3cd261e8	0.025681451
214	0x3cd5ec78	0.026113734
215	0x3d1d8be4	0.03846349
216	0x3d6e3d72	0.058164068
217	0xbca2fedf	-0.019896923
218	0xbdf396fa	-0.11894031
219	0xbdc13727	-0.094343476
220	0xbd4c650f	-0.049901064
221	0xbc8ec48c	-0.017427705
222	0x3df7c6f0	0.12098491
223	0xbdb43964	-0.08800009
224	0x3d123456	0.035694443
225	0xbd81a7d0	-0.06330836
226	0xbb97ceb5	-0.0046327957
227	0x3bd86f64	0.0066050757
228	0xbbfad27d	-0.0076544867
229	0xbd62c60e	-0.05536466
230	0xbb793fb7	-0.0038032362
231	0x3d21ef0d	0.039534617
232	0x3d88f513	0.06687369
233	0xbdc9dc5e	-0.09856485
234	0xbd1ba229	-0.037996445
235	0x3c889131	0.016670795
236	0xbddcc971	-0.107806094
237	0x3d91e208	0.0712319
238	0x3dcc6cd3	0.09981694
239	0xbb82d56f	-0.0039927284
240	0x3d954c00	0.072898865
241	0x3d7e8f7a	0.06214855
242	0xbbbe636b	-0.0058101914
243	0x3db9ec13	0.09078231
244	0xbd70a8ed	-0.05875485
245	0x3df2e734	0.11860505
246	0x3e0921cf	0.13391803
247	0x3cd068a8	0.025440529
248	0xbd669d99	-0.05630264
249	0xbd48dd25	-0.049039025
250	0xbcbc1e01	-0.022963526
251	0x3e088447	0.1333171
252	0x3d57410c	0.052552268
253	0x3d9fa642	0.07795383
254	0x3d74b00a	0.059738196
255	0xbd964daf	-0.07339036

rnn.bias_ih_l0 f4 [128]
0	0x3d494a33	0.049143028
1	0x3dc20fae	0.09475647
2	0xbe34d060	-0.17657614
3	0x3d736dfa	0.059431054
4	0xbd229111	-0.039689127
5	0xbbe08dfa	-0.0068528624
6	0x3c6377af	0.013883515
7	0xbdb99592	-0.090617314
8	0x3dc99737	0.09843295
9	0xbdffa6d8	-0.12482995
10	0xbe365835	-0.17807086
11	0xbcbc0ea7	-0.022956206
12	0x3d1f5423	0.0388986
13	0x3e2c2b12	0.16813305
14	0x3db4d3d4	0.088294655
15	0xbdc22bd8	-0.09481019
16	0x3e058cc5	0.1304198
17	0xbb0a6007	-0.0021114366
18	0x3d1ea6bc	0.03873323
19	0xbc850173	-0.016236043
20	0xbdb27092	-0.08712877
21	0xbdce428b	-0.10071286
22	0xbd93e539	-0.07221455
23	0xbe445a0c	-0.19174975
24	0xbccbc015	-0.024871865
25	0x3de1117a	0.109896615
26	0xbdb55a8a	-0.088551596
27	0xbe567055	-0.20941289
28	0x3def66ce	0.1168953
29	0x3d8ad3f1	0.06778706
30	0x3d0a2d7e	0.03373479
31	0xbdd77f9f	-0.10522389
32	0x3d3ef9d7	0.046624985
33	0x3e57eee3	0.21087222
34	0x3d8fa439	0.07013745
35	0xbbd7f42e	-0.006590388
36	0xbe2165e4	-0.15761524
37	0xba989295	-0.0011640365
38	0x3e5a28ab	0.21304576
39	0xbd1182c6	-0.035525106
40	0x3d81e97a	0.0634336
41	0xbe08247a	-0.13295165
42	0xbbb699ca	-0.0055725323
43	0xbe15a23d	-0.1461267
44	0x3d813825	0.06309537
45	0xbe06216f	-0.13098691
46	0xbda9a04a	-0.08282526
47	0x3e100c89	0.14067282
48	0x3bcc24dc	0.00622998
49	0xbc81be44	-0.015837796
50	0x3d3581d0	0.044313252
51	0x3e38810c	0.18017977
52	0x3c334b8e	0.010943307
53	0xbda5da54	-0.080982834
54	0x3dcc8176	0.0998563
55	0xbd549338	-0.05189821
56	0xbde9b222	-0.11410929
57	0xbdfd3217	-0.123630695
58	0x3dbe847f	0.093026154
59	0xbdab1e0d	-0.08355341
60	0x3da6aaee	0.08138071
61	0xbd21ff63	-0.039550196
62	0x3e2c2479	0.16810788
63	0xbe0cc814	-0.13748199
64	0xbcc206f3	-0.023684954
65	0x3d8e755b	0.069559775
66	0xbd84c9a6	-0.06483774
67	0x3d92e8cf	0.07173311
68	0x3e1db92e	0.15402672
69	0x3c48fe05	0.012267594
70	0x3e56ce28	0.2097708
71	0x3e0b49ac	0.13602322
72	0x3dafcbb8	0.08583778
73	0x3db160e2	0.08661057
74	0x3d09e0ee	0.033661775
75	0x3d8ec5df	0.06971335
76	0x3c2ba03f	0.010475217
77	0xbe0a30b9	-0.13495149
78	0xbdc34f41	-0.09536601
79	0xbca267cd	-0.019824887
80	0xbe217d82	-0.15770534
81	0x3dea4d67	0.114405446
82	0x3e0c4efc	0.13702005
83	0x3cb8d002	0.022560123
84	0x3b92ce09	0.0044801277
85	0x3e2bd8ea	0.16781965
86	0x3e48caad	0.19608565
87	0xbddc348a	-0.107522085
88	0xbdc66a44	-0.09688237
89	0x3d3e1aba	0.046412207
90	0x3d14f529	0.036366615
91	0x3e03e28a	0.12879387
92	0xbe458dd8	-0.1929239
93	0xbd8417d9	-0.06449861
94	0x3d87c226	0.06628828
95	0x3e219ee4	0.15783268
96	0xbdf4427a	-0.11926742
97	0xbcee13d6	-0.029062193
98	0xb9bdb8c1	-0.00036186542
99	0x3dae7393	0.08518138
100	0x3e23ae65	0.15984495
101	0xbdac23ec	-0.08405289
102	0x3c80e3ee	0.015733685
103	0x3cd8b576	0.026453715
104	0xbd355321	-0.04426873
105	0x3d5650ef	0.052323278
106	0xbdf16da1	-0.11788488
107	0xbd76fff6	-0.060302697
108	0x3e0fb2c1	0.14033033
109	0xbe00a907	-0.12564479
110	0x3ddf2166	0.10895042
111	0x3caa9d92	0.020827089
112	0xbc038ed0	-0.008029655
113	0xbe1591e7	-0.14606439
114	0x3e07acb8	0.1324948
115	0xbcd45f27	-0.025924278
116	0x3ddb9806	0.107223555
117	0xbe437845	-0.19088848
118	0xbb86e9e5	-0.004117238
119	0xbe24b70e	-0.16085455
120	0x3c316f4c	0.010829758
121	0x3c1a2c1e	0.009409932
122	0xbe23d1d6	-0.15998015
123	0xbd1e9d7a	-0.0387244
124	0x3c7764f0	0.015099749
125	0xbd8bcbd1	-0.06825984
126	0x3cfcf998	0.030880734
127	0xbe0c7166	-0.13715133

rnn.bias_hh_l0 f4 [128]
0	0xbd0c768c	-0.034292743
1	0xbcd37208	-0.02581121
2	0xbdd85df5	-0.10564796
3	0xbd6fab42	-0.058512934
4	0xbdbca54a	-0.09211214
5	0xbdb79c3e	-0.08965348
6	0xbdcda046	-0.10040335
7	0xbdb336d6	-0.087506935
8	0x3c4f6dd5	0.012660463
9	0xbe26e8bf	-0.16299723
10	0xbe35b8d7	-0.17746292
11	0xbd144af5	-0.036204297
12	0x3d3832fb	0.044970494
13	0x3e553f8e	0.20825025
14	0x3da2a80e	0.0794221
15	0x3c6e39b4	0.014540125
16	0x3d2e6c1c	0.04258357
17	0xbe19b332	-0.15009764
18	0x3d780862	0.06055487
19	0x3d80d077	0.062897615
20	0x3d895d2c	0.06707224
21	0xbe1f05c0	-0.15529537
22	0xbd34ae50	-0.04411155
23	0xbdad3f6a	-0.08459361
24	0xbd8ab11e	-0.06772064
25	0x3c2bcb8c	0.010485541
26	0xbde4d44a	-0.111733034
27	0xbe3b5d17	-0.1829723
28	0x3e071d0e	0.13194677
29	0x3d561a1f	0.052271005
30	0xbd03dd0a	-0.03219322
31	0xbdedb717	-0.11607187
32	0x3dab3ad7	0.08360832
33	0x3e6c317d	0.23065753
34	0x3daae77b	0.08344933
35	0xbcb41513	-0.021982705
36	0xbd899d48	-0.06719452
37	0xbce2d70b	-0.027690431
38	0x3e14ec85	0.1454335
39	0xbbf9cad4	-0.007623056
40	0x3e1a49d8	0.15067232
41	0xbe04ac73	-0.12956409
42	0xbe22e522	-0.1590772
43	0xbe481aed	-0.19541521
44	0x3de6c54b	0.112680994
45	0xbdd566fe	-0.10420035
46	0xbdd78ca8	-0.10524875
47	0x3dc40488	0.09571177
48	0xbcf68100	-0.030090809
49	0xbd68b21f	-0.056810495
50	0x3d5210fa	0.05128572
51	0x3d06d6df	0.03291976
52	0xbd131401	-0.03590775
53	0xbd805100	-0.062654495
54	0x3cdd1cd0	0.026991278
55	0xbdac10f0	-0.08401668
56	0xbb8dc3f4	-0.004326338
57	0xbe031f99	-0.12805022
58	0x3e0ba5d6	0.1363748
59	0xbddb6ba3	-0.107138894
60	0x3d2f562f	0.0428068
61	0xbd2561b9	-0.0403764
62	0x3caf44d0	0.021395117
63	0xbd229556	-0.0396932
64	0xbe041b2d	-0.12900992
65	0x3dbc5ffb	0.09197994
66	0xbd111259	-0.03541789
67	0xbcaa1572	-0.020762179
68	0x3de9253a	0.113840535
69	0x3da6dd86	0.08147721
70	0x3e0a58c6	0.13510427
71	0x3e19cdd0	0.15019917
72	0xbcdfd8b6	-0.027325016
73	0x3db0af6a	0.086272076
74	0x3dd343a1	0.103156336
75	0xbbb2ed84	-0.005460443
76	0x3d81f38b	0.0634528
77	0xbd78a00c	-0.060699508
78	0xbdaf8d1b	-0.085718356
79	0x3db23d1e	0.087030634
80	0xbdbf5530	-0.0934242
81	0x3d3c8dd0	0.04603368
82	0x3dd511b2	0.10403766
83	0x3da0ca46	0.078510806
84	0xbd8bdebd	-0.06829593
85	0x3d6441be	0.05572676
86	0x3e49ee01	0.19719698
87	0xbe24fdfd	-0.16112514
88	0xbdde0920	-0.10841584
89	0x3dec2da5	0.115321435
90	0xbcbb57a9	-0.022868948
91	0x3deea840	0.11653185
92	0xbe006df4	-0.12541944
93	0xbd721ff5	-0.059112508
94	0xbbbf5e3d	-0.0058400915
95	0x3d155fb5	0.036468226
96	0xbba5a21b	-0.005054725
97	0xbe0fcbbe	-0.14042565
98	0x3d79cdb9	0.060987208
99	0x3e2924b9	0.16517915
100	0x3d37d381	0.04487944
101	0xbdabc168	-0.08386499
102	0xbc6297b3	-0.013830113
103	0x3d7f3e90	0.062315524
104	0x3c2f6e88	0.010707505
105	0x3d886816	0.06660478
106	0xbddf7563	-0.109110616
107	0x3db56166	0.08856468
108	0x3cb279da	0.021786619
109	0xbdf45d4f	-0.1193186
110	0xbcbd7512	-0.023127113
111	0x3d4b6f65	0.04966678
112	0xbdf7b4b1	-0.12095011
113	0xbd8ab555	-0.067728676
114	0x3e4f3018	0.2023319
115	0xbd1e93ae	-0.038715057
116	0x3b87d3c1	0.004145116
117	0xbdf59e7b	-0.119931184
118	0x3de15605	0.11002735
119	0xbd19b363	-0.037524592
120	0x3daf17b8	0.08549446
121	0xbcb9323d	-0.022606963
122	0xbd4c59cc	-0.049890324
123	0x3cb2c6cf	0.021823315
124	0xbd7f24ba	-0.062290885
125	0xbde78a55	-0.113056816
126	0xbd9e2b61	-0.077231176
127	0xbe51b4ee	-0.20479175

actor.weight f4 [3, 128]
0	0x3ea78266	0.32716674
1	0x3e428e6d	0.18999644
2	0x3c2bc7ae	0.010484619
3	0x3e8ba60c	0.2727512
4	0x3dc947bc	0.09828135
5	0xbe9120e1	-0.28345397
6	0xbe8e7544	-0.27823842
7	0x3e6f4d66	0.23369369
8	0xbdbaa5a0	-0.09113622
9	0x3d75e69c	0.06003438
10	0xbd6259ee	-0.055261545
11	0xbe932bc6	-0.28744334
12	0xbe958395	-0.29201952
13	0xbddf880b	-0.1091462
14	0xbeb0695f	-0.34455392
15	0x3e8edfbf	0.2790508
16	0xbdbbcfe6	-0.09170513
17	0xbd496818	-0.049171537
18	0x3e9f005b	0.3105496
19	0x3e14edbc	0.14543813
20	0x3e2b6603	0.16738133
21	0x3e921fb4	0.28539813
22	0x3c85793e	0.016293164
23	0xbd023221	-0.031786088
24	0x3e9620e7	0.29321977
25	0xbdd17c8c	-0.102288336
26	0xbdee1159	-0.116244026
27	0x3d2b86b8	0.041876525
28	0xbde737b1	-0.11289919
29	0xbe5698fa	-0.20956793
30	0x3edcb6a1	0.43108085
31	0x3ea8edfa	0.32994062
32	0x3d874d6e	0.066065654
33	0x3ca23a59	0.019803213
34	0x3e4b52a1	0.19855739
35	0x3da0fa5c	0.07860252
36	0xbd85b470	-0.06528556
37	0xbe673ade	-0.2258105
38	0xbda6e796	-0.0814964
39	0x3dc6dab3	0.09709682
40	0xbea0c67a	-0.31401426
41	0xbe799d94	-0.24376518
42	0xbe102fa0	-0.14080667
43	0x3d61a548	0.055089265
44	0xbe1777db	-0.14791815
45	0x3e96c337	0.29445812
46	0x3ef32ef5	0.47496763
47	0xbeb998c0	-0.36249352
48	0x3f066081	0.52491003
49	0x3df0c756	0.1175677
50	0x3e7830a9	0.24237312
51	0xbee97b4a	-0.45601875
52	0x3e9c5759	0.3053539
53	0x3ea1adf5	0.3157803
54	0xbe5d723e	-0.21625611
55	0xbeb954a8	-0.361974
56	0x3e38d375	0.18049414
57	0x3e15aca6	0.14616641
58	0xbedb1bff	-0.42794797
59	0x3e56ed25	0.20988901
60	0xbd41b570	-0.047292173
61	0x3ec1ee1d	0.3787698
62	0xbef130cf	-0.4710755
63	0x3d7e7480	0.06212282
64	0x3d23a321	0.039950494
65	0x3dc108c9	0.09425504
66	0xbe9b8c59	-0.30380514
67	0x3e5670ff	0.20941542
68	0xbdce96bf	-0.10087346
69	0xbf027dca	-0.5097319
70	0xbd0ad922	-0.03389848
71	0xbd211e87	-0.039335754
72	0x3e2523cc	0.16126937
73	0xbe7f31e4	-0.24921376
74	0xbeed785c	-0.4638089
75	0x3d077a44	0.033075586
76	0xbe8662f7	-0.2624738
77	0x3e07365e	0.13204333
78	0x3f0a1d80	0.53951263
79	0xbd4b1112	-0.049576826
80	0x3b9f0b57	0.0048536467
81	0xbeab9254	-0.33510077
82	0xbc8c7a3d	-0.017148132
83	0xbef0b4da	-0.4701298
84	0xbe81c7ee	-0.25347847
85	0xbebdf07e	-0.37097543
86	0xbed3dcef	-0.41379496
87	0xbe210018	-0.15722692
88	0x3db6d7ef	0.08927905
89	0xbdb1116b	-0.086459
90	0x3ea17169	0.31531838
91	0xbdfd60ab	-0.123719536
92	0x3e37a026	0.17932186
93	0x3e079fa4	0.13244492
94	0xbf1664c9	-0.58747536
95	0x3a6cc399	0.0009031832
96	0x3e36fdfd	0.17870326
97	0x3ec54ac9	0.3853362
98	0xbe76f9dd	-0.24118753
99	0x3e0d9569	0.13826527
100	0xbdf51812	-0.11967482
101	0x3e19b302	0.15009692
102	0xbcbbabed	-0.022909129
103	0x3e39b136	0.18134007
104	0xbcf14dae	-0.029455986
105	0xbce75a9d	-0.02824145
106	0xbe58c68e	-0.21169493
107	0x3ed88c5b	0.42294583
108	0x3e253ee2	0.16137269
109	0x3e8ff29b	0.2811478
110	0xbeac5f75	-0.33666578
111	0xbe78be41	-0.24291326
112	0xbea57cc2	-0.32321745
113	0x3dfbd049	0.122955866
114	0xbb7ad05a	-0.003827116
115	0xbee61cc8	-0.44943833
116	0xbca01ca2	-0.019544903
117	0x3d5349a0	0.051583886
118	0xbf0685f2	-0.52548134
119	0x3abe2d5d	0.0014509369
120	0x3e9a59aa	0.30146533
121	0xbee23f3a	-0.44188863
122	0xbcc07820	-0.02349478
123	0xbeb54363	-0.35402974
124	0xbed61872	-0.41815525
125	0x3d959fe5	0.07305888
126	0xbe69f620	-0.22847795
127	0x3dd52e6f	0.10409247
128	0xbec80209	-0.39064053
129	0xbe4d625c	-0.20057052
130	0x3cbb2cb7	0.02284847
131	0xbefedb04	-0.4977647
132	0xbdd8a69b	-0.105786525
133	0x3efa0dc6	0.48838633
134	0x3eb6d29d	0.3570756
135	0xbe551ba3	-0.20811324
136	0x3bf9b4ac	0.0076204147
137	0x3d3b2bf0	0.0456962
138	0xbd981d17	-0.074274234
139	0x3ea3ca9a	0.3199051
140	0x3e076adf	0.13224362
141	0xbd634183	-0.0554824
142	0x3e527db3	0.20555763
143	0xbe7ebe01	-0.24877168
144	0x3ca0802d	0.019592369
145	0x3dffd3c4	0.12491563
146	0xbebdae7b	-0.3704718
147	0xbdb0e418	-0.086372554
148	0x3d13ea43	0.03611208
149	0xbe28ca97	-0.16483532
150	0xbe0713cc	-0.13191146
151	0x3e0be662	0.13662103
152	0xbe64a818	-0.22329748
153	0x3e19bfb8	0.15014541
154	0x3ea5c3a8	0.32375836
155	0xbd421f45	-0.047393102
156	0xbd114655	-0.035467464
157	0x3e99949c	0.29996192
158	0xbea7efe3	-0.32800207
159	0xbe3a8006	-0.182129
160	0xbe2fd1b8	-0.17169845
161	0xbcdd4fab	-0.027015528
162	0xbe501b8e	-0.20323011
163	0x3cb030e8	0.021507695
164	0x3e4ae52b	0.19813983
165	0x3e06ec03	0.13175969
166	0xbdb0e050	-0.08636534
167	0xbe094ca6	-0.13408145
168	0x3e85503a	0.2603777
169	0x3e6ec892	0.23318699
170	0x3e9bc0ab	0.30420431
171	0x3cc8a5c7	0.024493111
172	0x3e4ab1ac	0.19794339
173	0xbe699e23	-0.2281423
174	0xbeb8cb00	-0.36092377
175	0x3e35189d	0.1768517
176	0xbee3c273	-0.4448429
177	0xbe41b332	-0.18916014
178	0xbeb2af9b	-0.348996
179	0x3e6c9358	0.23103082
180	0xbf220aca	-0.6329771
181	0xbe473b77	-0.19456278
182	0x3e06420d	0.13111134
183	0x3ec64824	0.38726914
184	0xbe48f7ea	-0.19625822
185	0xbd7d98fe	-0.061913483
186	0x3ea8bfdf	0.32958886
187	0xbe0e49d3	-0.13895349
188	0xbafc6609	-0.0019256483
189	0xbe5e8b6f	-0.21732877
190	0x3edb89b6	0.42878503
191	0xbdb711eb	-0.089389645
192	0x3dc6eb74	0.09712878
193	0xbde8ba54	-0.11363664
194	0x3f035394	0.51299405
195	0xbed364c0	-0.41287804
196	0x3dafdc85	0.08586983
197	0x3ea93482	0.33047873
198	0x3d1a522f	0.037676033
199	0xbd0d2cad	-0.034466434
200	0xbe1c662a	-0.15273347
201	0x3e973bb4	0.29537737
202	0x3e9ef79e	0.31048292
203	0xbd2b95b6	-0.041890822
204	0x3e71a400	0.23597717
205	0xbe32faf8	-0.1747855
206	0xbf1fa74d	-0.62364656
207	0x3d4c0be9	0.049816046
208	0x3dd96baa	0.106162384
209	0x3eb0d666	0.34538573
210	0xbe2c8085	-0.16845901
211	0x3eee388a	0.4652751
212	0x3ea72210	0.32643175
213	0x3e882cf7	0.26596805
214	0x3da0fb00	0.078603745
215	0x3ec4797c	0.38373935
216	0xbd825c35	-0.06365243
217	0xba79effc	-0.00095343566
218	0xbf04f1fe	-0.5193175
219	0x3d9a1c94	0.07524982
220	0x3dc4729b	0.09592172
221	0xbe1c0c09	-0.15238966
222	0x3ee52dab	0.44761404
223	0xbdc5a69a	-0.09650917
224	0xbe5f5edc	-0.2181353
225	0xbe6f0425	-0.23341425
226	0x3ea0067c	0.31254947
227	0xbe3e512e	-0.18585655
228	0x3db7ecd4	0.08980718
229	0xbd53f0cd	-0.051743317
230	0x3d61d0e2	0.055130847
231	0xbe092355	-0.13392384
232	0xbb061b93	-0.0020463213
233	0x3e1231fd	0.14276882
234	0x3e92c5d7	0.28666565
235	0xbee4487e	-0.44586557
236	0xbd0d8f87	-0.034560706
237	0xbe163f63	-0.14672618
238	0x3ec46ffd	0.3836669
239	0x3ecba8bc	0.39777172
240	0x3eec15f4	0.461105
241	0x3d4abe83	0.049498092
242	0xbdbe914b	-0.09305056
243	0x3ea230d5	0.3167788
244	0xbcf07414	-0.029352225
245	0x3e21eb31	0.15812375
246	0x3e97e69d	0.2966813
247	0x3df86627	0.12128859
248	0xbe5ae896	-0.21377787
249	0x3eac45b2	0.33646923
250	0x3e43a91b	0.19107477
251	0x3f103726	0.5633415
252	0x3e81b7a3	0.25335416
253	0xbe5c31db	-0.21503393
254	0x3f1b177d	0.60582715
255	0x3d0aa1bc	0.03384565

actor.bias f4 [3]
0	0xbe526689	-0.20546927
1	0xbda99847	-0.08280998
2	0x3d96e5b6	0.07368033

critic.weight f4 [1, 128]
0	0xbcbb54bf	-0.022867559
1	0x3bac315c	0.0052549075
2	0xbce7cb2c	-0.028295122
3	0xbc91fa91	-0.017819675
4	0xbcfd706d	-0.030937398
5	0x3c6e4f18	0.014545225
6	0x3c3aa4a1	0.01139179
7	0xbc11f7e6	-0.008909201
8	0xbc93bb9a	-0.018033791
9	0xbcf187ad	-0.02948364
10	0xbd4c8548	-0.049931794
11	0x3aca639b	0.0015441062
12	0x3cc4c7ad	0.024020994
13	0x3d88e936	0.066851065
14	0x3c269ced	0.01016925
15	0xbc9a9281	-0.018868687
16	0x3d3790f7	0.044815984
17	0xbd728aa1	-0.059214238
18	0x3c874b12	0.016515289
19	0x3d1f81ed	0.038942266
20	0x3dae8519	0.0852148
21	0xbb8623dd	-0.0040936307
22	0xbc2e17df	-0.0106258085
23	0x3c0bb086	0.008525973
24	0xbc4a2f30	-0.012340352
25	0x3bec4e04	0.0072114486
26	0xbd356e36	-0.04429456
27	0xbdda741f	-0.106666796
28	0x3d3b088d	0.04566245
29	0x3b81c39c	0.003960086
30	0xbd01c743	-0.03168417
31	0xbd2b617b	-0.04184101
32	0x39ddce7e	0.00042306253
33	0x3b954777	0.0045556384
34	0x3ca89a33	0.02058134
35	0x3d013de1	0.031553153
36	0x3c700e4d	0.014651847
37	0xbc0293cb	-0.007969807
38	0x3d31978c	0.043357417
39	0x3b3eb15c	0.0029097414
40	0x3c1d977f	0.009618639
41	0x3c3394c6	0.010960763
42	0xbb9fe1fa	-0.0048792334
43	0xbdc06cde	-0.09395765
44	0xbc0aa272	-0.008461582
45	0xbc32459f	-0.010880857
46	0xbca18ea7	-0.019721342
47	0xbc2a243d	-0.010384616
48	0x3b861379	0.004091677
49	0xbcadeb0b	-0.021230241
50	0x3d590330	0.052981555
51	0x3d8b74cb	0.06809386
52	0xbbecf593	-0.007231423
53	0xbd02c844	-0.03192927
54	0xbc132cec	-0.008982878
55	0xb9b0b933	-0.0003370732
56	0x3b0efc2d	0.002181779
57	0x39c02ecc	0.0003665596
58	0x3d281c79	0.04104278
59	0xbc5ed265	-0.013599967
60	0x3cdf5152	0.027260456
61	0x3bc8f758	0.0061330013
62	0x3c39c684	0.011338834
63	0xbc1f9a5d	-0.009741393
64	0xbd42d699	-0.047567938
65	0x3d87dadd	0.06633542
66	0xbd0c54a7	-0.03426042
67	0xbcb2984b	-0.021801135
68	0x3d072e38	0.033003062
69	0xbc0347fa	-0.008012766
70	0x3d67848c	0.05652289
71	0x3ca58cdc	0.020208769
72	0xbc7d390a	-0.015455494
73	0x3cfd5f13	0.030929124
74	0xbbdace11	-0.006677397
75	0x3c6e2dbb	0.01453727
76	0x3ca1d25d	0.01975363
77	0xbc92d151	-0.017922075
78	0xbd040425	-0.032230515
79	0x3cf4ef80	0.029899359
80	0xbcb8a8b7	-0.022541387
81	0xbc91906d	-0.017769063
82	0x3d2320fb	0.039826375
83	0x3c995115	0.01871542
84	0xbd28db62	-0.041224845
85	0x3d3c117c	0.045915112
86	0x3cf48d3c	0.029852502
87	0xbd6905e1	-0.056890372
88	0xbd10abd4	-0.035320118
89	0x3ceb3ee6	0.028716516
90	0x3c4fb9ac	0.012678545
91	0xba9c96a3	-0.0011946749
92	0x3c9a150d	0.018808866
93	0xbc7e77c6	-0.015531486
94	0xbc18d0ee	-0.0093271565
95	0xba2a7e2e	-0.00065037876
96	0xbc685293	-0.0141798435
97	0xbd30f260	-0.043199897
98	0x3c88802b	0.016662678
99	0x3ab7055e	0.0013963392
100	0x3d2da1f3	0.042390775
101	0x3cab371a	0.020900298
102	0x3cc59862	0.024120513
103	0x3c067b95	0.008208175
104	0xbc12b3b1	-0.008953975
105	0x3d2339c6	0.03985002
106	0xbc9dddd9	-0.019270824
107	0x3d34abbf	0.044109102
108	0x3d24a828	0.04019943
109	0x3c8f3847	0.01748289
110	0xbb9014e7	-0.004397023
111	0xbb368fde	-0.0027856748
112	0xbce3b5ff	-0.027796743
113	0xbce3a3e8	-0.027788118
114	0x3ceccbb8	0.028905734
115	0xbc85204c	-0.016250752
116	0xbb86bd05	-0.0041118884
117	0xbdf28a5f	-0.118427984
118	0xbbd08f5e	-0.006364747
119	0xbcd159b8	-0.025555477
120	0x3d0ec8de	0.03485953
121	0xbc715fce	-0.014732314
122	0xbce1d955	-0.027569452
123	0xbd05326c	-0.03251879
124	0xbcbde1a7	-0.023178888
125	0xbd208b9a	-0.039195634
126	0xbc5e493c	-0.013567265
127	0xbbcd2662	-0.006260679
