model_params/model_params_5.pth (torch, 74900 bytes, 7 tensors)

rnn.weight_ih_l0 f4 [128, 6]
000000 94 72 81 3c 02 77 00 bd 34 69 a4 3c e1 47 82 3d
       0.015801705 -0.031363495 0.020069696 0.06361366
000010 e4 a6 24 bd bf 38 2a bb ce 95 50 3d 74 7d 16 bd
       -0.04019822 -0.0025973765 0.050924115 -0.036740735
000020 18 f6 cf bc 12 14 8c 3d aa 9c 04 3d e0 00 d1 bb
       -0.025385901 0.068397656 0.03237597 -0.006378278
000030 14 5b a2 3c 06 f4 00 bd f2 7f 3c 3d 49 82 9e 3c
       0.01981882 -0.03148272 0.046020456 0.019349234
000040 f9 8c 7d bd 89 ce 37 bd 7a 84 2d 3d 44 fb f8 bc
       -0.06190202 -0.0448747 0.042362668 -0.03039325
000050 08 77 46 bc ea 13 84 bd 51 ca d9 bb 2d 41 c1 bc
       -0.01211334 -0.06449111 -0.0066464324 -0.023590649
000060 19 13 32 bd 54 56 ba 3c a0 4b 57 bc 07 da 2a bd
       -0.043475244 0.022746243 -0.013140589 -0.041711833
000070 62 6e b3 3d 0c 34 9a 3d 7a 9b 02 3d 38 69 3a 3c
       0.08761288 0.075294584 0.031886555 0.011377625
000080 c8 09 9f bd 27 02 4e bd 72 7f 65 bc be 9c 4f bc
       -0.077655375 -0.05029502 -0.014007436 -0.012671648
000090 00 82 26 ba 95 bd e4 bc 72 c4 5c 3d a7 2f 69 3d
       -0.0006351769 -0.027922431 0.053898282 0.05693021
0000a0 fc 76 32 bd 1a 79 bc bc 7a 92 6e 3d e3 a0 4f 3d
       -0.043570504 -0.023006964 0.05824516 0.050690543
0000b0 1f a2 a4 3d 16 b9 f4 3b d1 24 7c 3d 7c 96 83 bc
       0.08038735 0.007468353 0.06155855 -0.016062967
0000c0 cc fd 89 3c 5c ec 8e bc 50 9c dd 3b 41 0e 29 bd
       0.016844653 -0.01744669 0.0067630187 -0.04127336
0000d0 07 3a ae 3c 90 44 9a bc 20 ba d1 bc 74 06 c8 3d
       0.021267904 -0.018831521 -0.025601447 0.09766856
0000e0 36 76 2c 3d 64 0d ca 3b f2 4b ff bb 36 22 55 bd
       0.042104922 0.006166147 -0.007791036 -0.05203458
0000f0 84 b2 cc bc 53 d2 77 bd 99 91 85 3d 8b 7b 24 3d
       -0.024987467 -0.060503315 0.06521911 0.040156882
000100 92 88 d4 bc 4e e3 3d 3d 54 fc d6 3c 71 66 c1 bc
       -0.025944028 0.046359353 0.026243366 -0.023608418
000110 c3 bf 92 3d 6d 6a 95 3b a5 80 aa bc bb 1a 8d 3c
       0.07165482 0.004559806 -0.020813296 0.01722466
000120 74 ad e8 3c 00 9e 39 bd c2 6f 3f 3d a9 28 57 3d
       0.028403021 -0.045316696 0.04673744 0.05252901
000130 78 ee 5a bd db a7 e9 3c f0 d7 77 3c 4d 0f 3e 3b
       -0.053450078 0.028522423 0.015127167 0.002900082
000140 40 52 cc 3b 30 50 b1 ba 8e 58 89 bb 1f eb 2d 3d
       0.006235391 -0.0013527926 -0.0041914647 0.042460557
000150 a0 92 c5 3c 4f aa a9 3c ae 6e ec bc 88 13 8a bc
       0.024117768 0.020711092 -0.02886137 -0.016855016
000160 4f 1f 35 3d 64 34 4b 3d 70 39 4a bc 1b 0a 20 bd
       0.04421931 0.04961051 -0.012342796 -0.039072137
000170 36 b0 d9 bc 3b 5c d2 3d 4a 5f 15 3d 91 2e 1e bd
       -0.026573282 0.10271498 0.036467828 -0.038618628
000180 20 aa ba bc e2 df 31 3c 9e 40 8b bd 30 cb 14 bd
       -0.0227862 0.0108566005 -0.06799434 -0.036326587
000190 a5 31 c9 bc 97 d4 8d bd 2f 34 2c bd 74 30 31 ba
       -0.024559805 -0.06925314 -0.042041954 -0.0006759234
0001a0 f0 77 64 bd 1c 0b 8d bc 68 3c 37 bd b8 d2 70 bd
       -0.055778444 -0.017217211 -0.044735342 -0.058794707
0001b0 74 1a c1 bc 72 92 ec ba fe 0e ee bc 78 91 33 bc
       -0.023572184 -0.0018049015 -0.029059883 -0.010959975
0001c0 67 eb 24 bc ee dd 11 3d 2e 0c 76 3d d3 55 86 b9
       -0.01006589 0.03561204 0.06007021 -0.00025622416
0001d0 79 3b 8b 3d e6 c5 06 bd a1 7d 52 bd d5 8c 70 bd
       0.06798453 -0.032903574 -0.05138934 -0.058728058
0001e0 54 40 19 bd ef 47 8e 3d 09 35 9d 3d 21 13 00 3d
       -0.037414864 0.06947314 0.07676131 0.031268243
0001f0 a1 16 09 3d fb 55 87 3d 3d a4 91 bd 4a 8a d4 3c
       0.033468846 0.06608196 -0.07111404 0.025944848
000200 f8 61 24 3c c7 30 b0 bd 79 75 38 3d a9 ad ac bc
       0.010033123 -0.086030535 0.045033906 -0.021078901
000210 7c c4 b9 3c bb bf af 3d 72 38 ab bd e6 6b 23 bd
       0.022676699 0.085814916 -0.083603755 -0.03989782
000220 5b 1b be 3d 08 27 4e bd cf f2 01 bd 75 eb 48 3c
       0.092825614 -0.05033019 -0.0317257 0.012263169
000230 e8 25 dd 3c 9e f6 e7 3d 04 d7 39 bc c4 45 ba 3d
       0.026995614 0.11326335 -0.011342768 0.09095338
000240 a0 59 33 bc ca 66 a4 bb 40 b3 70 3b fb 0d 3e 3d
       -0.010946661 -0.005017136 0.0036727935 0.04640005
000250 99 8e 81 bd f3 fe 9b bc a2 a0 43 3d b4 c1 24 3d
       -0.063260265 -0.019042468 0.047760613 0.040223792
000260 f7 b1 1f bd a8 1c 51 3d c0 ed ba bc 04 c7 ce 3d
       -0.03898808 0.05105272 -0.022818446 0.10096553
000270 ef 63 95 3d b1 5a 85 bb a9 7d 80 3d 5f a5 a0 bd
       0.072944514 -0.004069649 0.06273968 -0.07844042
000280 6e 75 70 3c 5e 1f f2 bd 39 94 9a 3d 07 52 d8 bc
       0.014676435 -0.11822389 0.075478025 -0.026406301
000290 42 b2 27 3d 0b 66 e1 bc e5 86 33 3d e0 31 4d 3c
       0.040941484 -0.027514478 0.043829817 0.012524098
0002a0 47 c4 76 bd f4 67 5d 3d c0 7e 8b 3c ac 1c 13 3b
       -0.06024578 0.054054216 0.017028213 0.002244751
0002b0 74 54 2b 3c ac 73 7c bd 35 99 92 bd dc a3 6e bd
       0.010457147 -0.06163375 -0.07158128 -0.058261737
0002c0 9a 9b 8a bd c1 e5 9a 3d 9c 71 0a be 0c 84 4b bd
       -0.0676796 0.07563353 -0.13519901 -0.049686477
0002d0 67 d0 83 3d 12 5d 40 bd f4 3b 97 bd 5b f4 44 bc
       0.06436234 -0.04696376 -0.07384482 -0.0120211495
0002e0 17 1d cb bd 2e 46 ab bd 72 d0 1d bd f9 eb 87 3d
       -0.09917658 -0.08362995 -0.038528867 0.06636805
0002f0 26 0c 14 3d c8 4b 62 bd 86 cc 48 bd f0 e3 ba bd
       0.0361444 -0.055248052 -0.049023174 -0.09125507
000300 08 a1 97 bc a6 52 f1 bc 82 f1 1e 3d 72 37 e9 3c
       -0.018509403 -0.029458355 0.03880454 0.028468821
000310 8e 39 04 bd 97 4d 48 bb 45 7a a3 bd 5c 13 81 bd
       -0.03228145 -0.0030563825 -0.079823054 -0.06302521
000320 15 27 49 bd 46 de 6c 3c 27 db ee bc 93 7e 93 3d
       -0.049109537 0.014457291 -0.029157234 0.072018765
000330 f0 67 32 bd 3c 0b 0f bd c1 99 b1 3d 25 6b 8e bd
       -0.043556154 -0.034922823 0.08671904 -0.0695403
000340 03 c4 27 3d 4a 7a 9f bd bf 4e 50 bd 80 b1 9b 3d
       0.040958416 -0.07786997 -0.050856348 0.07602215
000350 20 47 16 bc fb 06 ba bc 2a e7 99 bc 68 f3 3e bd
       -0.009172231 -0.022708407 -0.018786985 -0.04661885
000360 22 d1 1f bd cc 48 ff bc 48 15 f3 3c e6 44 67 3d
       -0.039017804 -0.031162642 0.029673234 0.05646219
000370 7e c6 a3 bd c2 07 be 3c a1 f8 ae bd 8b fa dd 3c
       -0.07996844 0.023197059 -0.08543516 0.027097007
000380 da 89 14 3d 2e 7c 43 3d 0d 0f d6 3c ba 8f c0 3c
       0.036264278 0.04772585 0.026130224 0.023506034
000390 74 f3 81 bd 82 c3 be bd 37 77 b0 3d d3 6f 47 3d
       -0.06345263 -0.09314634 0.086164884 0.04869063
0003a0 89 a6 23 bc c3 6d 8e bc 80 1c 0e bd de 92 ab bd
       -0.009988436 -0.017386323 -0.03469515 -0.08377622
0003b0 00 90 5b 38 95 bc ac 3c a2 ab 02 bb 0a 42 ac 3d
       5.234778e-05 0.021086017 -0.0019938727 0.084110335
0003c0 a8 20 86 bc 95 bd 86 3d 64 34 89 bd 59 f0 64 3d
       -0.016372994 0.06579129 -0.06699446 0.055893276
0003d0 14 7a 9b 3b 4c 8e 97 3c 6d e3 8f 3d 22 65 f6 3c
       0.0047447775 0.01850047 0.070258 0.03007752
0003e0 04 9d e1 3c 2f a2 a3 3d a3 df 82 bd 01 47 f0 3c
       0.027540691 0.079899184 -0.063903116 0.029330732
0003f0 5c 5a ac 3c 5a 78 9a bb c6 cd 88 bd 65 b1 96 bc
       0.02103918 -0.004714054 -0.06679873 -0.018395135

rnn.weight_hh_l0 f4 [128, 128]
000000 0d da 94 bd fd 40 57 3d f9 2c 5b bc 78 64 39 3c
       -0.072681524 0.052552212 -0.013377422 0.0113154575
000010 7e a7 c8 3d 95 d1 72 bd 38 6f 19 3d 39 a7 f8 3c
       0.097975716 -0.059281904 0.037459582 0.030353175
000020 e8 aa a2 3d 81 00 99 bd 87 16 c2 bd cd 4d 93 ba
       0.07942754 -0.07470799 -0.09476953 -0.0011238396
000030 21 37 fc 3c a1 60 3b 3d 6a 4c c8 3c 08 bc 75 bd
       0.030788006 0.04574645 0.0244505 -0.059993774
000040 48 b9 06 3d 8d ba 09 3e bf ef 8d 3d dd ac d7 3a
       0.03289154 0.1345007 0.069304936 0.0016454716
000050 2a 30 0f be 04 6f af 3d de 84 70 bd 1b f8 69 bc
       -0.13983217 0.085660964 -0.058720462 -0.014280344
000060 7e 92 68 bd f0 0a 00 bd 43 5e 6f 3d aa 4c 3e be
       -0.05678033 -0.03126043 0.058439504 -0.18583933
000070 a7 f8 a4 bd 02 e1 6e bd 7e 9e 2a 3d a2 5e 95 bc
       -0.08055239 -0.058320053 0.041655056 -0.018233601
000080 77 bc 91 3c 52 4b 15 3e 1e 6b ef 3c 43 db 7e 3d
       0.017790062 0.14579514 0.029225882 0.062220823
000090 74 5f 91 bc 2a b1 91 bc 88 fc 76 bc 2c 79 cb bc
       -0.01774571 -0.017784674 -0.015074857 -0.024838053
0000a0 62 3d 3e bc 4f 58 36 bc 10 57 9a 3d e6 5a 2b 3c
       -0.0116113145 -0.011129453 0.07536137 0.010458684
0000b0 89 e5 4e 3d 20 3f 49 bc 31 2f 6e 3d ba 49 cf bd
       0.05051187 -0.012283117 0.058150474 -0.10121484
0000c0 ed 63 20 3d cf 89 44 3d 1d 1f 05 be 76 8e 5c 3d
       0.039157797 0.047982987 -0.1300015 0.0538468
0000d0 6a ba ef 3c a5 0b 3d 3e a1 34 ee 3c 7b 35 b6 bc
       0.029263694 0.18461473 0.02907783 -0.022242298
0000e0 c2 bd 87 3d fb 72 ee bc 0a f3 0f 3e 8d 31 8b bd
       0.0662799 -0.029107561 0.14057556 -0.067965604
0000f0 13 56 0f 3d 93 ff d6 ba a0 32 9e 3c f4 a0 99 bd
       0.034994196 -0.0016403071 0.01931125 -0.075014025
000100 f0 ea 7a bb 18 3c b7 bc 5b 94 ae bd 50 3f 3e bd
       -0.0038287006 -0.022367522 -0.0852439 -0.0464471
000110 90 90 b7 bd 94 db 8e bc 47 3a c1 bd e4 b5 88 bd
       -0.0896312 -0.017438687 -0.09434944 -0.06675318
000120 d7 88 93 3d 47 79 c6 3c c1 d8 de 3c a4 2b ea bc
       0.072038345 0.024227751 0.027202966 -0.028585263
000130 ea 2d 86 bd 9f cc ce bd 15 bf 0b bd d3 00 85 3d
       -0.06551726 -0.10097622 -0.034117777 0.06494298
000140 c6 89 d5 3d 66 0f ab 3c 5c dc eb bd 36 6f ab 3d
       0.10426669 0.020881366 -0.115166396 0.08370821
000150 d6 db 82 bd 03 5d 35 bd d3 2d c6 bc 1f bb 46 bd
       -0.06389587 -0.044278156 -0.024191773 -0.048518296
000160 7d d2 dd bd 07 89 b3 3d ef 09 61 3d 02 ea 39 3d
       -0.10831163 0.0876637 0.054941114 0.045389183
000170 e7 2b 9f 3c e2 93 11 3d 6f e2 16 bd 27 c3 6e bb
       0.019430114 0.035541423 -0.036837038 -0.0036432238
000180 00 53 c3 bc ae b3 01 bd 75 2e ad 3c 82 69 a2 bc
       -0.023843288 -0.031665497 0.021140317 -0.0198257
000190 99 a7 39 3d 55 18 04 3d 8e 7b b6 3c 2c cb 94 bc
       0.04532585 0.032249767 0.022275712 -0.018163286
0001a0 9d 5b 21 3e c4 41 a5 3c af ed dd 3c 16 fb 03 3e
       0.15757604 0.020172961 0.027090875 0.1288875
0001b0 b9 b2 7b 3d 2c 61 29 3d ce 72 c7 3c 8f 56 b8 bc
       0.06144974 0.041352436 0.024346735 -0.022502212
0001c0 83 2c 86 bd ec 9c bc 3c d9 da 9e bb f1 4c 50 bd
       -0.06551459 0.023024045 -0.004847866 -0.050854627
0001d0 9a 8b 62 3d 52 ae 1c bc ad 31 2d 3d 8a 85 54 bd
       0.055308916 -0.009563046 0.042283703 -0.051885165
0001e0 4b b4 3d 3b aa 2c 5e bd 74 be 10 3d ab ea 0c be
       0.0028946574 -0.054241814 0.03533788 -0.13761394
0001f0 22 23 64 3b 2d 9d 65 3d fe a6 6d 3d e3 89 59 3d
       0.003481098 0.056058098 0.058020584 0.053110015
000200 94 0c 86 3d 36 a5 93 bc d8 5d 6c bd 5d 76 89 3d
       0.06545368 -0.018023115 -0.057706684 0.06712029
000210 e0 a5 c3 ba 32 a1 49 3b e2 8e bf 3c bd 2e b7 3c
       -0.0014926754 0.0030766246 0.023383562 0.022361154
000220 55 25 fd 3c 01 f9 32 bc 25 5c ac bd 0f 2c c8 bd
       0.03090159 -0.010923625 -0.08416013 -0.097740285
000230 a9 db 60 bd 24 45 2d bd 13 24 8a 3d 25 7a 2c 3d
       -0.054896984 -0.042302266 0.06745162 0.042108674
000240 f2 c6 02 3e fa bb 9f 3d ab 60 95 3d 7c ec 57 bd
       0.12771204 0.077995256 0.072938286 -0.052715763
000250 95 f0 2e 3a 52 d7 22 3d d5 aa d0 bc 55 00 fa bd
       0.0006673423 0.039756127 -0.025472084 -0.122070946
000260 82 7e 11 3d b9 cd f6 bc b4 77 93 3c 21 4b 16 3c
       0.035521038 -0.030127393 0.018001415 0.009173186
000270 23 a7 df bd 42 17 19 bd 90 11 86 3c 87 13 89 3c
       -0.10920551 -0.037375696 0.016365796 0.016732944
000280 36 2a d3 bd 47 a0 69 3d 58 10 09 bc a3 f7 63 3d
       -0.103107855 0.057037618 -0.008365713 0.055656087
000290 0b cf 8f 3d f6 ef d8 3c c9 ed 03 3d a7 9a 0a bd
       0.07021912 0.02648161 0.03220919 -0.033838894
0002a0 d1 c0 9e 3d 92 db 09 3d c4 9b 89 3d 50 0c 66 bd
       0.077516206 0.033656664 0.06719163 -0.056164086
0002b0 4b 0f 16 be 45 8b bc bd e3 79 60 bd 41 3f 89 3d
       -0.14654271 -0.09206251 -0.05480374 0.06701518
0002c0 b3 8a 7d bd 6e 82 c5 ba d4 ce 85 bc 5a aa cf 3d
       -0.061899852 -0.0015068778 -0.016333975 0.10139914
0002d0 cd 21 d4 bb 08 81 94 3d d6 46 e1 bd b6 4e 31 3d
       -0.006473756 0.07251173 -0.10999839 0.043287955
0002e0 03 ff 6e bd 97 b3 66 bd 37 62 bf bc 62 26 05 3e
       -0.058348667 -0.056323614 -0.023362262 0.13002923
0002f0 10 64 29 3c bb 7b 0b 3d 05 39 61 3d 22 b4 a2 bd
       0.010338798 0.034053545 0.05498602 -0.07944514
000300 d4 fe 2a 3d 9f 5d b4 bb e3 77 1a bc f3 f2 ce 3d
       0.04174693 -0.0055043246 -0.009427997 0.10104933
000310 cc e1 e6 bc 42 95 02 3e 76 7e 81 bd b9 90 96 3c
       -0.02818384 0.1275225 -0.06322949 0.018379556
000320 8e 94 c6 3d 32 df d1 bd 37 d1 12 3d a1 f9 c5 bb
       0.09696303 -0.10247649 0.035844054 -0.006041721
000330 24 54 c4 bc dc e7 13 bd 1f 49 74 bd 99 db 6c bd
       -0.023965903 -0.03610979 -0.059640046 -0.057826612
000340 c2 5f b9 3c 90 6d 84 3d df e5 b4 3d 1e 56 59 bc
       0.022628669 0.0646621 0.08832907 -0.013265161
000350 c0 21 ae 3c 73 fb 33 3d 03 88 43 bd 43 96 87 bd
       0.021256328 0.043940973 -0.047737133 -0.06620457
000360 94 ea d9 3b 2a 5f c7 bc 78 16 bb 3c 53 b8 99 3c
       0.0066502783 -0.02433737 0.022837862 0.01876465
000370 40 4c e6 3c d9 fd 3f ba fb 21 7f bd d0 c3 3c 3c
       0.02811253 -0.0007323898 -0.062288266 0.011521295
000380 10 4d 27 bd f7 b4 a8 3b 67 e6 31 3c 27 cb 93 bc
       -0.040844977 0.005148526 0.010858155 -0.018041207
000390 5f d1 74 bd 33 29 68 3d e1 cb 3d 3d ff de 3b bd
       -0.059769984 0.056679916 0.046337012 -0.045866963
0003a0 de f1 88 bd 25 5a e4 bd 29 17 a4 3c 82 63 cc 3a
       -0.066867575 -0.11150006 0.020030575 0.001559362
0003b0 9f 35 9e bd 66 bd 22 bd e6 43 4a 3d 06 44 ac bd
       -0.07725071 -0.039731406 0.04938116 -0.08411412
0003c0 b4 fc be bd d2 a3 b7 bd 0e 25 82 3d 2a 9b 8d 3c
       -0.09325543 -0.08966793 0.06354724 0.017285902
0003d0 05 b3 69 3c dc 3e 79 bd 02 0b 17 3d fe 16 92 3c
       0.014263873 -0.060850963 0.036875732 0.01783323
0003e0 9e 8a cc 3d bf 5b af bd 52 23 9c bc 7e 75 31 3d
       0.09987377 -0.08562421 -0.01905981 0.04332494
0003f0 f4 2c e3 ba 7c ef 16 bd 7a f1 93 3c ff cc 1c 3d
       -0.0017332123 -0.036849484 0.018059481 0.038281437

rnn.bias_ih_l0 f4 [128]
000000 b0 d4 8c 3d 69 e3 96 3d e4 14 60 bd 02 c6 93 bd
       0.068765044 0.07367594 -0.054707423 -0.07215501
000010 d5 5c bd 3c a1 19 61 3c 26 61 9a 3d e0 24 68 3d
       0.023115555 0.013739021 0.07538061 0.05667579
000020 ca 3a 87 3d 20 58 bf bc 3f 85 35 bd 0f d9 45 3c
       0.0660301 -0.023357451 -0.044316527 0.012075677
000030 54 72 ff 3c 86 f1 f0 bc 39 32 cd 3b 6d c3 bb 3b
       0.031182446 -0.029412042 0.0062620905 0.0057300837
000040 88 15 a6 3d 18 52 bb 3a f2 0e 72 3d ba a8 db bd
       0.081095755 0.0014291434 0.059096284 -0.107255414
000050 27 51 52 3d 79 a9 52 3d b0 fc 8b bd 42 a4 4b bd
       0.051346924 0.051431153 -0.06835306 -0.049717195
000060 ce 72 c9 bd 93 1c 2d 3d 00 17 c5 bd 96 90 55 3d
       -0.098363504 0.04226358 -0.096235275 0.05213984
000070 9f 3b e6 bb 4d 0a 57 bc b3 68 d3 bc 99 e7 2a bd
       -0.0070261504 -0.0131250145 -0.02580676 -0.041724775
000080 ff 2c e0 3c 97 4e 58 3c c4 1d 84 bd 7f dd 1d 3d
       0.027365206 0.013202331 -0.0645099 0.038541313
000090 22 e6 32 3c 28 85 eb bd cc c0 b7 3d ea d1 dc 3c
       0.010919126 -0.11500007 0.0897232 0.026955564
0000a0 65 e4 6f 3d b1 2b 62 3d 46 eb 9c 3d cb b0 85 3d
       0.058567423 0.05521745 0.07662062 0.06527861
0000b0 23 ee 5e 3d db d1 7c 3c 44 33 54 3d 3b 90 4c bd
       0.054426324 0.015430893 0.051806703 -0.049942236
0000c0 fe 02 60 bc 7a e7 51 3c e1 62 a0 3d 48 3c 7f bd
       -0.013672588 0.012811536 0.0783136 -0.062313348
0000d0 d5 a3 07 3d d3 29 9f 3c f8 fc 16 be d6 e8 98 3d
       0.033115227 0.019429123 -0.14744937 0.07466285
0000e0 3f 6b 31 bd f3 e9 ca bc 92 1b 76 bd 9f 0d 81 3d
       -0.04331517 -0.024769759 -0.060084887 0.06301426
0000f0 54 e8 08 bc 83 af 97 bd 3f d8 3e bd f3 78 86 bd
       -0.008356173 -0.07406523 -0.046592947 -0.06566038
000100 92 e1 c5 bd 85 fb 3c 3d ed bc 00 bd 59 9b 0b 3d
       -0.09662165 0.046138305 -0.031430174 0.034083698
000110 d1 46 02 3e 50 64 04 be 44 89 4e bd 57 da 97 3c
       0.12722327 -0.12928891 -0.050423875 0.01853673
000120 de 9c 22 3d 47 0e 9e bb 1c 5f 1b 3d bb 2a 76 3c
       0.03970038 -0.0048234793 0.0379325 0.015024836
000130 88 c6 9b 3c d7 84 b7 bc fc 86 c6 bc 96 16 45 3d
       0.019015566 -0.02240221 -0.024234287 0.048117243
000140 33 22 59 38 48 99 5b bd dd 6c 25 bd a6 8f 3f bd
       5.1768682e-05 -0.053612977 -0.040387023 -0.046767853
000150 2d aa 16 bd 0c 00 e9 bc 41 8e 9e 3d 80 26 ab 3d
       -0.036783386 -0.028442405 0.077419765 0.08356953
000160 e4 a0 99 bd 23 00 9f 3b d0 9c 8c bd 9a d9 20 bd
       -0.075013906 0.004852311 -0.06865847 -0.03927002
000170 18 0c 60 3d ad c6 4f bc fe 9e 8a bd d5 1b 6c 3d
       0.054699033 -0.012681645 -0.067686066 0.05764373
000180 f2 a8 48 3c bb 62 a2 3c 19 21 c9 3d 04 bc 48 3d
       0.012247311 0.019822469 0.09820766 0.04900743
000190 df 49 41 bd c3 b3 69 3d 1c bb 72 3c 90 e8 8b 3d
       -0.04718959 0.0570562 0.014815118 0.06831467
0001a0 3c 69 4c bc bc 5f 9d 3d 4d c9 5b 3d d7 87 d4 bc
       -0.012476262 0.076842755 0.053658772 -0.02594368
0001b0 0e 93 c5 3c fd 9e 88 b9 4a c0 d9 3c 9f 8b ee bc
       0.024117973 -0.00026058397 0.026580948 -0.02911931
0001c0 b7 9c 10 3d 1e d9 bd bc c3 b1 c7 3d b8 8e 0a bd
       0.035305705 -0.023174819 0.09750702 -0.033827513
0001d0 72 a4 c8 3c 03 3d cc 3d 4c 12 3b 3c af 3e 65 3c
       0.024492476 0.099725746 0.0114179365 0.013991996
0001e0 bd dc a3 bd 71 93 e8 ba 31 71 59 bd d7 df ab 3d
       -0.08001087 -0.0017744136 -0.053086463 0.083923034
0001f0 df 1c 53 3c 4d 1e 08 bd 2b a6 aa bc 82 47 d0 bd
       0.012885301 -0.033232022 -0.020831188 -0.10169889

rnn.bias_hh_l0 f4 [128]
000000 d6 83 c2 bd 45 59 2f 3d 9d 62 5f 3c 1c d2 d9 bd
       -0.09497802 0.042809743 0.013634351 -0.10635778
000010 c7 25 25 3e d3 30 a5 3d f8 96 7d bd b6 a8 e5 bc
       0.16127692 0.08065953 -0.061911553 -0.02803455
000020 08 8f 69 bd 88 97 de bb a6 ac 09 bd 8d 22 f4 bc
       -0.05702117 -0.0067929663 -0.033611916 -0.029801631
000030 55 81 01 bd 90 18 d5 3d 9b ad a4 3d 3e 41 aa bc
       -0.03161748 0.104050756 0.08040925 -0.020783063
000040 75 d2 fd 3b c4 4f 11 be 1c 8c 5e 3d bf 42 6f bd
       0.0077460357 -0.14190584 0.054332837 -0.058413263
000050 9e 90 00 3d 85 62 a3 3d 82 63 8f bd 23 3f 3d bc
       0.031387918 0.079777755 -0.070014015 -0.0115506975
000060 56 7a 0c bc 3e ef f6 3b 7b 13 27 3d 13 f4 f9 3c
       -0.008574089 0.007535844 0.040790062 0.030511891
000070 46 7a 5b bd 45 d5 54 bc a5 0a e2 bd 1f 6e 23 3d
       -0.053583406 -0.012990301 -0.110371865 0.03989994
000080 d7 5a f9 ba d1 9d 83 3a a8 f8 97 bd 13 2b 0b 3d
       -0.0019024265 0.001004154 -0.07420474 0.033976626
000090 3b f4 c6 3d 25 c7 26 bd 5c f6 cf bc 26 8e 0c bd
       0.09714552 -0.040717263 -0.025386028 -0.03431525
0000a0 2f fd 65 3d cc 12 c9 bd d0 a3 a2 3d 91 c7 72 3d
       0.056149658 -0.09818038 0.07941401 0.059272353
0000b0 b5 67 19 3d 92 a0 9a bd de 0e 30 bd 08 95 aa 3c
       0.03745242 -0.075501576 -0.04298293 0.020823017
0000c0 ca da 0f bd 2c 5d 8b bd 55 e2 e5 3c a2 04 a2 3d
       -0.035120763 -0.068048805 0.028062025 0.0791104
0000d0 b9 2d 49 bd e6 f0 42 bd 21 c1 cc bc db 72 17 bd
       -0.04911587 -0.04759302 -0.024994435 -0.03697477
0000e0 b1 c8 8a bd 93 80 82 bd 76 41 38 bd d1 79 b5 bd
       -0.0677656 -0.0637218 -0.044984303 -0.08861125
0000f0 6d ab a0 b8 34 88 77 3d 2b 88 2f 3d fc 0e 64 3c
       -7.661325e-05 0.060432628 0.04285447 0.013919588
000100 e6 55 51 bc d2 83 85 3d 34 93 c3 bc d1 af 49 bd
       -0.012776827 0.06519283 -0.023873903 -0.049239937
000110 67 fb c9 3c 45 52 2d bd 7e 1c cc bc c6 12 8b 3d
       0.02465601 -0.042314786 -0.02491593 0.0679069
000120 d2 14 59 bd 20 44 84 3d 49 b7 8b bd 2e f8 8a 3d
       -0.05299837 0.06458306 -0.06822068 0.06785618
000130 61 d5 22 3d 98 6d 82 bb 64 e4 b6 bc 89 f9 45 3c
       0.039754275 -0.0039803497 -0.022325702 0.01208342
000140 2c 5b e6 3c 72 a8 58 bd ad 78 49 3d e9 72 85 3c
       0.028119646 -0.052895017 0.04918735 0.016290145
000150 8d 84 9e 3d 95 ba 04 3d f2 77 80 3c 68 be 7e 3d
       0.07740126 0.0324045 0.015682194 0.062193304
000160 01 b1 3c bc 09 3a 8a bd 60 5a dd 3c 3c be c5 bd
       -0.01151681 -0.067493506 0.027020633 -0.09655425
000170 6f 01 a4 bc 57 98 9c 3d a6 de 44 3d 51 59 2f 3d
       -0.020020215 0.07646244 0.048063897 0.04280979
000180 d9 d9 34 bd 79 f2 62 3d 51 1a ba 3d 5e c6 59 3d
       -0.04415307 0.05540702 0.09087051 0.053167693
000190 60 f0 70 bd fb d8 b3 b9 52 5b ea 3d bf 55 c8 bc
       -0.05882299 -0.00034303204 0.11443199 -0.02445495
0001a0 62 46 8f bd 60 a2 70 bd 09 ce fe 3c 86 0a 66 bd
       -0.06995846 -0.058748603 0.031104105 -0.05616238
0001b0 c7 a5 c8 3d 35 ef 4d bd 02 65 03 bd f3 0f 3d bd
       0.097972445 -0.050276954 -0.03207875 -0.04615779
0001c0 ba 67 d4 bc 18 da e8 3c f2 4a 8d 3c 3d 5d 07 3d
       -0.025928367 0.028424308 0.01724765 0.033047903
0001d0 4b b6 5e 3b bd b8 bd 3d 92 39 00 3d eb df 71 bc
       0.0033983167 0.09263752 0.031304903 -0.014762859
0001e0 57 55 35 3d 00 3c b3 bd 41 4b 34 3d fc cd a0 3c
       0.04427084 -0.087516785 0.04401708 0.019629471
0001f0 7e 3f fa bc 80 e8 0f 3d f5 81 ba bd 8e 9d be bd
       -0.030547854 0.03513384 -0.091068186 -0.09307395

actor.weight f4 [3, 128]
000000 86 9b 25 be 4f 39 62 be c0 25 ab bd 9a f2 6f 3d
       -0.16172609 -0.22092174 -0.083568096 0.058580972
000010 52 b9 fc bd 61 97 7c 3e 0b 4e 8e bd 54 b9 06 3d
       -0.123400345 0.24667121 -0.06948479 0.032891586
000020 fe 18 c3 3d 54 25 4c 3e 6e 52 29 be 5c b3 da bd
       0.09526251 0.19936115 -0.1653535 -0.10678741
000030 33 f8 97 be aa be 12 bd b9 06 2d bd c8 49 36 3b
       -0.29681548 -0.035826363 -0.04224274 0.0027814973
000040 1f 72 0f 3e 02 a8 8c 3c 02 00 a4 3d 94 3d 4f 3e
       0.14008377 0.017169956 0.08007814 0.20238334
000050 d0 0f c7 bd d1 7d 3e 3e a6 48 4a 3e 50 ac 8a be
       -0.09719813 0.18602683 0.19754276 -0.2708459
000060 02 e5 25 be bc b6 cc bd 29 ac 0a 3e 09 a1 00 3d
       -0.16200641 -0.09995791 0.13542236 0.031403575
000070 5e 02 68 3e 8b a5 05 be d1 b4 98 3d e9 2c 57 3e
       0.22657153 -0.13051431 0.07456363 0.21013226
000080 89 f2 43 be 55 03 95 bd 4a af 0f 3e 0d 17 7a 3e
       -0.19135489 -0.07276026 0.14031711 0.24422856
000090 39 d4 64 be 56 60 54 3d d5 40 3f be 35 02 5f be
       -0.22346582 0.051849686 -0.18677075 -0.21778186
0000a0 0f e7 df bd 2b 9b a1 be 81 64 aa 3d 4d 9f 63 3e
       -0.10932743 -0.31563696 0.08319951 0.22228737
0000b0 b5 12 02 bd 60 13 6f bd 39 f1 06 be 54 95 d6 bc
       -0.03175612 -0.058368087 -0.13177957 -0.026194252
0000c0 16 8a 3e be 17 9b 32 3e d5 07 7e be 78 f2 39 3e
       -0.18607363 0.17441975 -0.24807675 0.181589
0000d0 b8 b7 24 3e 6c 49 29 3e ee 3c e5 bc b1 f6 9e be
       0.16085708 0.16531914 -0.027983155 -0.31047586
0000e0 70 83 2e 3d 49 fd 46 bd 58 a0 88 3c 15 ef e0 3d
       0.042605817 -0.048581395 0.01667802 0.10983101
0000f0 9e e0 30 bd 9f 4e b0 bd 4e ff 49 3d e4 26 b4 bc
       -0.04318296 -0.08608746 0.049315743 -0.0219912
000100 11 0f 6b be 13 ed 7d bd 4a 4a 1e be 53 74 78 3e
       -0.22954966 -0.06199367 -0.15458027 0.24263124
000110 c5 c7 23 be cc 95 16 3e 03 f4 c3 bd f6 5b ba bd
       -0.15994175 0.1470558 -0.09568026 -0.090995714
000120 38 95 2c 3e 44 5f 23 3e df ea a4 3d 0a d0 d3 bd
       0.16853797 0.1595431 0.080526106 -0.10342415
000130 6e 70 2e be b9 d1 9f bd df 64 94 3e de 96 2d be
       -0.17035076 -0.07803673 0.2898321 -0.16952083
000140 e4 f6 4d be 70 f0 5d bc e7 82 3d be 2f 74 15 3e
       -0.20113713 -0.013546094 -0.18506967 0.14595102
000150 00 ca 3c be 0d fa 43 be 5f 86 fb bd 6f 9e 8a 3c
       -0.18436432 -0.19138356 -0.122814886 0.01692125
000160 3d 8c 26 be a7 61 52 be 49 74 85 3d da 2f b6 bd
       -0.16264434 -0.20545064 0.0651632 -0.08895846
000170 7f f7 28 3e c1 1e eb bc 23 8d e7 3b 61 21 60 be
       0.16500662 -0.028701188 0.0070663854 -0.21887733
000180 08 c4 55 3e a5 7c 5d be 25 0e 7b be 87 22 10 be
       0.20875561 -0.2162958 -0.24517114 -0.14075671
000190 1e 4f ae 3a d3 d9 bc bd 74 bd 62 3e 4a 8d 55 3e
       0.0013298725 -0.09221234 0.22142583 0.20854679
0001a0 7b 1d ec bb a5 c7 b3 3b 16 fe 54 be cf ab 45 3d
       -0.007205663 0.005486446 -0.20800051 0.048259553
0001b0 78 aa 6d be de 05 3c be 5d db 9a 3e 67 25 2e 3c
       -0.2320956 -0.18361613 0.30245486 0.010629035
0001c0 10 9b 90 bd 36 35 fc bd 53 0e 38 be 46 6e 2b 3e
       -0.07060826 -0.12314837 -0.17974214 0.16741285
0001d0 3c 15 33 be 4f df e6 bd bf 29 ea bd 0a 74 59 be
       -0.17488569 -0.112730615 -0.11433744 -0.21235672
0001e0 8d c9 7e 3e 7f 9a 96 be cb 5d 6b 3e 59 b9 ad bd
       0.24881573 -0.29414746 0.22984998 -0.08482618
0001f0 7c 4d 4e bd 9f 10 91 3e 61 6d d3 b9 96 81 53 3e
       -0.050366864 0.28332993 -0.0004032655 0.20654902
000200 55 a6 38 be 9e f2 7f 3d dc 58 e8 bd 09 64 0d be
       -0.180322 0.062487237 -0.113450736 -0.13807692
000210 ac a5 a4 bd e4 a0 d5 3d d7 62 e9 bd 9b 65 09 3c
       -0.08039412 0.10431078 -0.11395805 0.008386041
000220 e8 cb 0e 3d 4b 10 ea 3c d1 28 d8 bd 8f ac c9 bd
       0.03486243 0.028572222 -0.1055466 -0.09847366
000230 22 d2 2b be 0e 59 f0 3d ba da ab 3d 0a f6 19 3e
       -0.16779378 0.11735736 0.08391328 0.15035263
000240 b6 86 08 bd 60 93 e2 bd 51 2d 1e 3e ca c5 1f bd
       -0.033331595 -0.11063266 0.15446974 -0.039006986
000250 5a ea c4 3d 13 23 f1 3d 42 61 86 3d 01 f2 20 3d
       0.096150115 0.11774268 0.06561519 0.039293293
000260 6a f6 5f be 2c 3e f0 3b 78 e6 06 3c 16 93 00 be
       -0.21871343 0.00733163 0.008233659 -0.12556109
000270 a2 5c 4d 3e eb db 96 bc f3 c3 23 be e6 4b ea 3c
       0.20054868 -0.018415412 -0.15992717 0.028600644
000280 e0 4d 6c bc 10 74 a1 bc 7b a7 8e 3c b3 d9 11 3e
       -0.014422864 -0.019708663 0.017413845 0.14243202
000290 8c 91 54 bd ae 4a d1 3d 8c e3 e6 bd 06 c5 22 be
       -0.051896617 0.10219322 -0.1127387 -0.15895471
0002a0 e5 b7 97 3d 69 17 0c be 94 dc 42 3e a5 89 3f 3e
       0.07408122 -0.13680805 0.19029456 0.18704851
0002b0 0b 67 eb bc e6 29 de bd e8 f8 89 bd 66 1a 5d bc
       -0.028735658 -0.10847835 -0.06736928 -0.013495063
0002c0 9d f6 01 be 52 66 2d 3d ed a4 28 be 04 c1 ff 3c
       -0.12691732 0.04233391 -0.16469164 0.031219967
0002d0 5b 69 8a 3e ca 18 09 bc 51 75 59 bd 16 4b b5 bd
       0.27033505 -0.008367727 -0.053090397 -0.08852212
0002e0 33 c5 8f bd 8a e6 56 bd ed ff a9 bd c4 c6 25 3d
       -0.07020035 -0.052465953 -0.08300767 0.04047276
0002f0 bd e5 fb bd 39 1b 20 be d3 9a a3 3d 7f 10 b3 3d
       -0.122996785 -0.15635385 0.07988515 0.08743381
000300 07 0a 91 bd cd 2b 13 bd 60 3a e8 bd c0 7f f3 3c
       -0.07081991 -0.035930444 -0.11339259 0.029724002
000310 64 a6 35 3d 64 7a a9 bd 4f 2f 8f bd 04 5a d0 3c
       0.044348136 -0.08275297 -0.06991445 0.025433548
000320 eb fb 02 be cc 6f 47 3e 1c ac f2 3d fc cc 06 3c
       -0.12791412 0.19476241 0.118492335 0.008227583
000330 45 23 4c 3c 1f f4 46 bc 54 7a 20 3d 20 0b dc bb
       0.012459581 -0.012143164 0.03917916 -0.0067151934
000340 0b ed 0a 3d cb af 26 be 0b 6e b0 bc 55 56 86 3d
       0.033917468 -0.16277997 -0.021536848 0.06559435
000350 1a 70 48 bd 26 3d 85 be ae a1 f4 3b 18 f7 ce 3d
       -0.048935033 -0.26023215 0.007465563 0.10105723
000360 98 db 3f be b7 60 97 bd 78 97 0f 3e 82 74 08 be
       -0.18736112 -0.07391494 0.14022624 -0.13325694
000370 48 5d 67 3d de 67 55 bd 66 76 92 bd 89 54 32 bd
       0.056485444 -0.05210101 -0.07151489 -0.04353765
000380 d8 9c d6 bb 7c 9e 74 be ea fb a5 bc 5a 5d 83 3d
       -0.006549459 -0.23888582 -0.020261724 0.0641429
000390 fb e0 1b bd 58 28 51 be ab 7a b1 3d cc a8 0f 3e
       -0.038056355 -0.20425546 0.08665975 0.14029235
0003a0 f4 7d 60 3d 64 80 7d bd be 96 5f bd 54 7f 19 be
       0.05480762 -0.06189002 -0.05458712 -0.14989978
0003b0 67 ed 28 be 78 51 8f be 15 bc 1a 3e 3f 6b 2a 3d
       -0.16496812 -0.27991843 0.1511081 0.041606184
0003c0 b4 c0 31 be 32 ea 8a 3c f7 5e 8e 3d d5 81 74 3d
       -0.17358667 0.016957376 0.06951707 0.05969413
0003d0 dc d5 e3 bd 61 f6 39 3d c7 b2 89 bd cd 2a 83 bd
       -0.11124775 0.04540098 -0.06723552 -0.06404648
0003e0 19 58 9d 3d b9 ba db bd 50 cf 7a bc af d4 bd 3d
       0.07682819 -0.10728974 -0.015308216 0.09269082
0003f0 85 02 64 bd 20 b7 a8 3d bd 9e 17 bd f6 c1 f2 3d
       -0.055666465 0.08238053 -0.03701662 0.11853401

actor.bias f4 [3]
000000 4c 61 05 be 62 8a 02 be 1e aa ad 3d
       -0.13025397 -0.12748101 0.08479713

critic.weight f4 [1, 128]
000000 da 05 8b bb d8 08 82 3c 01 76 aa 3a 56 cf 53 3b
       -0.004242641 0.015873358 0.0013005139 0.0032319627
000010 4c d9 42 3d d9 11 8c 3a a6 32 f0 39 fc d6 a7 3a
       0.04757051 0.0010686471 0.00045814103 0.0012805159
000020 2d 8d 2f b9 7f ff d6 3a 5a cb 4c 3b 25 86 2c 3b
       -0.00016741893 0.0016403048 0.0031249137 0.0026325074
000030 1c 66 b3 3a 13 62 8a ba d6 93 1b 3a 17 30 27 3b
       0.0013687047 -0.0010557793 0.000593481 0.0025510842
000040 c1 dd b1 ba 4d 20 b8 3a b8 7c 8b ba 34 da 26 bd
       -0.0013570116 0.0014047712 -0.0010642027 -0.04073544
000050 57 d3 a2 bb 7d c4 da 3a 69 c4 bb 3b 58 27 73 bb
       -0.0049690413 0.0016690638 0.005730201 -0.0037102308
000060 ff 26 ef 3a 1f 5e 0e 3b ab 73 28 38 f4 4e 04 3c
       0.0018245875 0.002172358 4.0162045e-05 0.0080754645
000070 8e e4 22 3c d8 8f c2 ba 99 fe 5b 3c 07 75 8f bb
       0.009942187 -0.0014843894 0.0134274 -0.0043779644
000080 72 25 c0 3b 7f 4c c0 3a 91 01 9f 3b 75 4b e4 ba
       0.005863839 0.0014671235 0.0048524817 -0.0017417507
000090 f4 e5 4f b9 9f 3b 2b bc ef da ce 39 64 fc 36 3b
       -0.00019826723 -0.0104512265 0.000394545 0.0027921433
0000a0 cc b8 8c bb 23 00 69 ba 17 89 9c 3b a3 cf 80 3b
       -0.0042944904 -0.0008888265 0.0047770846 0.003931002
0000b0 53 9d c9 3b 41 cb 2c 3b a2 bf 09 bb 1b ce 01 ba
       0.0061527877 0.0026366266 -0.0021018763 -0.00049516716
0000c0 bd bc 08 3b 70 73 e0 39 0c f1 f7 bb f4 56 af 3a
       0.002086445 0.00042810617 -0.007566577 0.0013377354
0000d0 4c 59 ca 3a 9f 01 13 bb 50 58 fb bb 95 84 93 bb
       0.001543799 -0.0022431386 -0.00767044 -0.004501889
0000e0 4c 74 b1 bb 86 d6 b2 3a eb fb f5 3b 33 62 5a b9
       -0.005415475 0.0013644255 0.0075068376 -0.00020826682
0000f0 ea f1 99 b8 84 7d 77 3b fb 2e c0 bb a6 12 b2 3b
       -7.3406685e-05 0.0037764022 -0.0058649755 0.005434352
000100 00 4c 81 ba e4 7e bb 3b e6 42 3d 3b d1 f0 a3 bb
       -0.0009864569 0.0057219137 0.0028878986 -0.005003073
000110 1b 8f 48 bb 3d 2c 64 3b fc d5 8f ba b8 de 33 3b
       -0.0030602876 0.0034816407 -0.0010973806 0.0027445983
000120 28 90 8a 3a 94 62 52 bb 8c 58 a3 bb fd 8a 93 3a
       0.0010571526 -0.0032102214 -0.004984921 0.0011256632
000130 b4 15 71 bb a6 97 b0 3a 94 ec 88 ba e6 92 8b 3b
       -0.0036786618 0.0013472929 -0.0010446482 0.004259455
000140 b8 b3 16 3c e5 f4 80 3b 65 3a 47 39 07 bf 9f bb
       0.009198122 0.0039354437 0.00018999873 -0.004875067
000150 6e 14 08 3b 5a a8 22 3a 26 a3 e0 39 84 34 66 3b
       0.002076413 0.0006204896 0.00042846164 0.0035126517
000160 6d 1d 4c 3b 1f 02 ed ba 9f 2f e7 ba 77 e8 8f ba
       0.0031145469 -0.0018082297 -0.0017638094 -0.0010979314
000170 d9 69 a4 bb 3c e1 05 3c d2 68 9c 3a af 99 eb 3a
       -0.005017501 0.008171376 0.0011933094 0.0017974878
000180 c3 28 8c bb 06 76 6f 3a ed 9e 04 bb 1e 24 5d ba
       -0.00427732 0.00091347133 -0.0020236329 -0.0008435863
000190 1f bf 58 bb a9 f0 1f 39 40 94 a3 3b 61 ad b2 bb
       -0.0033072901 0.00015253075 0.004992038 -0.0054527973
0001a0 30 7c 36 bb ab 18 aa bb c4 bf 95 3a 4e ba a8 3a
       -0.0027845018 -0.005190929 0.0011424948 0.0012872906
0001b0 13 3a 09 3b 0b 88 c8 bc 1b 44 b4 3b f9 70 bb 3a
       0.0020939156 -0.024478933 0.005501283 0.0014300636
0001c0 83 29 1c 3b b6 56 f0 ba 97 39 28 bb 65 3c 8c bb
       0.0023828454 -0.0018336389 -0.0025669092 -0.0042796605
0001d0 42 74 3f 3b e1 64 7e bb 24 10 fb ba 0e 30 60 3b
       0.0029213582 -0.0038817453 -0.001915459 0.003420833
0001e0 12 48 64 3a 3f fe 85 bb 16 d3 c0 ba 04 b2 ab bb
       0.0008708249 -0.0040891464 -0.0014711346 -0.005239727
0001f0 bb e3 f3 bb 92 77 d2 b9 29 9f f4 39 a9 9e 1f 3b
       -0.007442919 -0.00040143408 0.0004665789 0.0024356043
