model_params/model_params_20_heliFalse.pth (torch, 22872 bytes, 7 tensors)

rnn.weight_ih_l0 f4 [64, 6]
00000000: ec0f e73e c66f bebe 2046 89bb 658b 4a3e
00000010: 1d7c 2ebd 13a3 dd3c 2cd5 75be b341 ba3e
00000020: a881 59bd 90b2 94be 9624 aa3d cc5f b93c
00000030: 7f45 b8be 3f59 8a3e cc16 853d d61e e43d
00000040: f126 13bd 97f5 02be 8657 afbe a1ff 983e
00000050: 78ae 97bd 7566 debe eff8 833d 116c 0bbd
00000060: 912a 81be 3506 983e 7487 b43d 709a 6d3c
00000070: 55da 02bc 465e 1abe 8f6e 033f 7ec4 93be
00000080: 9c10 83bd 8bdc a83e 6b5b 58bc 78e7 f9bc
00000090: 276d 42be e166 543e 10fc 76bc 6bde 863e
000000a0: 83f3 d2bd 9209 e4bd aa72 a03d 3f9d 07be
000000b0: f651 87bd 7753 b3be 41e4 63bd 502b 46be
000000c0: ee01 db3e 55b8 93be 802a d2bb 1620 833e
000000d0: 4437 c43d 15d2 0d3e cd5c bebe b40f 9b3e
000000e0: e88f 483d 6dda 5dbe 7d53 9a3c bc3e 62bd
000000f0: eb00 9a3e f6e5 96be 98e6 413d e334 7d3f
00000100: 1b62 0dbd 2679 07bd 3543 993e 8ffc f63c
00000110: e6d0 87bd 613d 973e 7520 f83d 77cb 673e
00000120: 8b49 de3e 134f 83be de20 f7bd 543a 813e
00000130: 0224 683d a2c4 d2bc c434 9d3e afeb a0be
00000140: e092 8b3d 5814 d4be c2e9 793a df95 003e
00000150: 0fc2 c4be ebcf 903e 38af cb3d d4a5 efbe
00000160: 5a55 3bbd 06b4 70bd 7a89 073e 5764 74bd
00000170: b825 c23c a6bd 8dbf 7baf eabd e6fa 913d
00000180: d474 063e 9c17 a0be a014 2cbd 255a 1ebd
00000190: eef9 26bd 51ac b6bd 150a 76bd 25f0 0e3b
000001a0: b4b4 a7bd b5bd 71bf cf1a 28bd 2045 f3bd
000001b0: 2ef7 5b3e 91f3 38be 8c38 1fbd 67a4 973d
000001c0: 98d0 b8bd ce18 0abd efac 11be 45e9 d33b
000001d0: 4066 6cbb a6a2 8cbe 086f b9bc e6ad 75bd
000001e0: 91f7 72be 118a 383e 5040 e5bc 1dc9 6a3e
000001f0: 4bb2 a43d 8566 32be 6473 f53e af74 84be
00000200: 2c62 a2bd ddc2 75bd 60b8 0dbd f449 64bb
00000210: 22fd eebd 9c8f be3d 8675 fc3d b8ae 85bc
00000220: d050 10be e25a 05be 38f4 97bd 4ba4 d3bb
00000230: 14d9 9a3d df25 67bf 05f0 e8bd f5c8 0d3a
00000240: 1c45 eabe d16f d13e 9e53 cb3d 5b7a 10bd
00000250: 7ad6 84bd 33f7 2abe 8b46 543e eb1c a3bd
00000260: 2ee9 b8bd 2b4c 7c3d 5e61 97bd 0866 88bd
00000270: 14a1 c0be 648b 3d3e 603b f6bd 4a1f 2abd
00000280: 956e 883d a1ed 733d 16d0 643e 6393 77be
00000290: 824a c93d 798e 263e e910 84bc 6dab eb3c
000002a0: b1ec c4be 11f7 b93e 240e 653d af29 033e
000002b0: a908 f73d 5d85 e6ba 717b af3e 6fd3 b6be
000002c0: 18c4 f3bd 22e0 9c3c 12a6 0abe d3a0 8ebc
000002d0: 6199 acbe 59a3 543e 6089 eebb c9a6 05bd
000002e0: 5c81 7bbd e09b 32bd 9071 af3e fc51 9bbe
000002f0: 3c46 f6bd f373 1cbe 35ac 863d 41f8 b9bd
00000300: c400 d03e f8cb 56be c6c1 d03d 7020 0f3c
00000310: 1a67 27bd cd02 853d f096 c83e f363 1abe
00000320: 4662 c93d 81c2 9c3e 5991 cdbd e177 c83d
00000330: d9e8 c8be 1c22 8f3e 8653 f33d fac8 813e
00000340: 8147 5ebc abaa 42bc 6006 c1be a8b1 b23e
00000350: fcfa 8ebd 3086 e7ba be09 48bd e422 94bc
00000360: a230 c43e 2783 c5be ec30 09bd 0a81 133e
00000370: c7d6 acbd 6cbd 3b3d b54e 9e3e bd2a a4be
00000380: 70a7 ac3c 930f 1c3e db17 c0bc 1b90 593d
00000390: 6910 5cbe 6e5a 833e 56ed a8bd 72fd 21bf
000003a0: 49ac dcbd e93c bebd 4bbe aebe 7308 b93e
000003b0: cea7 d43d 4cfa 0ebf 61aa 813d 38f2 3b3d
000003c0: 7b4a b53e 0cf1 debe 1e2b fabd 4929 4f3e
000003d0: bd4a c4bc bf91 e03d 3282 95be 23e1 013e
000003e0: 0048 ae39 d369 983e 25a5 93bd b46b d5bb
000003f0: 4462 eabd a900 3d3e 4c42 64bd dbc6 a5bd
0.45129335 -0.3719465 -0.0041892678 0.19779737 -0.042598832 0.027055299 -0.240071 0.3637825
-0.053102165 -0.29042482 0.083077595 0.022628687 -0.3599052 0.27021214 0.06498489 0.11138694
-0.03592581 -0.12788998 -0.34246463 0.2988253 -0.07406324 -0.43437544 0.06443965 -0.034038607
-0.25227788 0.29692236 0.08814898 0.014502153 -0.007986625 -0.15075025 0.51340574 -0.2886085
-0.06399652 0.3298076 -0.0132053895 -0.03050588 -0.18986951 0.2074237 -0.015074745 0.26341566
-0.103003524 -0.11134638 0.078343704 -0.13243578 -0.0660743 -0.35024616 -0.0556376 -0.1935246
0.4277491 -0.28851572 -0.006413758 0.25610417 0.095808536 0.13849671 -0.37180176 0.30285418
0.048965365 -0.21665354 0.018838638 -0.05523561 0.30078825 -0.2947232 0.047339052 0.98908824
-0.03451739 -0.03307452 0.29934087 0.030149726 -0.06631641 0.29539016 0.12115566 0.2263621
0.43415484 -0.25646266 -0.12066816 0.25239813 0.056674965 -0.025728527 0.3070432 -0.31429812
0.068151236 -0.4142177 0.0009533429 0.12557171 -0.38429305 0.2828363 0.0994553 -0.46806204
-0.045735694 -0.058765434 0.13236037 -0.059666004 0.023699626 -1.1073501 -0.114592515 0.07127933
0.13130504 -0.31268013 -0.042011857 -0.038660187 -0.040765695 -0.089195855 -0.06006821 0.0021810618
-0.08188763 -0.94430095 -0.04104119 -0.11878419 0.2148101 -0.18061663 -0.038872287 0.07404404
-0.09024161 -0.03371506 -0.14226125 0.006467017 -0.0036071688 -0.2746784 -0.022635952 -0.059980296
-0.23727252 0.18021418 -0.027984768 0.22928281 0.08041819 -0.1742192 0.479396 -0.25870273
-0.07928881 -0.06000029 -0.03459966 -0.0034834119 -0.11669375 0.09304735 0.12327103 -0.016318664
-0.14093328 -0.1302295 -0.07419628 -0.006458794 0.075609356 -0.9029216 -0.11373905 0.0005408668
-0.4575585 0.40905622 0.09928058 -0.035272937 -0.06486221 -0.16695862 0.20730035 -0.079645
-0.090288505 0.061596077 -0.07391618 -0.06660086 -0.37622893 0.18510205 -0.12023044 -0.041533746
0.06661717 0.059552792 0.22345003 -0.24177317 0.09828664 0.16265287 -0.016121345 0.028768266
-0.3846183 0.3632131 0.05592169 0.1280887 0.12062199 -0.0017587353 0.34273866 -0.35708186
-0.11902636 0.019149844 -0.13539913 -0.017410671 -0.3371077 0.20765437 -0.00727956 -0.03262976
-0.061402664 -0.043605685 0.3426633 -0.30335987 -0.12025115 -0.15278606 0.06575815 -0.09080554
0.40625584 -0.20976245 0.10193209 0.008735761 -0.04086981 0.06494675 0.39177656 -0.1507719
0.09833197 0.30617145 -0.100374885 0.0978849 -0.3924015 0.2795571 0.11881165 0.25348645
-0.013566853 -0.011881511 -0.37700176 0.34901166 -0.06981465 -0.0017663892 -0.048837416 -0.018083043
0.38318354 -0.38576624 -0.03349392 0.14404693 -0.08439403 0.045834944 0.30919424 -0.32063857
0.021075934 0.15240316 -0.023448875 0.053115945 -0.21490635 0.2565493 -0.08248393 -0.6327735
-0.10775048 -0.092889614 -0.34129557 0.3613926 0.10383569 -0.5585067 0.06331325 0.045885295
0.35408387 -0.4354328 -0.12215255 0.20230593 -0.02396142 0.10965299 -0.29200894 0.12683539
0.0003324151 0.29768237 -0.07209233 -0.0065130834 -0.11444524 0.18457283 -0.055727288 -0.08094569

rnn.weight_hh_l0 f4 [64, 64]
00000000: caf0 893b a321 41bd 647e 34bc 3279 333e
00000010: f7b5 f8bd 6ed2 2e3c ef57 0e3d c607 20bc
00000020: a9de eaba b334 753d 186f e33d 6473 db3d
00000030: 15a2 b0bd 4629 fcbc a22b 29bc f87d cbbc
00000040: 9c8e c93d d1ad 913d d26e 413d 0934 b8bd
00000050: 2850 c23d e08f 133e 0e9f 41bd ff75 713d
00000060: 7cfb 0bbe 2387 d4bd d8c2 bf3d 65be 1a3d
00000070: 9aea 5d3d b5c0 cfbd 2171 08be c141 80bd
00000080: 1dd4 d23d ec69 aebd 4e87 8abd e8a8 75be
00000090: 575e 433d 5463 a9bd c368 0cbe 5039 9f3c
000000a0: f6f3 143d 35f1 a23b 4b76 93bb aa61 47bd
000000b0: e3e0 373d 8a8d d93d b39b 91bd 88a4 193e
000000c0: 2979 2cbc c470 343e da07 3abc 0e42 383d
000000d0: 15a0 f93d 27d8 93bd 0997 713d c4d0 cdbc
000000e0: 703b 35bd f5cb e7bd 2fe6 063e 2090 f8bd
000000f0: 147c abbd 0f30 debd befb 943d 092f e13d
00000100: 4efd 443d 5368 cc3d 6640 afbd 1459 7fbd
00000110: c4d8 cc3d 5f96 cabd 16b3 93bc 5824 553d
00000120: 82b0 2f3e 19b3 f43b 530d 483d 189d 74bd
00000130: 3409 adbd 0822 223d 9c36 e73c b091 cebd
00000140: 0984 81bd 9b65 1a3d 08f5 be3d 48bd 8c3d
00000150: 2252 7d3c 51dc 9d3c c684 1e3e e95f 853d
00000160: 0e81 a0bd 6418 4e3e 0478 00be b5cb b0bd
00000170: 3519 f6bd f12e c53d 4cfa 23bd 8d35 513d
00000180: 1b80 4bbd ae2f a33d 59a8 88bc 9235 0d3c
00000190: 9e54 acbd 0067 cf3c e61d 933d 7f52 093d
000001a0: 9410 a93d f697 1fbe 5cb9 1abd e3ff a63c
000001b0: d168 433c f9ad 8ebd 198a d9bd eb3b 16bd
000001c0: 9f79 e63d a1d2 16be 6014 6dbd d831 39bd
000001d0: be4a b0bc 2f0e 4bbd 95dc 08bd cd58 42bc
000001e0: 54cf bc3d b1e1 08bd 9134 14bc f957 913d
000001f0: 32f4 0a3e b8f4 0c3e 668d f9bd 6b82 233d
00000200: 023a 1dbc 2346 e93d 69d0 80bc e63b a1bc
00000210: 6593 aabd 4990 afbd bbe5 89bd 9227 9c3c
00000220: ac81 0abe 956c 23be dfb0 10be e1d4 82bd
00000230: 00fa fa3b 4a18 83bd 5c02 45bd 0fab 043d
00000240: eee6 4dbc 6492 a8bd e68e 42bd 0fd7 173d
00000250: a8fa 8c3d e002 04bd ddb0 1fbe 2397 983c
00000260: 6ef3 52bd 4d7d 43bd d514 c33d 7c76 0e3c
00000270: cf8a bebd df1b 283c c519 8bbd ce00 303d
00000280: 8162 f83d e113 cc3d b233 c1bc 53f1 f13d
00000290: 588b 1bbd d1a1 453e 7058 2e3d 8c82 77bc
000002a0: a6a1 d93d 82b3 debd a17a 963d be8a 923d
000002b0: 8f31 d3bc be44 5ebd d8f2 d2bc da2e f13d
000002c0: e24f de3d 8847 4ebd 61c1 f43c 67df 30bc
000002d0: 4340 a83d 7033 54be ae05 343c 9606 c13d
000002e0: 75d4 aabd b2a3 e93b 6a3a 163e 7bd8 ec3c
000002f0: 0822 2abd c5d3 8f3d 831c 0dbd 3dd5 023e
00000300: 0fb8 bdbd 75de 263e cee5 353e 2001 65bc
00000310: e043 043c ec21 73bd 2fc2 30bd 11d2 e4bd
00000320: c012 b1bc 7e39 ff3d dc32 1ebe 777d 1e3d
00000330: da5e a43d ed4c 15bd 0e99 68bc 131c 6c3c
00000340: 13b6 953d 0ea4 83bc 7b95 e4bb 5f75 ebbd
00000350: c782 fa3c b6da c1bd e4dd 113e 8ac8 acbd
00000360: 90b0 513e b1bd 1f3c 1d3a 183e a6ae d53c
00000370: 7ef4 613e 3c82 26be 1350 dc3d 2975 7cbd
00000380: 2323 93bd 2516 183d d83d a83d 4faa 283e
00000390: deba cd3c 6a2b f1bd 5354 4d3e d0a7 303d
000003a0: f382 a5be 35d0 cabc 7a2a 44bb c5a8 eb3d
000003b0: 84d6 533e 0655 f53c 9516 ab3d 046c 8ebe
000003c0: 0f04 64bc 63ed 14bd f75d cbbd ac2e 22be
000003d0: 9305 c43d 28ba 333e 745c db3d b1ae 873d
000003e0: c2ce 9d3d d646 a13c f62b 35be 7b13 303d
000003f0: a4af 853d 1aac b53d 3cf1 f0bd 5aea 91bd
0.0042096125 -0.04715122 -0.011016462 0.17526701 -0.12144082 0.010670288 0.03475183 -0.009767478
-0.0017919141 0.05986471 0.11105174 0.107153684 -0.08624665 -0.0307814 -0.010325344 -0.02484034
0.09841654 0.07113231 0.047224827 -0.089943 0.09487945 0.14410353 -0.047270827 0.05895042
-0.13670152 -0.10377338 0.09363335 0.03777923 0.05417881 -0.10144178 -0.13324405 -0.062625416
0.10294364 -0.08516297 -0.067640886 -0.23990214 0.04769739 -0.082708985 -0.13711838 0.019436508
0.03636547 0.004972602 -0.0045001856 -0.048677124 0.044892203 0.106226996 -0.071097754 0.1500417
-0.010526934 0.17621142 -0.011354411 0.04498487 0.12188736 -0.07218962 0.05898193 -0.025123961
-0.044246137 -0.113181986 0.13173746 -0.12136865 -0.083732754 -0.1084901 0.072745785 0.10995299
0.048093133 0.09980836 -0.08557205 -0.06234081 0.10002282 -0.09891962 -0.01802973 0.052036613
0.17157176 0.007467639 0.048840832 -0.05972013 -0.08449021 0.039583236 0.028224282 -0.100863814
-0.06324012 0.037694555 0.0932408 0.0687204 0.0154614765 0.019270094 0.15480337 0.06512434
-0.07837115 0.20126492 -0.12545782 -0.08632604 -0.120165266 0.09628094 -0.040033624 0.05107646
-0.049682718 0.079680786 -0.016681837 0.008618729 -0.08414577 0.025317669 0.07183437 0.03352594
0.08255115 -0.15585312 -0.03777443 0.020385688 0.011926846 -0.069667764 -0.10622043 -0.036678236
0.11253666 -0.14728786 -0.05788076 -0.04521355 -0.021520015 -0.049574073 -0.03341349 -0.011861992
0.09219232 -0.03341836 -0.009045736 0.070968576 0.13569716 0.13765228 -0.12185173 0.0399193
-0.00959635 0.11390331 -0.015724378 -0.019681882 -0.083288945 -0.08572442 -0.06733271 0.019061837
-0.13526028 -0.1595939 -0.14129971 -0.0638826 0.007659197 -0.06401117 -0.048097953 0.032389697
-0.012567265 -0.08231047 -0.04749956 0.03707033 0.068837464 -0.032229304 -0.15594812 0.018626755
-0.051501684 -0.047726918 0.09525458 0.008695241 -0.093038194 0.010260551 -0.067920245 0.042969517
0.12128163 0.09964729 -0.02358422 0.11813607 -0.037974685 0.1930001 0.04256481 -0.015106808
0.10626535 -0.10874082 0.07347608 0.07155369 -0.025780467 -0.054264776 -0.025750563 0.11776514
0.1085508 -0.050361186 0.029877366 -0.010795451 0.08215382 -0.20722747 0.010987682 0.09425084
-0.08341304 0.0071301097 0.1467072 0.02891182 -0.04153636 0.07022814 -0.03445102 0.12776656
-0.09263622 0.16295798 0.17763445 -0.013977319 0.008072823 -0.059358522 -0.043153938 -0.111728795
-0.021615386 0.12462138 -0.15449089 0.03869387 0.08025904 -0.036450315 -0.014196647 0.01441099
0.073101185 -0.016069438 -0.0069758273 -0.11496996 0.030579938 -0.09465544 0.14244801 -0.08436687
0.2047751 0.009749816 0.14865918 0.026084255 0.22065923 -0.16260618 0.107574604 -0.06163517
-0.07184436 0.037130494 0.08214921 0.16471218 0.02511352 -0.11775859 0.20051698 0.04312879
-0.3232647 -0.024757484 -0.0029932545 0.115067996 0.206873 0.029947769 0.083539166 -0.27816784
-0.013916983 -0.036359202 -0.09930032 -0.15838116 0.09571376 0.17551482 0.107109934 0.066251166
0.077054515 0.019687098 -0.17692551 0.042987328 0.065276414 0.088707164 -0.11764762 -0.07124777

rnn.bias_ih_l0 f4 [64]
00000000: 6256 eebd 270f 92bd d351 713d ff19 fdbc
00000010: 0013 28be 5b19 a2bd 2342 09bc ce8b 55be
00000020: e2dc 95bd c519 c63d 4a1b 263d b64b 3d3e
00000030: c128 863d c35f a73d 33d7 4dbe 7c47 02bd
00000040: 1b0e c4bb 6f48 033e 503c 13be 9f50 2cbe
00000050: f3c2 0abd 4d48 aebd 1055 193d 6209 c0bd
00000060: a10b 773d bf56 2cbd 6230 25bd 0dfe c53c
00000070: 2e3a 093d 22af dfbd 01de 22be 52bf 193d
00000080: 5e9f 02be f1e8 393d 0531 15be 4a9f 30be
00000090: ad44 4c3c 2ed3 423b 8837 babc 6acb 913c
000000a0: bfa1 3b3d 7e46 fabd d8b3 9e3d 3586 dabd
000000b0: 7668 05be 652f ddbd 1196 8d3e 8880 8a3d
000000c0: d545 3dbe b426 ebbd 8cb8 113d 865d a6bd
000000d0: c24b c6bb 31ee c53b 8443 85bd c378 8a3d
000000e0: bdfc 4a3e bafe 6d3e d7c0 50bd 4344 53bd
000000f0: 571e e3bb 2d43 1f3e 5337 063e b0d6 e73d
-0.1163757 -0.07131796 0.058915924 -0.030896185 -0.16413498 -0.079149924 -0.008377585 -0.20854113
-0.07317521 0.09672884 0.04055337 0.18485913 0.06550742 0.08172562 -0.20101623 -0.031806454
-0.005983127 0.128206 -0.14378476 -0.1682763 -0.033877324 -0.08509884 0.037434638 -0.0937679
0.060313825 -0.042074915 -0.040329345 0.024168992 0.03350275 -0.10922076 -0.15905 0.037535973
-0.12756106 0.045388166 -0.1456948 -0.17248264 0.012467545 0.0029727924 -0.022731557 0.01779719
0.04580855 -0.122204766 0.07749146 -0.10670129 -0.1302813 -0.108000554 0.27653554 0.06762797
-0.1848367 -0.114819914 0.03557639 -0.08123307 -0.0060515115 0.0060403575 -0.06507018 0.06761315
0.19822975 0.23241702 -0.050965156 -0.05157877 -0.006931107 0.1555297 0.13107042 0.11320245

rnn.bias_hh_l0 f4 [64]
00000000: 1add be3d d16c bebd 293d 79bd 31bc aa3d
00000010: f66a 8cbb 9f07 c2bc fb90 2abe 48de 6fbe
00000020: 0816 c33d d3ae f83d e650 5cbb 2c9c 833d
00000030: 9d3e 7dbd 7d76 a9bd 53df e3bd 1d5e d8bd
00000040: dc1a fcbd 618b 293e 80bf 3ebd dcd5 c4bd
00000050: 408c ccbd 5824 66bd 7188 68bc 1464 4fbe
00000060: f7e6 b43d 880d e5bc 0285 093d d8e8 443e
00000070: 2855 af3d 7c9f 94bd e349 e1bd 22e4 683d
00000080: 4f90 ce3d c09d b03d 18cb d53c 9c9e 013d
00000090: 723e f03d 6ec9 b73c 51ca d3bd a078 d23d
000000a0: 7602 1d3e 6f71 a83d c48f af3d 9258 3dbc
000000b0: 9ecb 3fbd a275 a53c 9516 fa3d 151e 91bc
000000c0: 37e8 a3bd a098 08be aa53 b13d 597f 0dbe
000000d0: 0446 7c3d 0f28 e73c 54b4 9fbb 01c5 a83d
000000e0: f97e 253e 849f 6f3e c766 313d c3cf 0e3d
000000f0: 923f c9bd e823 ca3d 70d9 8b3d 4279 9abd
0.093195155 -0.09298099 -0.060849342 0.08336676 -0.0042852117 -0.023685275 -0.16656868 -0.23424637
0.095256865 0.1214272 -0.0033617555 0.06426272 -0.06182729 -0.08274553 -0.1112658 -0.10564826
-0.123098105 0.16557075 -0.046569347 -0.09611103 -0.09987688 -0.056187004 -0.014192686 -0.2025302
0.088331155 -0.027960554 0.03357411 0.19229448 0.08561164 -0.07256982 -0.11000421 0.05685819
0.100861184 0.086238384 0.02609782 0.031645402 0.117306605 0.022434916 -0.10341323 0.10276914
0.1533297 0.08224761 0.08572343 -0.011556761 -0.046825044 0.020197693 0.122113384 -0.01771454
-0.08003276 -0.13339472 0.08658536 -0.1381811 0.06159021 0.028217344 -0.0048737917 0.082407005
0.16161717 0.23400694 0.043310907 0.034866106 -0.09826578 0.0987013 0.06828582 -0.07542659

actor.weight f4 [3, 64]
00000000: 9be1 18bf 97eb 473f 5fa6 2f3f 9556 163e
00000010: 65ae de3e 2ab8 79bf a8da 083e 43f1 da3c
00000020: dea2 28bf e4f2 673f 7bc7 1ebf 2aac 6abe
00000030: 7a2a 23bf 4924 28bf aac5 6f3f 608e 25bd
00000040: 1e1f 40be db1e ab3d af39 2c3c b9cc 063e
00000050: 8770 003e 9a62 3dbf 5211 453e 14e8 543e
00000060: 88dc c93f 27c8 50be 37e7 343f 4a9b 01bf
00000070: 6e10 aa3f 8f11 18bf 0935 0f3f c034 a9be
00000080: 234d 2ebf 2e27 4ebf 07a3 103f f2db a43f
00000090: 4e53 33bf 2d42 45bf 79b0 4c3f cc6f d43d
000000a0: b433 95bf 1a18 863e 7555 8ebd 2013 fe3a
000000b0: 06c2 f43e c11e 903b b9c1 41be 75b8 cbbf
000000c0: 2b71 023e d529 a13e 6ce9 f93e 692d dfbe
000000d0: 89a4 7cbe deb4 af3f 9a50 143e 9fd2 01bf
000000e0: 0bd0 d0bc 7a9d 15be 3575 4fbf cf78 843e
000000f0: aa5e 8dbe 22ba 91be 86b6 053e fc6c 7fbf
00000100: 183c 9a3f e234 45bf 8dec d6be c86f 0fbf
00000110: 11d5 babe 61f2 b13f a5f8 9f3c a2d5 5b3d
00000120: 091c 543f c2a5 a4bf d652 553f 579f b63d
00000130: 838f 823f 851e a43e d362 b4be dff5 10be
00000140: eb70 af3e c794 d2bd 9d98 a83e cc46 593d
00000150: 3436 1abe 3f3d 693f 78c1 fbbd 10c1 c3bd
00000160: 4fb9 c7bf 0e85 dcbc 9856 19bf 1928 0b3f
00000170: 6087 a4bf c287 563f b7a8 a3be ae45 c63e
00000180: 43ec 4c3f 0603 9c3e cd2b 4fbf 808d 5cbf
00000190: c0c2 8d3f f4f2 483f f382 e7be cec0 36bf
000001a0: 7519 ab3f 0647 77be 75da f3bd 1466 123e
000001b0: 1d80 b5be 5369 6e3e 6743 12be 6620 833f
000001c0: e041 d63d f587 a0be f8ce e7be c95e 8a3f
000001d0: a68f 853e d4b9 29bf b161 343e f6a8 563e
000001e0: 1255 d5bc 1159 cfbd 0543 633f 809f dabe
000001f0: 3b54 803e 2037 593e 574e 0cbe 1dfc 363f
00000200: d2d6 22be 02b9 94bd bf53 473d 6927 1abd
00000210: 2126 9cbd a436 f3bd 325b fc3a 6cbd 6abd
00000220: d053 aebd 091d 5abd b24a 033d 0afc 8d3d
00000230: 0471 93bc 21fd 89bd 6f47 7dbe 6f93 25be
00000240: 04ac 04bd 365b d33d a347 d2bd 5a3b 18be
00000250: 703b f9bd 2554 17be 7265 08bc 1ff2 2b3d
00000260: 4c45 42bc d1cf 0e3e 39ae 2dbe 7c06 9a3d
00000270: c1f3 33bd fc0a 513d 5bd7 03be bd52 bc3d
00000280: 55b7 d93d 197b 9a3d 2075 c1bb 7174 463d
00000290: cef7 efbd 7cb4 95bd 9335 12be 741b 4f3e
000002a0: ce1c c3bb f439 f2bd 8a43 513e 7baf db3d
000002b0: e0dd 0c3d 2b49 0ebe 137c 233e a501 92bd
000002c0: 77f0 77be 2375 5f3d 0b25 f0bc 41b6 4abd
000002d0: f1a1 943d 0363 9bbd abb6 3ebe dff7 303b
000002e0: b424 563e 54eb 043e 75b4 d9bc 0e1d d13c
000002f0: e96b 093d 0934 663e b8fb b0bd 6cfc 68bd
-0.59719247 0.78093857 0.6861324 0.14681466 0.43492427 -0.9754664 0.1336466 0.02672637
-0.65873516 0.90604997 -0.62023133 -0.22917238 -0.6373669 -0.65680367 0.93660986 -0.040418983
-0.1876187 0.083554946 0.0105118 0.13164033 0.12542926 -0.7397858 0.19244888 0.20791656
1.5770426 -0.20388852 0.70665306 -0.5062758 1.3286264 -0.5940179 0.559403 -0.33048058
-0.6808645 -0.80528533 0.5649876 1.2879622 -0.7004899 -0.770541 0.79956776 0.10372886
-1.1656404 0.26190263 -0.069498934 0.0019384362 0.47804278 0.0043981974 -0.18921556 -1.5915667
0.12738483 0.31477228 0.488109 -0.43589333 -0.2467214 1.3727071 0.14483872 -0.5071201
-0.025489828 -0.14610854 -0.8103822 0.2587342 -0.27611285 -0.2846232 0.13057908 -0.9977567
1.2049589 -0.7703382 -0.4197735 -0.5602994 -0.36490682 1.3902093 0.019527743 0.053670533
0.8285528 -1.2863085 0.8332952 0.089171104 1.0200046 0.32054535 -0.35231647 -0.14156292
0.34265837 -0.10282283 0.32928935 0.053046033 -0.1505974 0.9110908 -0.122927606 -0.09558308
-1.5603427 -0.026918914 -0.59897757 0.5435806 -1.2853813 0.838009 -0.31964657 0.38725036
0.80048007 0.30471057 -0.8092621 -0.8615341 1.1075058 0.7849572 -0.45217094 -0.71387947
1.3367144 -0.24148187 -0.11906902 0.14296752 -0.35449305 0.23282366 -0.14283524 1.0244262
0.104617834 -0.31353727 -0.45275092 1.0810176 0.26086158 -0.66299176 0.17615391 0.20962891
-0.026041541 -0.1012441 0.8877414 -0.42699814 0.25064263 0.21212435 -0.1370176 0.71478444
-0.1590226 -0.0726185 0.04866385 -0.03763524 -0.0762446 -0.11875656 0.0019253253 -0.057309553
-0.0851208 -0.053250346 0.032053657 0.06932838 -0.017998226 -0.06737734 -0.24734281 -0.16169523
-0.03239061 0.103201315 -0.1026757 -0.14866391 -0.1216954 -0.14778192 -0.008324968 0.04197895
-0.011857342 0.13946463 -0.16960992 0.07520768 -0.043933634 0.051035866 -0.1287512 0.091954686
0.10630671 0.0754301 -0.005903855 0.04845089 -0.11717187 -0.07309815 -0.1427825 0.20225316
-0.0059543615 -0.1182746 0.2043592 0.107268296 0.034391284 -0.13895099 0.159653 -0.0712922
-0.24212824 0.05455507 -0.029314538 -0.049490217 0.0725745 -0.07587244 -0.1862437 0.0027003211
0.20912439 0.12980396 -0.026575306 0.02552655 0.033550177 0.22480787 -0.086417615 -0.056881353

actor.bias f4 [3]
00000000: 08a6 44be 932f 803d 64ff ca3d
-0.19203961 0.06259074 0.09911993

critic.weight f4 [1, 64]
00000000: ddd6 19bd 90ee 173d 1037 4dbc 86e3 dc3c
00000010: d7d7 e9bc 2331 0a3d 1a71 f13c b51f 39bd
00000020: 7b38 1b3d 5913 d73c 7bdc 373b dc0a 983d
00000030: 84b8 9e3c 8e5a fb3b 60b3 60bc bac8 443c
00000040: e063 11bd b0f2 9b3c bbb1 38bd f917 03bd
00000050: 78ad e23c c984 dbbb d494 03bd 5655 45bd
00000060: 0402 ef3c ad3a 36bd 955a c53a 8453 ff3a
00000070: fb13 763d 0cda df3c a05f 09bd f895 773c
00000080: be10 18bd 44d3 44bd d31c 31bd 034a 26bd
00000090: 535e db3b 7205 ea3c fe4d 1bbd f3a1 853c
000000a0: dd47 86bc dbee 0c3c 8fc0 04bb 51a9 673a
000000b0: f6b2 07bd 0148 693d a6ae 6a3d e2f5 7ebb
000000c0: c3d1 9f3d b1e7 a7bc 0a6e 1c3d 6683 84bc
000000d0: 8be9 17bc 9738 073b 2c8f 813d 995a acbb
000000e0: 6905 a73c 6fdb 103d 7b50 243c 4218 ac3c
000000f0: 021b 4abd 8dc9 c53c 7ed6 633c 8046 bdbb
-0.037558425 0.037092745 -0.012525335 0.02696396 -0.028545303 0.033738267 0.029472876 -0.045196254
0.03789566 0.026254343 0.0028055 0.07423946 0.019375093 0.007670707 -0.013714641 0.012010748
-0.03549564 0.01903662 -0.045091372 -0.032005284 0.027670607 -0.006699179 -0.032124355 -0.048177086
0.029175766 -0.04448955 0.0015056903 0.0019479846 0.06007765 0.027325653 -0.03353846 0.015111439
-0.03712534 -0.04805304 -0.04324038 -0.040597927 0.006694594 0.02856705 -0.037916176 0.016312575
-0.016391689 0.008601869 -0.0020256375 0.0008837181 -0.033129655 0.056953434 0.057295464 -0.0038903882
0.07803681 -0.020496221 0.03819088 -0.016175937 -0.00927199 0.0020633095 0.06326136 -0.0052598235
0.020388322 0.03536552 0.010028954 0.02100766 -0.049342163 0.024143958 0.013906119 -0.0057762265
