model_params/model_params_20.pth (torch, 74912 bytes, 7 tensors)

rnn.weight_ih_l0 f4 [128, 6]
00000000: 61cb 683e 3163 4bbe 601d 70bb ca9f 9f3e
00000010: ddbe 52bd fa28 a5bd 46af 27be 5b71 133e
00000020: 00bf 8bba 4f28 a6be be11 933d af90 a63c
00000030: b80f bbbc 1251 6bbd e4f0 fa3c 5227 a23e
00000040: 65b2 9fbd 7fc8 2cbe 95d8 9ebd 6053 ee3b
00000050: cc71 933c b3d0 74be 1a24 b43c 3f07 903d
00000060: 77ec b9bd 553c b43d a2b2 26bd 165e 7cbd
00000070: 40f0 8c3c a856 c53c 6fc9 36be d4eb 8a3e
00000080: 48b7 703c 73e8 47bf 3727 b13d 0901 003e
00000090: 7b4c 483e b51d 18be 158c a13d 0dc2 973e
000000a0: 3428 93bd dbb2 f53d 7c9a 4d3e 3c20 f1bd
000000b0: 583f 3ebc b8a0 023f e815 1d3e 43df df3d
000000c0: 39b7 a53d 3765 2cbe 2e77 7f3d b521 ce3e
000000d0: 99ab 12be fc5e acbd 4d49 72be a814 693e
000000e0: d85c 9ebd 9d84 e8be f5ac ff3c d6f3 8a3d
000000f0: 331f 12be a9e0 543e 4cd2 b03c fe5e b2be
00000100: 35f0 e5bc 67c1 053e ab2e 5a3e dafa 02be
00000110: 7e53 eabc 342c c43e f17d fe3d 71b4 573b
00000120: 57d8 73be 5726 863e 242a a83c d308 38bf
00000130: 3a64 9bbd 89c4 0d3d d350 993e d575 80be
00000140: b236 9bbd 7f33 1a3f 985f 373d 7ef6 973c
00000150: acc5 76be 8284 3a3e 66ec 5ebd bd81 17bf
00000160: a09e 77ba ad15 df3b bf06 2b3e d060 9bbe
00000170: 5800 e63c 5223 593f d8ad 2c3d 58f1 a03d
00000180: 0603 0b3d 5a52 843d 90ed 103d aee2 8e3e
00000190: d86c a53c 2466 edbc 2d6f 303e 1ea8 1cbe
000001a0: 1e54 4a3d a3cb 7b3f d008 053e 8a80 973c
000001b0: ef4d 91bc 5533 cd3c 004d da3a bb83 2f3e
000001c0: 4a8f df3d 3cfe 4b3d 8630 e3bd ceab c43d
000001d0: 29a3 ad3d ca96 cdbe 24e1 023e 81f7 053e
000001e0: f7b1 773e 07c8 4ebd 34f6 07bd 23ff c93e
000001f0: 951a 8a3d 059a 993d 5597 93be ec35 993d
00000200: 7cbb 993c 942d 21bf fae5 b9bd fff5 4bbd
00000210: 248a 4c3e 16de 00be b487 de3c 9da3 fa3e
00000220: c499 9bbd b48c 91bd b8e2 d5bd 99d2 973b
00000230: 0ed5 8bbd bcfa d6be 855f 323d e758 4cbe
00000240: 7a00 303e fc5c 5cbd 6e80 84bd 2c0c f73e
00000250: 26e3 dc3d 3880 e73a 7615 14be 145e 883e
00000260: 6555 00bd f8f2 4ebf 3a19 6cbd 5d1c aa3d
00000270: 7810 56bd 66f3 c63d 6a4f 82bd b6c5 fdbe
00000280: 5929 ba3c 94d1 2f3d 8281 e03d 2bd9 6e3c
00000290: 05db 85bd 3aa5 403e d03e a43d 8d04 f9bd
000002a0: 19ae de3d 4e2d 283d 43b0 85bd 239a 56be
000002b0: c717 e43d 7b0a fd3d 8c2b 1e3e 1fb1 f1bd
000002c0: a986 b4bd 0053 073f 11f1 ffbb a5d2 87ba
000002d0: 476c e9bd 1969 32bc e2b2 1a3d 2e1c e9be
000002e0: 973c d83d d338 b13d 78e0 fa3c c4a8 323d
000002f0: ed60 68bd 2f48 cc3e 2c87 9b3d 5cdd 2f3e
00000300: 4573 0a3e c63b 9bbd aae0 653d d2a7 9dbe
00000310: 1d6f b0bd 0cec e13d 03be 4fbd 1d23 75bc
00000320: dbdd abbd dfe9 4abe 0976 963d 4608 803d
00000330: 2c22 843e 6823 6fbe 339f a53d 6355 2a3f
00000340: 1968 e73c e4e5 7fbd 679d dabc af19 0cbd
00000350: 6501 9d3d 8e04 7bbe e3fa f23d fc2e 583d
00000360: b77b 2dbe 0be0 023e bebf 1d3d 0cc3 78be
00000370: 7dd8 da3c c712 f43c a170 bdbc 255b e23d
00000380: 3841 9dbc 8a65 b1bd 4a97 663c b41d fb3d
00000390: 39da e73d 9550 3bbe a668 453d 480f 083f
000003a0: 0381 033d 9637 d3bd 5df7 f73c 9883 1e3d
000003b0: 220c 93bd cc10 fa3d 1794 e43d b154 a53d
000003c0: 40a8 07be 27ee 343e 9209 4a3d a180 12bf
000003d0: 175c 98bd 6167 1c3c 6567 463e c6f3 38be
000003e0: fdcc 4dbd 83eb 683f 075d 673d e70b d3bd
000003f0: 9104 eabd f244 993e 5924 9dbd 424f fbbe
0.22733833 -0.19862057 -0.0036638603 0.31176597 -0.051451553 -0.08064456 -0.16375455 0.1439871
-0.0010661781 -0.32452628 0.071811184 0.020332662 -0.022834644 -0.05745036 0.030632444 0.31670624
-0.07797698 -0.16873358 -0.077561535 0.0072731227 0.017998599 -0.23907737 0.02198987 0.07032632
-0.09078305 0.0880057 -0.0406977 -0.061613165 0.017204404 0.024089172 -0.17850278 0.27133048
0.014692135 -0.78089064 0.08650058 0.12500395 0.19560425 -0.14855082 0.07888047 0.29640236
-0.071854025 0.119970046 0.20078462 -0.11773726 -0.011611782 0.5102649 0.15340388 0.10931256
0.080915876 -0.16835485 0.062369518 0.4026009 -0.14323272 -0.08416554 -0.23660775 0.22761786
-0.07732552 -0.45413676 0.031210402 0.06784789 -0.14269714 0.20788826 0.021584652 -0.34838098
-0.028068641 0.13062058 0.21306865 -0.12791005 -0.028604265 0.38314974 0.12426365 0.0032913948
-0.23812996 0.26201126 0.020527907 -0.71888465 -0.07587476 0.03461126 0.29944476 -0.250899
-0.07578792 0.60234827 0.0447689 0.018550154 -0.24098843 0.1821461 -0.054424666 -0.5918234
-0.0009445939 0.006808004 0.16701792 -0.303473 0.028076336 0.8481952 0.042157978 0.07858533
0.03393843 0.0646102 0.035382807 0.27907318 0.020193502 -0.028979369 0.1722991 -0.15298507
0.049396627 0.983576 0.12991643 0.01849391 -0.017737357 0.025048891 0.0016655028 0.17140095
0.10916002 0.049803004 -0.110932395 0.09603082 0.08478386 -0.40154105 0.12781197 0.13082696
0.24188982 -0.05048373 -0.033193782 0.39452466 0.06743351 0.0750008 -0.28826395 0.07480988
0.018766157 -0.6296017 -0.09077068 -0.049795147 0.19974571 -0.12584719 0.027164318 0.48952952
-0.07597688 -0.07106915 -0.10443634 0.0046332595 -0.06827746 -0.4198817 0.043548126 -0.19955789
0.17187682 -0.053799614 -0.064698085 0.48251474 0.107855126 0.0017662114 -0.14461312 0.26634276
-0.03133144 -0.8083949 -0.057641245 0.08306191 -0.0522618 0.09714393 -0.06362803 -0.49564904
0.022724794 0.04292448 0.10962202 0.014578144 -0.06535915 0.18813029 0.08019793 -0.12159071
0.1087305 0.04105883 -0.0652776 -0.20957236 0.11137348 0.123555146 0.154463 -0.11801361
-0.08814747 0.5286102 -0.00781072 -0.001036246 -0.113976054 -0.010889315 0.037768252 -0.45529312
0.105584316 0.086534165 0.030624613 0.04361798 -0.05673306 0.39898822 0.07594141 0.17174286
0.13520534 -0.0757976 0.05612246 -0.307921 -0.08614943 0.110313505 -0.05071832 -0.014961985
-0.08391925 -0.19815777 0.07346732 0.06251578 0.2580732 -0.2335335 0.080870055 0.6653654
0.02824788 -0.0624751 -0.026686383 -0.03420418 0.076662816 -0.24513456 0.11864259 0.052779183
-0.16941725 0.12780778 0.038512938 -0.24293154 0.026714558 0.02979411 -0.023124995 0.11052541
-0.019196138 -0.08661945 0.014074156 0.12261525 0.113209195 -0.18292458 0.048195504 0.5314832
0.032105457 -0.103133366 0.03026932 0.038699716 -0.071800485 0.12210235 0.111610584 0.08072794
-0.13247776 0.17668973 0.049325533 -0.5722752 -0.0743944 0.009546132 0.1937538 -0.18061742
-0.05024432 0.9098436 0.056485202 -0.103050046 -0.11426652 0.29935414 -0.076729484 -0.49083906

rnn.weight_hh_l0 f4 [128, 128]
00000000: 2c33 04be 509c eb3c b9ef 4abd c10c 213d
00000010: 9a47 463d d424 033e 6500 423d e0bc c2bd
00000020: 90ac 59bc f9ec e63d 7ca3 afbb 236c ddba
00000030: f614 1b3d fc4d 0dbe 9ed5 163e 6b60 07be
00000040: d4fd a9bc 4e6e 9fbd 1db2 92bd 8566 333d
00000050: 3d12 30bc 4a18 253d d039 e0bd d9af acbd
00000060: d807 8cbd 89c8 5b3d b86a bc3d ba3e f6bc
00000070: 89dc b43d 8452 d4bd e86c 693c ded4 e7bb
00000080: b513 84bd eb22 d33d 1866 c9bd fe13 1bbd
00000090: f2f2 54bc ace9 80bb 46d6 07be 4e75 92bc
000000a0: 4012 923d b5af 9238 8672 723d 1040 0dbd
000000b0: 28f5 a53d c5bb 8d3d 628f 003e 8607 f43c
000000c0: bd8f e93c 1fdc bdbc 1538 f3bd 51c3 f0bc
000000d0: cddb 193d b9e6 01bd 00c3 43bd 856e 2cbd
000000e0: ce40 7dbd cf30 823c fb96 19bd 8cfb 453d
000000f0: af67 2cbd 69cf f73c 7499 813d d6ff f23c
00000100: 6398 4c3c a9af f73d 772c 8c3c 430b d43d
00000110: b522 273d e5e6 853d fbc1 c8bc 83b6 adbc
00000120: d858 a93d 8245 e73d 416b 4bbd 225b 10bb
00000130: c9e5 f3bc df80 373d 8b47 debc 6f97 01be
00000140: dbb4 c53d 829d 97bb 5037 c4bc 49d0 9a3c
00000150: 483e 5e3c 4ec7 8f3d ca8f 57bd e553 573d
00000160: 644d cdbd f20c aabd be31 f9bb 39a5 723d
00000170: 2147 be3d c39d 46bc d781 febc accb ad3c
00000180: 1ecf ed3c 668c debc 6561 063d 1e3b 7d3d
00000190: 6bb5 f3bc f9e2 b5bd b928 17bd 022a c03d
000001a0: 09c1 36bd 1fa9 cebd c95c 433d 1bef 3d3d
000001b0: fbd7 d8bc c80e 123d b19e 933d e0a8 703a
000001c0: 7309 4c3d eced a2bd fce7 b13c 4cc4 d2bc
000001d0: a71e 9b3c 3bd1 e93d b797 febb 9c20 053e
000001e0: 512e 86bd 2b9d 61bc bc67 c23d 253d f1bb
000001f0: dcfe 023c c465 f53d 2d52 a03d 7591 9f3d
00000200: 6e59 6d3c 71d4 463d 4a21 b73d b9d4 4bbd
00000210: 0cf5 96bd 1b0a 93bd 2ead 18bd 8e2d 8fbc
00000220: 0502 2dbd eaac 923d f9ad 8dbd 29d9 9cbc
00000230: de64 75bd 1050 9bbd 9335 bb3c ce9d 403d
00000240: be17 603d 510a 24bc b026 5e3d 02c8 ba3b
00000250: b055 6f3d c7c9 0b3d dd5c 10bd 79a7 a63b
00000260: 7c66 903d d34d feba e71d d43c 6388 87bd
00000270: 25f8 6abd b1fd 35bc d380 873c 4595 eebc
00000280: 5650 adbd a142 babd 3c2b b53d 15c6 1dbd
00000290: 056d 0fbd 0846 753c a67d c3bc bbf0 8a3d
000002a0: 18b6 24bb 9695 b33d 1987 3bbd 79cb 3a3d
000002b0: d109 5abc ba45 ab3d 5370 63bd 19d1 07bd
000002c0: bb7d 6c3d 604d 633c 8860 a0bd f22f afbc
000002d0: 58f3 b93c acbf c1bd 3fa2 753d b802 103d
000002e0: 51e0 ab3d 7372 6fbc 2ee9 aabd d057 293d
000002f0: 73a9 c1bd ba2a 8fbd 674f 94bc 92dd 9a3b
00000300: a6cb b6bc e30d 36bd 4706 b5bd 178f 94bd
00000310: 6975 633d 784e 553d a427 8f3d c45b 60bd
00000320: e59b 42bc 1514 48bd 2208 203c 3374 7bbd
00000330: b75d c9bc 2bef 633d 7db5 973d 314e adbc
00000340: f7c6 d43c 96fd adbc dc0c 0abd f533 83bc
00000350: 19ce cc3c 59d1 90bd 6cbe 69bd b85a c9bc
00000360: 4f6b 84bc fea2 aabc 1ac0 82bd 8908 b2bd
00000370: 869e 173b a870 ba3c 7125 5bbd efcf cfbc
00000380: 7761 993d 6910 adbd b520 853d 0686 dbbd
00000390: 64d1 7fbb aebc 6f3d bf56 3abd a855 91bd
000003a0: e890 91bd 692f 22bd 1ba0 e33c 718b 27bd
000003b0: 9a2c 84bd 0a4e 9f3c 0e88 09bd 8965 f8bb
000003c0: 72d7 9e3a 7b8f 9a3b f5ca 0f3d 51ee c53c
000003d0: 7332 d13b 7598 353d da23 42bd 70d1 05bd
000003e0: 5be0 813d 36e3 c9bd 6efa 15bc b9ef f2bc
000003f0: 2ce3 cb3d 4cfb 4cbd ffe6 20bd ced5 e33b
-0.12910146 0.028761059 -0.049545024 0.039318804 0.04840813 0.12807018 0.047363658 -0.09508681
-0.013285771 0.11275668 -0.005360065 -0.0016893189 0.037861787 -0.1379928 0.14729926 -0.13220374
-0.020750917 -0.07784711 -0.07162879 0.043798942 -0.010746536 0.040306367 -0.10948527 -0.08431978
-0.068374336 0.053658042 0.092000425 -0.030059207 0.08831126 -0.10367301 0.014247157 -0.0070749363
-0.06449071 0.103093944 -0.09833926 -0.037860863 -0.012997376 -0.003934106 -0.13265333 -0.0178782
0.07132387 6.9945505e-05 0.05919125 -0.034484923 0.081034005 0.0692058 0.12554696 0.029788744
0.028510923 -0.023176251 -0.11875931 -0.02939001 0.037563134 -0.031714175 -0.04779339 -0.042097587
-0.06182938 0.015892414 -0.0374975 0.048335597 -0.042091068 0.030250268 0.06328097 0.029663008
0.012487504 0.120940514 0.017111046 0.103537105 0.040804584 0.0653818 -0.02450656 -0.021205192
0.08268899 0.112925544 -0.049662832 -0.0022026976 -0.029772656 0.044800635 -0.027133724 -0.12655424
0.09653636 -0.0046269307 -0.023952156 0.018898146 0.013564654 0.07020436 -0.052627362 0.052570242
-0.10024527 -0.0830325 -0.0076048067 0.0592396 0.092909105 -0.012122574 -0.031067772 0.021215282
0.029029425 -0.027166557 0.032807726 0.061823957 -0.029749593 -0.08881182 -0.03690407 0.09383012
-0.044617686 -0.10090851 0.04769591 0.046370607 -0.026470175 0.035658628 0.07208002 0.0009180438
0.0498137 -0.07955536 0.021717064 -0.025728367 0.018935515 0.11416861 -0.0077695507 0.1300072
-0.06551803 -0.013770382 0.09492442 -0.0073620253 0.0079953335 0.11982301 0.07828174 0.077914156
0.014486654 0.048542444 0.08941896 -0.049763415 -0.07370958 -0.07179662 -0.037274532 -0.017477777
-0.042238254 0.07161887 -0.06917948 -0.019146519 -0.059910648 -0.0758363 0.022852695 0.047025494
0.054710142 -0.010012225 0.054236114 0.0057001123 0.058431327 0.034127977 -0.03524481 0.0050858823
0.07050797 -0.0019401856 0.025893165 -0.066178106 -0.057365555 -0.011107848 0.01654092 -0.029123912
-0.084625885 -0.0909474 0.08846137 -0.038518984 -0.03501608 0.01497031 -0.023863625 0.06784197
-0.002513295 0.08768766 -0.045783136 0.045604203 -0.0133080045 0.08362909 -0.055527043 -0.033158395
0.057737093 0.013873428 -0.07830912 -0.021385167 0.022699043 -0.09460387 0.059969183 0.035158843
0.08392394 -0.014614689 -0.08345257 0.04134351 -0.09456148 -0.06990571 -0.018104268 0.0047261203
-0.022313904 -0.044446837 -0.08839088 -0.07253855 0.055531893 0.052076787 0.06989983 -0.054775015
-0.011877988 -0.048847277 0.009767564 -0.061390113 -0.02458082 0.05564801 0.07407663 -0.021155449
0.02597378 -0.021239083 -0.03370367 -0.016015986 0.025000619 -0.0707118 -0.057066366 -0.02457939
-0.01616445 -0.020829674 -0.06384297 -0.08693034 0.0023135259 0.022758797 -0.053502504 -0.025367705
0.07489293 -0.084503956 0.06500379 -0.10718922 -0.0039034719 0.05852955 -0.045492884 -0.07096416
-0.07107717 -0.039595995 0.027786305 -0.040904466 -0.064538196 0.019446392 -0.033577017 -0.0075804633
0.0012118651 0.0047168112 0.035105664 0.02416149 0.006384188 0.044334847 -0.047397472 -0.03267044
0.063416205 -0.0985779 -0.009153945 -0.029655324 0.09955439 -0.050044343 -0.039282795 0.0069529777

rnn.bias_ih_l0 f4 [128]
00000000: 3137 f5bd 4329 a33d b40d 23be 28b6 ae3b
00000010: ecc7 bcbb 830f 9fbc d19e 023d 5be5 0f3e
00000020: bffc 32be d60f b3bd a49e c1bb dd9f cf3d
00000030: b4e1 2fbd f1c5 6bbd 429b ecbd 2334 1fbd
00000040: 69a7 24be 9cee b83c 8de2 013e bc7d 213e
00000050: 74d4 ce3b 549f 3cbd 49a8 da3b 53d3 ca3c
00000060: b90c 133e 55a0 a93a c299 1cbd ff02 e8bd
00000070: c268 633e b2e8 e33d ddc6 f4bc a837 223e
00000080: 09a7 7c3c 4805 4abd 3e35 ad3c f102 d43d
00000090: 99c1 f43d 61e4 003e f0e8 c3bd 8394 363e
000000a0: 41e1 8cbd 1876 95bd 4b06 b0bc 9f6c afbd
000000b0: 43b0 99bc 3f78 e8bd 8195 023d 24fb 5abe
000000c0: 4da0 f3bd 8079 e9bd a4e6 01be 9ab6 4f3b
000000d0: 12af be3d 9ca3 1bbd 4e1e 82bd fd49 853d
000000e0: 0b1b 273e a0ee 2ebd e9ba 073d 8679 51bd
000000f0: a4e2 1ebe 8e9b 0a3d c6a0 82bc fbd0 313e
00000100: a67f 11bd 9446 85bd dd7d b03c a7b3 4f3d
00000110: 1291 02bc 3b68 18ba de92 ca3d c8bf 0d3e
00000120: 2d03 c4bd a627 eabb bbc0 393e 0f58 153e
00000130: 1b70 313e dd0c a1bd 9620 ba3d 24d7 e13c
00000140: bdfd 84bc 8032 15bd b33f 3e3d 3169 a73c
00000150: a0dd c6bc b2bc 83bd 2e37 293d 20f8 8a3c
00000160: f924 7e3d 3e85 ac3d 8e6c abbd c928 ba3d
00000170: 5d20 2c3e 7984 cb3d f1d3 233d 8aaa d2bd
00000180: 0855 f7bc 9ddb 1a3e b4f5 013e 3f1f 7bbc
00000190: c2bb e1bd 921a 883c dfe4 3dbe 045c 3abd
000001a0: e34e 003e dd86 173d 0018 43bd b5af 103e
000001b0: 823a 02bd f0d3 173d 00d2 d23c 821b f0bd
000001c0: 1439 afbc b73b 70bd a679 12be dcd6 c1bd
000001d0: ba38 58bc 0683 3dbd 92a4 dc3d 2a64 c5bc
000001e0: 49d5 87bb 8927 e7bc 42ed 36bd ed1f bbbd
000001f0: ccca 0bbc b7b0 b63d 57fa 23be 1fab 4fbd
-0.119734176 0.079668544 -0.15923196 0.0053317733 -0.005761137 -0.019416576 0.03188974 0.14052336
-0.17479227 -0.08743255 -0.005908804 0.101379134 -0.042939857 -0.05756182 -0.115530506 -0.03886808
-0.16079487 0.022574715 0.12684079 0.1577062 0.0063119475 -0.046050385 0.006672893 0.02475897
0.14360322 0.001294146 -0.038232572 -0.113286965 0.2220793 0.111283675 -0.029879982 0.15841544
0.015420684 -0.049321443 0.021143552 0.103521235 0.11950988 0.1258712 -0.09565914 0.1783009
-0.06878901 -0.07297915 -0.021487376 -0.0856564 -0.018760806 -0.1135106 0.03188086 -0.21384865
-0.11895809 -0.114001274 -0.12685639 0.0031694532 0.09310736 -0.037997827 -0.063534364 0.06508253
0.1631891 -0.04270804 0.033137236 -0.051141284 -0.15516144 0.033839755 -0.015945803 0.17364876
-0.035522126 -0.06507602 0.021544391 0.05070844 -0.007969158 -0.00058138714 0.09891294 0.1384269
-0.09570918 -0.0071458397 0.18139927 0.14584373 0.17327921 -0.078637816 0.090882465 0.027568407
-0.016234273 -0.036425114 0.046447467 0.020435901 -0.0242756 -0.06432475 0.04131239 0.016964018
0.06204698 0.084238514 -0.083703145 0.090898104 0.1680922 0.099373765 0.039997045 -0.10286434
-0.030191913 0.15122838 0.12691385 -0.015327274 -0.1102214 0.016614232 -0.18544339 -0.04549791
0.12530093 0.03699385 -0.04763031 0.14129527 -0.03179408 0.037067354 0.025734901 -0.11723997
-0.021389522 -0.0586507 -0.14304218 -0.09464809 -0.013197118 -0.04626753 0.10773577 -0.024095614
-0.0041452986 -0.028217094 -0.04465986 -0.09136949 -0.008532237 0.089204244 -0.16013466 -0.050700303

rnn.bias_hh_l0 f4 [128]
00000000: 1517 f4bd 04d6 013e 4798 64bd ea0f ad3d
00000010: abb4 3d3c 66d8 873a 3d6e ae3c 1a98 ea3b
00000020: b6a8 07be 84f5 493d 8960 213d eb96 833d
00000030: d8ce 8a3d 0782 853d a208 f7bc b368 92bd
00000040: 877b 2ebe 5b86 0f3d 3e95 043e 3566 923c
00000050: c3f7 853d 1c00 dcbd 65ee f6bd 2777 a93c
00000060: 962b 033d 9bc7 313d 0787 84bc f835 b3bc
00000070: 147c 393e 67a5 4ebd 1b5d 053e b136 0a3d
00000080: 58cd 9a3d d8fa 863d 81e7 bc3d 757f 013e
00000090: 9b21 3f3d 3431 0b3e 8f3a aebc 5e28 f93d
000000a0: a352 fcbc eb14 073d 3c61 89bd 1853 d43b
000000b0: 3937 f2bb a1a2 fbbd 1b15 d4bc e317 c8bd
000000c0: c7b5 cc3c 0d18 07be 536c 183b a10f 46bd
000000d0: 314c 313d 8367 a7bc e6e5 28bc 37e0 d7bc
000000e0: e849 023d 7ae9 a1bd 7b2c 53bd d4f3 17be
000000f0: cc6f 9bbc 1de8 823d 2477 613d c39d 3d3e
00000100: 9dd3 78bb 288f abbd cdf2 9dbd ec0f f13d
00000110: e330 2b3d c0d3 233d 1a46 e73d 481a a53d
00000120: b3c9 01be 6e19 8cbd bed3 fb3d 8ba9 383e
00000130: 0eb0 d23d 6f3d aebd 3bb6 0e3e 2384 8a3d
00000140: 58d4 16be 82cd e33c 62fa 303e 604f 68bc
00000150: 8ce0 933d 4b99 423c 1fb1 dd3c 62e3 febd
00000160: eadd 473d 6f48 17bd d691 12bd 32ce 6abc
00000170: c795 273e 111e a43d 3db5 c13c b7ac 2fbe
00000180: 1340 913b bde4 5b3e d075 0c3e 069a 393d
00000190: c103 23be d457 ca3d 11a1 2fbe ecf5 a9bd
000001a0: e4d4 17bd 50b2 2239 d6d3 16be 97fd a43c
000001b0: c79a b93c 7ec7 b63d 73d7 76bc 8fd1 ad3c
000001c0: a166 6e3c d994 003d 91b7 87bd 0410 73bc
000001d0: 445d 67bd 634b 8b3d 7e4c af3d 758a 0f3e
000001e0: 51ce f03d 78d0 bf3d 849d 353d e0ae 89bd
000001f0: 5477 02be 0f26 dd3c 3dea dfbd e963 c43d
-0.11918465 0.12679297 -0.055809285 0.08450301 0.011578719 0.0010364174 0.0212928 0.007159245
-0.13247952 0.049306408 0.039398704 0.0642527 0.067777336 0.065189414 -0.030155484 -0.07148876
-0.1703931 0.03504024 0.12947556 0.017871002 0.065413974 -0.10742208 -0.12057189 0.0206867
0.03202399 0.04340325 -0.016177667 -0.02187632 0.18113738 -0.05045071 0.13023798 0.033743564
0.075586975 0.065908134 0.09223843 0.12646277 0.046662908 0.13592988 -0.021268157 0.121659026
-0.030801123 0.032978933 -0.06707999 0.006479632 -0.007391837 -0.122868784 -0.02588897 -0.09770181
0.024989022 -0.13192768 0.0023257926 -0.04835475 0.043285552 -0.0204351 -0.010308718 -0.026352031
0.031808764 -0.0790586 -0.05155609 -0.14839107 -0.018974207 0.06391928 0.055045262 0.18517213
-0.0037967928 -0.08376914 -0.07712326 0.11770615 0.04179467 0.039996862 0.11292668 0.080616534
-0.12674598 -0.06840788 0.12296246 0.18033426 0.10287486 -0.08507811 0.13936703 0.06763484
-0.1472944 0.027807955 0.17283013 -0.014179081 0.07220563 0.011877368 0.027061997 -0.124457136
0.048795618 -0.036934312 -0.03578361 -0.014331387 0.1636573 0.08013547 0.023645991 -0.17155729
0.004432687 0.21473975 0.13716817 0.045312904 -0.15919401 0.09880033 -0.17151286 -0.08298859
-0.037068263 0.0001551595 -0.14729246 0.020140452 0.022656811 0.08924769 -0.0150660155 0.02121809
0.014550836 0.031391952 -0.066268094 -0.014835361 -0.05648543 0.06801488 0.085595116 0.14017661
0.11758102 0.09365934 0.04433967 -0.06722808 -0.12740833 0.026995687 -0.10933349 0.09589369

actor.weight f4 [3, 128]
00000000: e523 e7bd 5427 3c3e 66ea 58bd beda 213d
00000010: 1776 503d 0717 843e 4ee4 b7bd 0e67 66be
00000020: e088 0cbd 79ea 293e aec1 9f3d b485 79be
00000030: e536 e03e f3b5 f1be 3b63 003f 0ee0 b4be
00000040: bb2b b83c 7332 a6be 87f9 48bc d59a 343e
00000050: 2c5d eebd 8f5e 773e 022c 59be 918f 0c3e
00000060: 0261 2dbe 9793 5b3e 155a 473e 46f8 6c3d
00000070: 94a3 e1bd 932b c0bd 6503 633e 14b3 f9bd
00000080: c5af 6bbc 2dbe 66bc 084f d4be 44cc 9dbd
00000090: 7fa6 433e 9494 513a 6d99 71bd 651e f3bd
000000a0: 31d2 3c3e bad6 99be 83eb 1f3e 8287 a73e
000000b0: 4cf3 473e 9fdf a0bc dd16 9b3e 98d9 a63d
000000c0: f00c 47be edee 023e ec4e f7bd 8201 933e
000000d0: 73b3 b53d 00ab 823e b47c 0fbe a816 b63d
000000e0: d913 95be ddf9 b93e d15c f93d 0082 4f3e
000000f0: 5766 99bc 81ba 8c3e 2f0f d73e ea10 603d
00000100: 80f9 973e 1026 9f3e 3f79 683e 300c 3e3c
00000110: 5c8c 3f3e 8239 8a3e accf 9bbd 772d 253d
00000120: d0b4 d93e 8f64 c03e 5d84 ac3c cedd 91be
00000130: cc30 073d 6cf4 10be e29c 62be 8fda 89be
00000140: bf52 133f b7b0 87be 1272 9abe 24e7 b73e
00000150: d3d5 453e d8f6 d13e 347e d0be a3eb d13e
00000160: c19a 5abe 1e7e f9be 9ba2 3f3e cc30 aabd
00000170: 3c43 d5bd b87b a8be d645 63be 75cb 233e
00000180: a178 d23e 136e 6e3c ee05 8cbe 63f5 c13e
00000190: 6dff b0bd ae45 d2be e0dd 5c3e 65e2 b83e
000001a0: 39d4 88be 1703 a1be 0709 cb3d f258 b5bc
000001b0: 9533 da3e 2269 13be 2a0d e53e 6b27 713e
000001c0: 92bc f6bd 4858 fe3b 4006 a33e 886c 61be
000001d0: 7a6a b83e f7c8 9b3c 91d7 873c 6e8a 4a3d
000001e0: d4f0 8ebe ce20 aa3e a31b fe3d b87c e6bd
000001f0: 2d55 3bbe 9278 3e3c 49f5 d2bd dc25 d9bd
00000200: b8dd 513e f48a 48be 0e9d 603c 7fe8 08be
00000210: d0e8 b9bd 4635 c0be bbf2 2d3e 017b 9f3e
00000220: fc6a 2e3e 602a 46be 869a 5dbe 1a95 433e
00000230: b0de 23bf d64b c53e d4e8 c9be c32e 0b3f
00000240: 645f 873d c2eb c33e 42ed b03d 08df 34be
00000250: d927 0b3e 6df6 a5be 4a35 853e af93 00bd
00000260: eecd 2e3e 0f0c ddbe be43 acbc c35b ce3d
00000270: a1e1 d03c afa4 ec3d 7bd8 0ebd b225 a23c
00000280: 0497 37bd 3c65 09bd 617a ae3e 82dc b5bd
00000290: b322 f9bd f4a4 7f3d 9c65 853e 78ed 24bd
000002a0: c999 c5be ce5c e03e c541 87be 8043 1dbe
000002b0: 5edb 69be 4a3e 8a3d 047f 11bf e658 d53c
000002c0: 970c 0b3e 8734 0cbe ad80 373e 3cf0 bebe
000002d0: a28c 54be f992 44be d941 663e 0f96 053e
000002e0: 5639 b43e ff85 9bbe c571 0cbe b2e5 cbbd
000002f0: 1dff ef3d dec3 3fbe d8cd cdbe b622 e13c
00000300: 19bb 59be 426e 3cbe 876f 88be cb67 c2bd
00000310: ff63 babd aff4 61be 522c 513e c9a2 49be
00000320: 766d dbbe 76b0 84be 8c20 853a 3a0a 053d
00000330: 3779 86bd 8f5c 8d3d 6ecf 163e f803 b43e
00000340: a021 c0be bfac 863e 3bff 1e3e 8d6c 57be
00000350: 2aac 31be d670 9ebe 1561 983e 6cc0 ffbe
00000360: 97c3 923e 5f1d 673e a7ad b8be 20a5 8f3d
00000370: f09e eebd 0f62 503e 267c ce3d 6586 c9bd
00000380: dc94 9fbe ddf5 053d 4a79 1d3e 9339 bbbe
00000390: 173a 9a3b a41a 593e 7236 05be 7870 8abe
000003a0: 76a8 e33e bbee d63e 7885 a4bd f41f 9e3d
000003b0: 7825 92be 92a2 a33d 5f04 cabe 0da7 0dbe
000003c0: 07df 8f3e 10e2 c63d 5da3 89be 956f c53e
000003d0: 24be f2be 1ce0 f4bb 32a1 2dbe 932d 6fbe
000003e0: 03ef 783e 12be a2be 9ed6 79be 8f4b 123e
000003f0: adcb a23e 015a 13bd d248 9f3d 6abf e83d
-0.11286143 0.18374377 -0.052957915 0.03951525 0.05089387 0.25798818 -0.089790925 -0.2250025
-0.03431022 0.1659335 0.07800613 -0.2436741 0.4379188 -0.4720913 0.50151414 -0.3532719
0.02248179 -0.32460365 -0.012266523 0.17637189 -0.11638865 0.24157165 -0.21208194 0.13726641
-0.16931537 0.2144302 0.19467957 0.05785396 -0.11017528 -0.09383311 0.22169264 -0.121923596
-0.014385168 -0.014083427 -0.41466546 -0.07704976 0.19106482 0.0007994857 -0.05898421 -0.11871032
0.18439557 -0.30046636 0.15617184 0.32720572 0.19526404 -0.01963788 0.3029088 0.081469715
-0.19438529 0.12786455 -0.120756 0.28712088 0.08872118 0.25521088 -0.14012414 0.0889104
-0.29116705 0.36323443 0.121759064 0.20264435 -0.018725557 0.2748604 0.42003772 0.05470363
0.2968254 0.31083727 0.22702502 0.011599585 0.18705887 0.26997 -0.0760797 0.04032656
0.4252076 0.3757672 0.02105921 -0.28489536 0.03300552 -0.1415574 -0.22130159 -0.2692456
0.57548136 -0.2650201 -0.30165154 0.35918534 0.19319849 0.4100864 -0.40721285 0.4100009
-0.21348096 -0.48729032 0.18714373 -0.083100885 -0.104132146 -0.3290689 -0.22194609 0.15995581
0.41107658 0.014552611 -0.27348274 0.37882528 -0.086424686 -0.41068786 0.21569014 0.36110225
-0.26724413 -0.3144767 0.09913831 -0.022137139 0.4261748 -0.14395574 0.44736606 0.23550193
-0.12047686 0.007761989 0.31840706 -0.22014058 0.36018735 0.019016726 0.016582282 0.049448423
-0.27918112 0.33228153 0.12407615 -0.11254257 -0.1829421 0.011625426 -0.10300691 -0.10602924
0.20494735 -0.19584256 0.01370932 -0.1336994 -0.090776086 -0.37540644 0.16987126 0.31148532
0.17032999 -0.19352102 -0.21640977 0.19099846 -0.6401167 0.3853442 -0.39435446 0.5436823
0.06609991 0.38265806 0.08639003 -0.17663205 0.1358942 -0.3241457 0.2601722 -0.031390842
0.17070743 -0.43173262 -0.021028396 0.10076096 0.025498213 0.115548484 -0.03487442 0.019793365
-0.044821754 -0.03354381 0.34077743 -0.08879949 -0.121648215 0.06241317 0.26054084 -0.04026553
-0.3859389 0.43820804 -0.26417366 -0.1535778 -0.22837588 0.06750162 -0.56834435 0.026043367
0.13579021 -0.13691913 0.1792018 -0.3729266 -0.20756772 -0.1919669 0.22486056 0.13045524
0.35199994 -0.30375668 -0.13715275 -0.0995592 0.11718581 -0.18727061 -0.4019611 0.027482372
-0.21262778 -0.18401435 -0.2664759 -0.09492453 -0.09101104 -0.22065996 0.20427063 -0.19691004
-0.4285695 -0.2591588 0.0010156794 0.032480456 -0.06566089 0.0690242 0.14727566 0.35159278
-0.37525654 0.2630367 0.1552705 -0.21037503 -0.17350832 -0.30945462 0.29761568 -0.49951494
0.28664848 0.22569798 -0.36069986 0.07013917 -0.11651409 0.20349906 0.10082273 -0.09840087
-0.31168258 0.032705177 0.153783 -0.36567363 0.004706632 0.21201569 -0.1300905 -0.27038932
0.44464463 0.41979012 -0.0803327 0.07720938 -0.2854421 0.07989992 -0.3945646 -0.13833256
0.28099844 0.09711087 -0.2688245 0.38561693 -0.4741069 -0.007473005 -0.16956022 -0.23357229
0.24309926 -0.31785637 -0.24398276 0.14286636 0.31796017 -0.035974506 0.07777561 0.11364634

actor.bias f4 [3]
00000000: 4c57 04be e64c ccbd 5c7a ec3d
-0.12923926 -0.09975605 0.11546776

critic.weight f4 [1, 128]
00000000: 5a11 3fbb d137 643d 85c2 56bd c6ca 89b9
00000010: 75e2 163d 1ea2 9e3c 9e25 163d 6885 423d
00000020: 4c18 fcbd ec61 43bc beff 4cbc f44f 74bc
00000030: 5051 703c 7111 8dbc d09e 9cbc 36a7 59bc
00000040: 9084 71bd 6145 553c d30e 593d fcf2 873c
00000050: 75c8 bc3c b369 ffbc e914 8fbc ad49 84bc
00000060: c697 e73b ed9b 3e3a 4400 833c f0b6 4939
00000070: 8432 f33d b3eb 8e3c c6d2 583d b92c 243d
00000080: 432b c53b 3648 e0ba 575f 363c 3821 923d
00000090: 3e75 613d 62aa 8d3c c2cb 9ebc 4c41 853d
000000a0: 7228 05bd 9819 aabb cc45 c43b 7977 783c
000000b0: efca 9d3c cab9 44bd 2e0d 97bc b7e0 97bd
000000c0: 1bb0 1abd 61bf 29bd 3e34 27bb e3df 6cbc
000000d0: d8c5 363c f323 80bc e4c5 97bc beda 833c
000000e0: 75e5 ce3c 8740 edbb 5c8d 23bc c037 dcbc
000000f0: 40fb 943b 791e 0d3d e347 6ebc 062c 263d
00000100: a53e b13b 8926 7bbc 8e98 a4bb e023 2a3d
00000110: d0a1 83bb b4fc 713b 5bf6 4e3b e499 d93c
00000120: 19a3 a6bc 10cb d63c 2894 613d 005f 88bc
00000130: 3c3a e63c 7d68 05bd 53eb 133d d637 c9bc
00000140: 3a74 a0bc 3dad ab3c cc44 a33c e066 0b3c
00000150: 7711 1e3c aab6 243d b92a 12bb 78e6 efbc
00000160: 0647 45bc 7a58 57bc b8e2 42bd 4a5c 663c
00000170: 4612 193d 677c ff3b 203c 413c 13f6 6abd
00000180: f139 f73c 11b2 1b3d 9d3a d23c 0478 e33b
00000190: d469 debc b32a 823c ee52 6abd d59f 843c
000001a0: cd7d b73c 06f4 e43a 4305 01bd 19ac 4f3c
000001b0: 290f 023c 3d2a a93b a923 763c e9dc 283d
000001c0: 03ee 063d 5d1a 8dbc 5998 67b9 c06b 4cbd
000001d0: e837 41bd 4c06 b83a 2baf b4bb 6511 413c
000001e0: 7969 5e3c 048c 223d 9538 e93c c7d2 03bd
000001f0: 5a71 383d 9473 473c edc2 8cbd fc9e 063d
-0.002915463 0.055717293 -0.052431602 -0.00026281754 0.03683706 0.019364413 0.03665697 0.047490507
-0.12309322 -0.011925202 -0.012512146 -0.01491164 0.014667824 -0.01722023 -0.019118696 -0.013284495
-0.058964312 0.0130170295 0.052992653 0.016595356 0.023044804 -0.031178331 -0.017466025 -0.016148413
0.0070676534 0.00072711596 0.015991338 0.00019237003 0.118748695 0.017446375 0.052935384 0.040081713
0.00601712 -0.0017111364 0.011131129 0.07135242 0.05504345 0.017293159 -0.019384269 0.06506595
-0.032509275 -0.0051910393 0.0059897657 0.015165203 0.019261805 -0.048028745 -0.018438902 -0.07415908
-0.037765604 -0.04144228 -0.0025513317 -0.014457676 0.011155568 -0.015642142 -0.018526979 0.016095515
0.025255898 -0.0072403583 -0.009982433 -0.026882052 0.004546553 0.03445289 -0.014543506 0.040569328
0.005409079 -0.015329012 -0.0050230687 0.04153812 -0.0040170923 0.0036924304 0.0031579945 0.026562639
-0.020341443 0.026219875 0.055072933 -0.016646862 0.02810394 -0.03257035 0.036113095 -0.024562757
-0.019586671 0.02095663 0.019930266 0.008508414 0.009647719 0.040213265 -0.0022303297 -0.0292847
-0.012040859 -0.013143653 -0.047579497 0.014060089 0.037370943 0.0077968123 0.01179412 -0.05736358
0.030178996 0.038011614 0.025662715 0.006941797 -0.027150072 0.015889501 -0.057207994 0.016189495
0.022398854 0.0017467744 -0.03149916 0.012675309 0.007938185 0.005162506 0.0150231505 0.0412263
0.03294183 -0.017224485 -0.0002208663 -0.049907446 -0.047172457 0.0014039963 -0.0055140457 0.011783932
0.013574951 0.03968431 0.028469363 -0.032183435 0.045029975 0.012173552 -0.06873117 0.032866463
