model_params/model_params_10.pth (torch, 74912 bytes, 7 tensors)

rnn.weight_ih_l0 f4 [128, 6]
0.2126022 -0.15150708 -0.08253387 0.7862745 0.02428117 -0.061435234 0.09182879 -0.020186277
0.03315582 0.18181635 0.018842127 -0.06658237 -0.021307537 0.043000493 -0.0019663945 0.15210386
-0.039287783 -0.024783237 -0.07550623 0.008176045 0.05961416 0.1919896 0.1046572 -0.019640414
-0.038678832 0.02979054 0.055545904 -0.033751357 0.05310975 0.061530557 -0.08543057 0.04203068
-0.078341104 -0.06966373 0.08093751 0.09210045 -0.19841537 0.11883816 0.047211565 -0.6752055
-0.023311649 0.036865346 -0.04813425 0.033731192 -0.062786676 -0.7035311 0.03976564 -0.073450476
-0.05681356 -0.01811007 -0.044332974 0.090171255 -0.013637498 -0.035109624 -0.1144364 0.03960358
0.06365121 -0.653822 0.00018455499 -0.12080433 -0.14051725 -0.041529316 0.037927233 -0.33489653
0.009260079 -0.122311525 -0.03097233 -0.06072648 -0.042941146 0.19749317 -0.0089168055 -0.084771745
0.22679518 -0.03862022 -0.048924387 0.80437446 -0.05112038 -0.009601292 -0.115611106 0.21057242
0.058917604 -0.58183235 0.092113756 0.09046543 -0.11054576 0.00795082 0.025421306 0.14053671
-0.12950145 0.043503057 0.09396873 0.027870066 0.03205999 -0.35397333 0.019911556 0.10396225
0.13110703 -0.20012413 -0.06437123 0.2838797 -0.06882975 -0.115419835 0.02794402 -0.10460885
-0.019434564 0.5938346 0.041281436 0.014684022 -0.06615377 -0.026337316 -0.036399167 -0.19169699
-0.051813778 0.007684192 0.1454152 -0.17316924 0.050783254 0.743408 0.03475477 -0.00653697
0.059111353 -0.13802645 -0.017335154 0.83426213 -0.12011239 -0.11345281 0.17114317 -0.20656404
0.009274937 0.80573606 0.074045666 0.059353795 -0.2237515 0.09391165 -0.07933867 -0.84075445
-0.006127211 -0.048973434 0.11918333 -0.034649514 -0.009489886 0.2311096 0.026085043 -0.034788776
0.15762585 -0.14381188 -0.03040674 0.61677134 0.025001267 0.013452211 0.123557605 -0.12348753
0.08123406 0.78734684 0.058412023 0.011759049 0.2322226 -0.16987392 -0.0826865 0.6294334
0.025367616 -0.0033121184 -0.083110765 0.1442521 -0.021403462 -0.7207877 -0.051534 -0.05371257
0.04648834 -0.080866985 -0.05611995 -0.13743418 0.0721831 0.14539994 -0.0077450355 0.033024147
0.06675994 -0.30945727 -0.024309745 -0.06827588 0.17315066 -0.10642164 -0.022107072 0.43159884
-0.089804925 0.0895694 0.09021712 -0.12944926 0.06681313 0.65324104 -0.05447765 0.030421996
-0.12926261 -0.048442222 0.08476495 -0.32321963 -0.08910266 -0.051911786 -0.14134723 0.20755267
-0.011104733 -0.86678785 -0.07262359 -0.012903083 0.03411395 -0.09200891 0.028030887 0.20340477
0.06870674 -0.11489948 0.115383565 -0.048221916 -0.0062757954 -0.045568876 0.027436664 0.009412586
0.15547597 -0.011456954 -0.053775754 0.62687683 0.11140261 0.025715558 -0.09785772 0.17065212
0.04037159 -0.77047294 0.022811227 -0.06794192 0.160088 -0.21506765 0.08251063 0.6251337
0.040337887 -0.022612384 -0.0097000385 -0.19815262 -0.058812544 0.3580079 0.09591295 -0.052503336
0.01775273 -0.041304436 0.024534635 -0.62491363 -0.00940961 -0.08615635 -0.13088258 -0.050095096
-0.039871823 -0.38256973 0.04592608 -0.015584111 0.082959294 -0.10337846 0.037042804 0.546721
00000000: 64b4 593e ac24 1bbe 8507 a9bd 4949 493f
00000010: 4ee9 c63c 83a3 7bbd bc10 bc3d b15d a5bc
00000020: 66ce 073d 112e 3a3e ce5a 9a3c 565c 88bd
00000030: 258d aebc 4921 303d a0de 00bb 1dc1 1b3e
00000040: 3aec 20bd 3706 cbbc 03a3 9abd d1f4 053c
00000050: fa2d 743d ec98 443e 8456 d63d efe4 a0bc
00000060: b26d 1ebd 4a0b f43c 1a84 633d dd3e 0abd
00000070: 9c89 593d 7707 7c3d 39f6 aebd 5d28 2c3d
00000080: 4d71 a0bd dcab 8ebd 91c2 a53d 299f bc3d
00000090: 662d 4bbe 6c61 f33d ea60 413d 45da 2cbf
000000a0: 12f8 bebc 1e00 173d 6b28 45bd b829 0a3d
000000b0: 4d96 80bd 9d1a 34bf 4ce1 223d 346d 96bd
000000c0: 56b5 68bd 925b 94bc 7e96 35bd b5ab b83d
000000d0: d06f 5fbc 1ccf 0fbd a25d eabd 5d37 223d
000000e0: 915b 823d e160 27bf 1a85 4139 4368 f7bd
000000f0: c1e3 0fbe a51a 2abd 9659 1b3d 8f77 abbe
00000100: 96b7 173c 777e fabd afb9 fdbc 54bc 78bd
00000110: 0ee3 2fbd a63b 4a3e cb17 12bc cf9c adbd
00000120: ff3c 683e 3c30 1ebd f064 48bd 7ceb 4d3f
00000130: 9b63 51bd bd4e 1dbc 84c5 ecbd 4ca0 573e
00000140: 9653 713d f7f2 14bf 23a6 bc3d f045 b93d
00000150: d165 e2bd 2844 023c 5840 d03c dbe8 0f3e
00000160: 079c 04be 4330 323d ad72 c03d c44f e43c
00000170: 5651 033d fe3b b5be 8f1d a33c 29ea d43d
00000180: ec40 063e 57ed 4cbe 10d5 83bd ae58 913e
00000190: 9df6 8cbd 3c61 ecbd dcea e43c 2a3d d6bd
000001a0: 3c35 9fbc 8b05 183f b916 293d 4195 703c
000001b0: a17b 87bd 5bc1 d7bc 4b17 15bd 374c 44be
000001c0: af3a 54bd adcb fb3b b9e7 143e 4753 31be
000001d0: 1a02 503d fd4f 3e3f 055b 0e3d 1434 d6bb
000001e0: bf1e 723d ce56 0dbe 7402 8ebc 3492 553f
000001f0: 7cfd f5bd f259 e8bd 2840 2f3e 8685 53be
00000200: e8f5 173c b844 4e3f 41a5 973d f71c 733d
00000210: 1d1f 65be c054 c03d 507c a2bd af3b 57bf
00000220: c5c6 c8bb 5e98 48bd 6416 f43d a6ec 0dbd
00000230: 787b 1bbc ffa7 6c3e 4db0 d53c ad7e 0ebd
00000240: ac68 213e 6c43 13be 8e17 f9bc bae4 1d3f
00000250: 75cf cc3c aa66 5c3c c50b fd3d 08e7 fcbd
00000260: 0b5e a63d 908f 493f 7241 6f3d 07a9 403c
00000270: c3cb 6d3e 6ef3 2dbe 8a57 a9bd 8c22 213f
00000280: bfcf cf3c 2010 59bb fa35 aabd d3b6 133e
00000290: 5056 afbc 8b85 38bf 5115 53bd b601 5cbd
000002a0: 8f6a 3e3d 979d a5bd 08de 65bd 8cbb 0cbe
000002b0: bcd4 933d b9e3 143e 11ca fdbb 5444 073d
000002c0: 6fb9 883d 2f71 9ebe 3b25 c7bc 39d4 8bbd
000002d0: 684e 313e 97f3 d9bd e419 b5bc 86fa dc3e
000002e0: a5eb b7bd 2970 b73d c1c3 b83d 598e 04be
000002f0: 53d5 883d ce3a 273f f523 5fbd 8d37 f93c
00000300: 6b5d 04be 5a6b 46bd 3f99 ad3d 0b7d a5be
00000310: 757b b6bd 74a1 54bd 54bd 10be b088 543e
00000320: a0f0 35bc cfe5 5dbf adbb 94bd 7467 53bc
00000330: 12bb 0b3d 2b6f bcbd 08a1 e53c 5749 503e
00000340: 1fb6 8c3d 6b50 ebbd 384e ec3d 5884 45bd
00000350: 30a5 cdbb 6ea6 3abd dbc2 e03c 3f37 1a3c
00000360: 1835 1f3e f3b5 3bbc f743 5cbd 007b 203f
00000370: 0d27 e43d 6fa9 d23c a169 c8bd 6ebf 2e3e
00000380: ae5c 253d b73d 45bf 9cde ba3c 2225 8bbd
00000390: 1cee 233e b23a 5cbe 55fb a83d c308 203f
000003a0: 5739 253d 9b3d b9bc e9ec 1ebc 85e8 4abe
000003b0: 6ce5 70bd d04c b73e 026e c43d bd0d 57bd
000003c0: 2c6e 913c d72e 29bd dcfc c83c 57fa 1fbf
000003d0: c42a 1abc be72 b0bd 1506 06be 8430 4dbd
000003e0: a350 23bd 2ee0 c3be fc1c 3c3d 8054 7fbc
000003f0: 90e6 a93d 16b8 d3bd 32ba 173d e8f5 0b3f

rnn.weight_hh_l0 f4 [128, 128]
-0.1168931 -0.023816269 -0.035072614 0.018305242 -0.109653585 -0.06412723 0.037752338 -0.016745571
-0.03828557 -0.046284523 -0.012439761 -0.04290991 0.008207696 0.0005843161 -0.024935335 0.029331021
-0.08838538 -0.073165834 0.048069444 0.02277899 -0.006401601 -0.017255783 0.031541597 0.048155893
0.10985173 0.0755992 0.038491234 0.093705386 0.12285608 0.08079027 0.006710768 -0.08782544
0.10883961 -0.10561375 0.07839544 0.056917906 0.048461385 -0.01761586 -0.027700828 -0.001702233
0.07429102 -0.0024739162 -0.030591337 -0.013295203 -0.043532927 0.085423365 0.05771194 0.035991568
0.016577382 -0.036858063 0.0012390354 -0.06107362 0.038915373 -0.0028886755 -0.046344813 0.02228306
0.07332299 0.01567329 -0.037796285 0.045504842 -0.0420556 -0.023411702 -0.031564306 0.020847265
-0.033904586 0.078511804 0.052515633 -0.061632395 -0.039823897 -0.038988035 0.04821203 0.07681396
0.013953365 -0.030198269 0.023371227 0.09565058 0.094147496 0.026335677 0.027433705 -0.12759261
-0.011658666 0.023201581 0.01129097 -0.015500901 -0.08826636 -0.058502752 -0.014059956 -0.072038665
0.060588885 0.084354 0.105467424 -0.09919559 -0.0112581905 0.009798676 -0.09944614 0.012321002
-0.069166295 -0.08497643 -0.0024130757 -0.0108377375 0.03655416 -0.06357342 -0.010567372 0.12662612
0.022791956 0.07838555 -0.08194916 0.115128286 0.028866194 0.030788578 0.029285267 -0.03981045
0.10604219 -0.019637933 0.004594053 0.09730395 0.009154622 0.027692875 0.02049462 0.056248154
0.04425315 0.0058137155 0.051261157 -0.089565784 -0.009749515 -0.024963535 0.018743275 0.0041803448
-0.0292308 -0.11481004 -0.037085418 0.0565018 0.050736275 -0.0786331 -0.038545668 0.11582048
-0.024323689 -0.102465466 0.030449847 -0.10852235 0.043369725 0.09267217 0.03343122 0.014155755
-0.041978747 0.044987496 -0.11855788 0.019290356 -0.11373848 0.05227442 -0.040508445 -0.018490713
-0.018688923 0.017431088 0.08819741 0.04904729 -0.023499897 0.02462301 0.042698707 0.03674255
0.040585924 0.073780596 -0.11429775 -0.009065121 0.004473829 -0.023865782 -0.086934514 -0.07936441
-0.09466942 -0.11942453 0.124510534 -0.020376854 0.0016349917 -0.008554419 0.04030276 -0.0973423
-0.094689466 -0.06260292 -0.07100589 -0.018096713 0.06637567 -0.031415865 0.020572038 -0.07320723
0.030115891 0.00077003834 0.0054722982 -0.06488322 0.06671796 -0.044953402 0.0039262665 -0.036286555
0.045213435 -0.09693527 0.034906395 -0.077567756 -0.096292876 -0.011653872 0.0992819 -0.041381326
-0.04233832 -0.07730912 -0.11282801 0.020725429 -0.05891771 -0.06426774 -0.10952717 0.08253984
-0.04019354 -0.07550913 -0.02022738 -0.028022736 -0.052324235 -0.08136671 -0.03383303 -0.03428118
0.019086925 0.07711524 0.10702859 0.0073320195 0.03741626 0.047142275 -0.023792632 -0.005994994
0.02806038 0.028460434 0.03756665 -0.107631385 -0.098325275 -0.09975929 0.11441284 0.09915106
0.016373225 -0.02643538 0.09290857 -0.05353265 -0.052438445 -0.053726543 -0.012315261 -0.031483922
-0.004329676 0.027842473 0.03761417 0.08142342 0.00424121 -0.07787139 0.019328197 -0.058351617
-0.110171065 0.013907547 0.03341635 0.031015111 -0.06892767 -0.00034475123 -0.07417823 0.07744706
00000000: a665 efbd 561a c3bc 4da8 0fbd e0f4 953c
00000010: 0f92 e0bd 2355 83bd 32a2 1a3d 022e 89bc
00000020: 54d1 1cbd d794 3dbd 24d0 4bbc 4dc2 2fbd
00000030: 9279 063c ca2c 193a 3045 ccbc 9c47 f03c
00000040: 6503 b5bd f8d7 95bd 77e4 443d 019b ba3c
00000050: 85c4 d1bb 005c 8dbc c331 013d 1d3f 453d
00000060: f2f9 e03d c1d3 9a3d fca8 1d3d 9ce8 bf3d
00000070: f89b fb3d 5e75 a53d 01e6 db3b d3dd b3bd
00000080: 4de7 de3d 064c d8bd ca8d a03d c022 693d
00000090: 727f 463d 234f 90bc d9ec e2bc 761d dfba
000000a0: e425 983d 6d21 22bb af9a fabc 20d4 59bc
000000b0: 954f 32bd 72f2 ae3d 5b63 6c3d e56b 133d
000000c0: 4acd 873c 7bf8 16bd 2167 a23a 5528 7abd
000000d0: ba65 1f3d ef4f 3dbb 0fd4 3dbd f78a b63c
000000e0: 5d2a 963d 4565 803c 47d0 1abd 4963 3a3d
000000f0: 7e42 2cbd e6c9 bfbc 9349 01bd e2c7 aa3c
00000100: 89df 0abd ccca a03d a21a 573d 4072 7cbd
00000110: 621e 23bd ebb1 1fbd fa79 453d a350 9d3d
00000120: a89c 643c 5c62 f7bc 0475 bf3c 74e4 c33d
00000130: 67d0 c03d ebbd d73c a6bc e03c a3a7 02be
00000140: fd03 3fbc 3e11 be3c c3fd 383c 7ef7 7dbc
00000150: fec4 b4bd 95a0 6fbd bb5b 66bc 0289 93bd
00000160: 0d2c 783d cac1 ac3d 4eff d73d 0f27 cbbd
00000170: 4674 38bc a08a 203c 6baa cbbd 07de 493c
00000180: 0fa7 8dbd 1f08 aebd b124 1ebb c490 31bc
00000190: d1b9 153d c832 82bd c522 2dbc 47aa 013e
000001a0: 32b6 ba3c 9a88 a03d f6d4 a7bd 61c8 eb3d
000001b0: cc78 ec3c 5438 fc3c a8e7 ef3c 4810 23bd
000001c0: a62c d93d bbdf a0bc b689 963b 4b47 c73d
000001d0: 45fd 153c 2bdc e23c 55e4 a73c 7764 663d
000001e0: ca42 353d fb80 be3b 38f7 513d 446e b7bd
000001f0: 6ebc 1fbc 5480 ccbc 7f8b 993c 46fb 883b
00000200: 6e75 efbc 8721 ebbd e1e6 17bd 6e6e 673d
00000210: d7d0 4f3d 640a a1bd 10e2 1dbd 4a33 ed3d
00000220: 7942 c7bc 6ad9 d1bd f571 f93c f740 debd
00000230: 74a4 313d e8ca bd3d 2def 083d 8aed 673c
00000240: e8f1 2bbd cf44 383d 79ce f2bd cf06 9e3c
00000250: b8ef e8bd b41d 563d 2fec 25bd d679 97bc
00000260: 8319 99bc a4cb 8e3c d8a0 b43d d0e5 483d
00000270: db82 c0bc 32b6 c93c d7e4 2e3d 5b7f 163d
00000280: 6d3d 263d 481a 973d f014 eabd e085 14bc
00000290: 3399 923b 2c82 c3bc b90a b2bd cf89 a2bd
000002a0: 0ae2 c1bd d994 f4bd 61ff fe3d 5ced a6bc
000002b0: 384d d63a d527 0cbc 8214 253d 665b c7bd
000002c0: 8dec c1bd f635 80bd 896b 91bd 8f3f 94bc
000002d0: f8ef 873d ecad 00bd b186 a83c aced 95bd
000002e0: 9ab5 f63c 66dc 493a f750 b33b 7ee1 84bd
000002f0: 6da3 883d 0f21 38bd e9a7 803b 36a1 14bd
00000300: b931 393d 0086 c6bd 02fa 0e3d d8db 9ebd
00000310: 3335 c5bd e2ef 3ebc 4f54 cb3d 777f 29bd
00000320: f26a 2dbd 3e54 9ebd 5f12 e7bd 60c8 a93c
00000330: b253 71bd ce9e 83bd c84f e0bd a60a a93d
00000340: fba1 24bd 88a4 9abd e4b3 a5bc f08f e5bc
00000350: f051 56bd 97a3 a6bd 8194 0abd 6c6a 0cbd
00000360: 2f5c 9c3c 98ee 9d3d ce31 db3d 7041 f03b
00000370: cb41 193d 4218 413d c4e8 c2bc a871 c4bb
00000380: e2de e53c db25 e93c 7ddf 193d d86d dcbd
00000390: c35e c9bd 994e ccbd 4751 ea3d b60f cb3d
000003a0: 2421 863c 038f d8bc d946 be3d 0d45 5bbd
000003b0: b2c9 56bd 5d10 5cbd f3c5 49bc 49f5 00bd
000003c0: f4df 8dbb e615 e43c 5111 1a3d 52c1 a63d
000003d0: d9f9 8a3b 097b 9fbd 2b56 9e3c 1b02 6fbd
000003e0: 5ea1 e1bd 7bdc 633c 95df 083d 6713 fe3c
000003f0: f329 8dbd babf b4b9 c1ea 97bd 909c 9e3d

rnn.bias_ih_l0 f4 [128]
-0.03309278 -0.030604769 -0.0894579 0.00095355127 0.10973285 0.12070038 -0.037194215 -0.024685899
-0.08959458 -0.14033467 -0.059498392 0.073084496 -0.042983938 0.05767655 -0.046277314 0.030550985
-0.06078886 0.095666505 -0.08832002 0.037964676 0.032992475 0.09950638 -0.09949149 -0.061326683
-0.07974567 -0.020811895 0.07820226 -0.0289774 0.015038309 -0.1535128 -0.038335916 -0.0038738882
-0.076468594 0.009543773 -0.0042090267 0.14559852 0.18119308 0.07091002 -0.04166933 0.08842784
0.0495739 -0.109282225 -0.0038163636 0.094963655 -0.05188828 -0.013570248 -0.08784235 -0.12758203
-0.12722425 0.031964656 0.021073304 0.027669823 -0.11348676 0.039814796 -0.12096038 0.04976674
-0.0072328043 0.08813866 -0.026837232 -0.0030113864 -0.07478878 0.055912334 -0.02954418 0.05569555
-0.13405523 -0.025471184 -0.09436844 0.009617129 -0.11060891 -0.1127207 0.12016883 -0.03605239
-0.08069374 -0.09009604 0.026324587 -0.089794055 -0.077583365 0.11828787 0.002139615 0.04919787
-0.02499101 0.023304356 0.026584089 -0.0023025007 0.059818093 0.019408708 -0.093822375 -0.13410603
0.064065054 -0.069215275 0.10413329 -0.023205426 -0.080220684 0.025269622 -0.0057368064 -0.052291904
-0.032836504 -0.014078263 0.089667894 -0.049745303 -0.05182149 -0.039937235 0.067939386 0.09878811
0.09156423 0.062132385 0.04829863 -0.0245434 0.030607628 0.018574636 -0.08564265 0.034151837
-0.06936635 -0.0002319056 -0.08874804 -0.03338372 -0.14818053 -0.022094274 0.16760565 -0.054523733
-0.11653648 0.018189829 0.04900291 -0.1109469 -0.11716572 -0.09047588 0.008918956 0.031471558
00000000: 4b8c 07bd dab6 fabc b435 b7bd bef7 793a
00000010: 9ebb e03d c331 f73d f658 18bd 153a cabc
00000020: 5d7d b7bd e4b3 0fbe 96b4 73bd 53ad 953d
00000030: ed0f 30bd 3f3e 6c3d 488d 3dbd 0f46 fa3c
00000040: bdfd 78bd cdec c33d 20e1 b4bd d980 1b3d
00000050: 1e23 073d 00ca cb3d 32c2 cbbd b031 7bbd
00000060: b351 a3bd b57d aabc 8228 a03d 0362 edbc
00000070: 3d63 763c 7632 1dbe 1f06 1dbd 0fe1 7dbb
00000080: 919b 9cbd 7c5d 1c3c e0eb 89bb c717 153e
00000090: ae8a 393e 4639 913d 76ad 2abd a819 b53d
000000a0: 000e 4b3d 5ccf dfbd f51b 7abb 4e7c c23d
000000b0: ce88 54bd bf55 5ebc b1e6 b3bd dda4 02be
000000c0: 1347 02be 5fed 023d eca1 ac3c d3ab e23c
000000d0: bf6b e8bd d714 233d 13ba f7bd 36d8 4b3d
000000e0: 2901 edbb 0b82 b43d c1d9 dbbc ae5a 45bb
000000f0: dc2a 99bd 5504 653d a306 f2bc 0421 643d
00000100: c645 09be f2a8 d0bc 3e44 c1bd 2a91 1d3c
00000110: ed86 e2bd 1cda e6bd 131b f63d acab 13bd
00000120: c242 a5bd 4684 b8bd a9a6 d73c f2e5 b7bd
00000130: 07e4 9ebd e940 f23d c838 0c3b b583 493d
00000140: f2b9 ccbc c7e8 be3c e0c6 d93c 8de5 16bb
00000150: d103 753d 03ff 9e3c f225 c0bd 1753 09be
00000160: 8a34 833d bdc0 8dbd d643 d53d 4e19 bebc
00000170: be4a a4bd 3d02 cf3c d2fb bbbb 0930 56bd
00000180: 927f 06bd 84a8 66bc cda3 b73d bbc1 4bbd
00000190: c542 54bd 3a95 23bd ce23 8b3d 6c51 ca3d
000001a0: 0786 bb3d 877e 7e3d c9d4 453d 3e0f c9bc
000001b0: d9bc fa3c d629 983c 6a65 afbd cce2 0b3d
000001c0: f20f 8ebd af2b 73b9 88c1 b5bd 5ebd 08bd
000001d0: a3bc 17be 0dff b4bc d1a0 2b3e 4754 5fbd
000001e0: aeaa eebd d602 953c 46b7 483d 2138 e3bd
000001f0: 95f4 efbd 6b4b b9bd d020 123c 52e8 003d

rnn.bias_hh_l0 f4 [128]
0.09169716 -0.020006128 -0.028682988 -0.010986369 0.12538747 0.08669376 0.012951479 -0.045868997
-0.029621223 -0.111703135 -0.019473074 0.062419936 0.08670674 0.0466081 0.008365403 0.077454984
-0.14508699 -0.0029326207 -0.029005628 0.008629473 0.009308624 0.06292407 -0.01035647 0.053055767
0.008294683 0.040757906 0.080273435 -0.0512218 0.0685526 -0.06200813 -0.05625506 0.021210324
-0.039438125 -0.082543395 -0.065508135 0.17573743 0.10503188 0.020109491 -0.035806075 0.057059094
0.038043484 -0.08139226 -0.05360582 0.042486586 -0.043550976 -0.07836924 -0.16374111 -0.16387843
-0.14122812 -0.035119977 -0.08766375 0.010356224 -0.09495782 0.053941052 -0.09495952 -0.063695356
0.02609348 -0.043026734 -0.010232823 -0.10414791 -0.047243748 0.02398496 -0.036044825 -0.06918531
-0.1717822 0.053624764 0.042638343 0.08419228 -0.054454 -0.028020758 0.08637617 0.066690706
-0.039915487 0.012346127 -0.0146753965 -0.0042055557 -0.08470849 -0.0031876406 -0.0023975272 0.14037237
-0.06819443 0.06584712 -0.042776994 -0.030744016 -0.03479668 0.04990407 -0.09632337 -0.023696696
-0.056161363 -0.104851104 0.13821697 0.1078854 -0.024881713 -0.047842067 0.077119246 0.074423544
-0.06512659 0.14865397 0.0028507428 -0.027063198 0.018818216 -0.05088842 0.010861035 0.090948835
0.002638985 0.065965146 0.049192097 -0.034976665 -0.004425214 -0.05101445 -0.008444695 -0.10922849
-0.02151253 -0.110755675 -0.024007086 0.025625007 -0.15116881 -0.0014867799 0.1767187 -0.08146879
-0.07117042 0.11614426 -0.070710674 0.03542298 -0.056488715 -0.025276583 -0.09534493 -0.010771922
00000000: b8cb bb3d e4e3 a3bc 96f8 eabc 2c00 34bc
00000010: 9365 003e 7f8c b13d 7132 543c 21e1 3bbd
00000020: 35a8 f2bc 9dc4 e4bd ff85 9fbc 0cac 7f3d
00000030: 4e93 b13d 23e8 3e3d 0b0f 093c b8a0 9e3d
00000040: af91 14be 3631 40bb 369d edbc a262 0d3c
00000050: 3383 183c 56de 803d 2fae 29bc 0151 593d
00000060: 6ce6 073c c3f1 263d 6666 a43d f3cd 51bd
00000070: 4e65 8c3d 3dfc 7dbd b56b 66bd 46c1 ad3c
00000080: df89 21bd 830c a9bd 2129 86bd 83f4 333e
00000090: f41a d73d a9bc a43c 64a9 12bd ccb6 693d
000000a0: 7cd3 1b3d fcb0 a6bd c791 5bbd 6a06 2e3d
000000b0: 8262 32bd 0d80 a0bd c0ab 27be bfcf 27be
000000c0: 1b9e 10be f7d9 0fbd 0d89 b3bd 27ad 293c
000000d0: 3f79 c2bd 4bf1 5c3d 237a c2bd b672 82bd
000000e0: fec1 d53c cd3c 30bd 92a7 27bc 804b d5bd
000000f0: a982 41bd 1b7c c43c bda3 13bd 07b1 8dbd
00000100: ace7 2fbe a4a5 5b3d 8ba5 2e3d 016d ac3d
00000110: 280b 5fbd ca8b e5bc fde5 b03d 2395 883d
00000120: 6c7e 23bd 6947 4a3c 1371 70bc c2ce 89bb
00000130: a57b adbd bce7 50bb d51f 1dbb c6bd 0f3e
00000140: 85a9 8bbd dbda 863d ee36 2fbd e0da fbbc
00000150: f786 0ebd 3668 4c3d 3045 c5bd 931f c2bc
00000160: 7509 66bd 2dbc d6bd c088 0d3e 05f3 dc3d
00000170: bcd4 cbbc 0bf6 43bd b2f0 9d3d 5f6b 983d
00000180: 1761 85bd bf38 183e 87d3 3a3b a4b3 ddbc
00000190: a928 9a3c 6070 50bd 7cf2 313c 6243 ba3d
000001a0: d2f2 2c3b bc18 873d a77d 493d b143 0fbd
000001b0: 6301 91bb 87f4 50bd 9e5b 0abc 30b3 dfbd
000001c0: 0c3b b0bc dfd3 e2bd 82aa c4bc 89eb d13c
000001d0: ffcb 1abe 0ee0 c2ba bff5 343e 1cd9 a6bd
000001e0: ccc1 91bd 0bdd ed3d c2d0 90bd b017 113d
000001f0: b660 67bd d610 cfbc 3444 c3bd b77c 30bc

actor.weight f4 [3, 128]
-0.38143766 -0.09840827 -0.023493402 -0.063669614 0.059617493 0.10939187 0.20315929 0.18197007
-0.05619832 0.15208264 0.122799516 -0.04091022 -0.3140075 0.18675251 -0.0029501766 0.03505591
-0.053357303 -0.28282756 0.06210496 -0.31024826 -0.22004332 -0.3024174 0.21111673 -0.073216155
-0.16970164 -0.19793057 -0.31656736 0.21040992 0.013241363 0.039665464 -0.23218909 -0.11701001
0.012337457 0.43377882 -0.018893749 -0.04758345 -0.18733567 0.34267116 -0.14409317 -0.080455676
0.23595987 0.14343941 -0.18283892 0.069506295 0.3958344 -0.22308974 -0.014954482 -0.012959468
0.14692084 0.1551324 -0.37454432 -0.30769715 0.21278647 -0.23896928 0.07860289 -0.15572356
0.2085191 0.20668131 0.16539517 0.12617303 0.38095266 0.30881393 -0.25443828 0.17943914
0.05791153 0.16455097 -0.14584345 0.29876298 0.02328929 -0.018610239 0.040457048 -0.21873803
0.02279606 0.33242977 0.18370281 -0.17574832 0.08749763 0.24825682 -0.16805206 0.103097364
0.14525032 -0.2978843 -0.29491028 0.28299832 0.13001776 -0.11425995 0.17935625 0.25365198
-0.16718514 -0.22249201 -0.09788266 -0.008174228 0.049334057 -0.19161937 0.26228207 0.17109859
-0.0060766907 0.015340047 0.11392514 0.12050531 -0.14311898 -0.1647333 -0.01873998 -0.28639767
-0.06570471 0.053142022 -0.08420718 -0.32231957 0.025729641 0.13690494 0.25143957 0.13736466
9.655254e-05 0.068510965 0.19555321 -0.220983 0.2079067 -0.3559249 -0.02702661 0.12613645
0.15214476 0.2119954 -0.2450325 -0.083501495 -0.03906138 0.19466013 0.21479526 0.084779605
0.37696695 0.024165507 0.13311149 0.17860651 -0.061565068 -0.06474171 -0.24067661 -0.14876409
0.057314225 -0.19914956 0.00046317364 -0.056327675 0.35170114 -0.23535079 0.13288252 -0.105771415
0.089609 0.17061666 -0.08478703 0.32002628 0.30502626 0.36084962 -0.26673558 0.07544236
0.2770865 0.3265625 0.22611143 -0.35044006 -0.023603516 -0.102653444 0.07513893 0.23376895
-0.07707132 -0.27874333 0.11512087 0.05887928 0.1692365 -0.2819352 0.29866338 0.06339634
-0.28396896 -0.13845123 0.2406319 -0.059695333 -0.2671828 0.095362104 -0.116489016 -0.054754447
-0.11126229 -0.16450238 0.35240608 0.41065252 -0.26083934 0.20047617 -0.22247614 0.2937394
-0.33739626 -0.20637548 -0.03675932 -0.15510586 -0.23327184 -0.29725647 0.28713575 -0.23483743
0.041281506 -0.09544289 0.06595117 -0.26429796 -0.020646252 -0.16377881 -0.08001284 0.22769709
-0.16337079 -0.20376886 -0.06483847 0.13977572 0.022380576 -0.32560056 0.10621056 -0.15232563
-0.17142858 0.40661907 0.37343046 -0.42602116 0.009920285 0.15784243 -0.2666257 -0.30719984
0.11885272 0.0708831 0.0072838888 0.013030221 0.016588496 0.29708037 -0.28857046 -0.14889501
0.1697387 0.16036987 -0.30572307 -0.4401203 0.0045581344 0.28586707 0.0076060803 0.09526668
0.05508688 0.024752798 0.14122964 0.28278938 -0.15679725 -0.021880038 -0.22507969 -0.31289423
0.030837474 -0.107999824 -0.3979556 0.17626658 -0.037062403 0.39587015 0.02977869 0.033674642
-0.21406111 -0.1988947 0.22452888 0.19238803 -0.10105356 -0.27719936 -0.32490936 -0.11198729
00000000: cc4b c3be 468a c9bd 3c75 c0bc 3765 82bd
00000010: 7931 743d d808 e03d fd08 503e 5d56 3a3e
00000020: 3630 66bd 8dbb 1b3e 507e fb3d 7a91 27bd
00000030: 97c5 a0be 0d3c 3f3e c057 41bb c996 0f3d
00000040: 308d 5abd c6ce 90be c561 7e3d dcd8 9ebe
00000050: 0953 61be 74d6 9abe fc2e 583e 5af2 95bd
00000060: 44c6 2dbe 50ae 4abe 1e15 a2be b375 573e
00000070: 4df2 583c 4178 223d fac2 6dbe f2a2 efbd
00000080: 0c23 4a3c 4218 de3e 10c7 9abc dde6 42bd
00000090: ecd4 3fbe 9872 af3e 298d 13be f2c5 a4bd
000000a0: 779f 713e c8e1 123e 203a 3bbe 5159 8e3d
000000b0: ceaa ca3e a371 64be a503 75bc f353 54bc
000000c0: 6b72 163e 07db 1e3e 46c4 bfbe 7b8a 9dbe
000000d0: b2e4 593e 5db4 74be 8dfa a03d ff75 1fbe
000000e0: 0886 553e 44a4 533e 5a5d 293e 8133 013e
000000f0: 3a0c c33e dc1c 9e3e bc45 82be e5be 373e
00000100: a434 6d3d 0d80 283e fc57 15be 76f7 983e
00000110: 2ec9 be3c 8074 98bc 4ab6 253d ddfc 5fbe
00000120: cebe ba3c 3c34 aa3e 971c 3c3e 5ef7 33be
00000130: f531 b33d 0937 7e3e d715 2cbe b624 d33d
00000140: 80bc 143e 4a84 98be 7bfe 96be 28e5 903e
00000150: 6023 053e 1f01 eabd 2aa9 373e acde 813e
00000160: 9532 2bbe f2d4 63be b476 c8bd 32ed 05bc
00000170: 8212 4a3d de37 44be d649 863e 7834 2f3e
00000180: fa1e c7bb d254 7b3c 9551 e93d 7dcb f63d
00000190: c88d 12be d9af 28be 9684 99bc b7a2 92be
000001a0: 3190 86bd 73ab 593d d074 acbd 1207 a5be
000001b0: f8c6 d23c cf30 0c3e b0bc 803e 52a9 0c3e
000001c0: 407c ca38 7a4f 8c3d 1a3f 483e 5e49 62be
000001d0: 7ee5 543e ca3b b6be e966 ddbc ea29 013e
000001e0: d6cb 1b3e 5215 593e cde9 7abe d502 abbd
000001f0: d3fe 1fbd fc54 473e 4af3 5b3e eea0 ad3d
00000200: d001 c13e bef6 c53c 614e 083e a0e4 363e
00000210: a72b 7cbd 4d97 84bd ee73 76be 9d55 18be
00000220: 52c2 6a3d dded 4bbe 1dd6 f239 d9b7 66bd
00000230: 2c12 b43e ccff 70be 5b12 083e af9e d8bd
00000240: ec84 b73d 22b6 2e3e d3a4 adbd 7cda a33e
00000250: 672c 9c3e 48c1 b83e 9191 88be 8681 9a3d
00000260: 48de 8d3e 3333 a73e c189 673e e16c b3be
00000270: 295c c1bc f83b d2bd 70e2 993d 2161 6f3e
00000280: 91d7 9dbd 72b7 8ebe 7ec4 eb3d 662b 713d
00000290: 554c 2d3e cf59 90be 68ea 983e f1d5 813d
000002a0: 6164 91be 29c6 0dbe 3568 763e 1883 74bd
000002b0: 2fcc 88be 354d c33d cb91 eebd 3346 60bd
000002c0: 7cdd e3bd 5073 28be 926e b43e 0c41 d23e
000002d0: bc8c 85be a049 4d3e c9d0 63be 0365 963e
000002e0: 34bf acbe 1854 53be f190 16bd 12d4 1ebe
000002f0: d0de 6ebe 0032 98be 7503 933e 3979 70be
00000300: cc16 293d 9077 c3bd 6811 873d 1052 87be
00000310: 5422 a9bc a2b5 27be c6dd a3bd 6d29 693e
00000320: ac4a 27be c9a8 50be 08ca 84bd 5e21 0f3e
00000330: 7857 b73c 1eb5 a6be ec84 d93d 40fb 1bbe
00000340: f98a 2fbe 6030 d03e 4732 bf3e 721f dabe
00000350: b188 223c 72a1 213e 2a83 88be 4c49 9dbe
00000360: 0e69 f33d 292b 913d b0ad ee3b b57c 553c
00000370: 99e4 873c eb1a 983e 82bf 93be ef77 18be
00000380: fbcf 2d3e 0038 243e bc87 9cbe 7357 e1be
00000390: 675c 953b 2b5d 923e 6d3c f93b 2d1b c33d
000003a0: c8a2 613d 61c6 ca3c 819e 103e c5c9 903e
000003b0: 758f 20be c43d b3bc 4a7b 66be ac33 a0be
000003c0: df9e fc3c 032f ddbd d6c0 cbbe 3a7f 343e
000003d0: bfce 17bd 7eaf ca3e 70f2 f33c 6cee 093d
000003e0: d632 5bbe 0dab 4bbe e6ea 653e 5e01 453e
000003f0: 2bf5 cebd 13ed 8dbe 855a a6be 9859 e5bd

actor.bias f4 [3]
-0.1198816 -0.008994079 0.06529868
00000000: 7c84 f5bd e75b 13bc 50bb 853d

critic.weight f4 [1, 128]
-0.009524175 -0.018795254 0.012205786 0.0357937 0.067090966 0.0786153 -0.0028102435 0.03443367
0.011722455 -0.02282602 0.016494157 -0.0005119723 -0.004909158 0.008496833 0.031048294 0.03983639
-0.003924629 0.011309962 -0.027043339 0.013919275 -0.031969935 -0.002078653 -0.021176375 -0.023870856
-0.00634331 0.014577022 0.0125721395 -0.005508802 0.076123685 -0.056007333 -0.024072317 -0.026157402
-0.0514395 0.012987805 0.00482046 0.09010809 0.078616194 -0.0015674675 -0.012639835 0.039508577
0.0003729297 0.031022144 0.019737268 0.0445959 0.03720765 -0.030619869 -0.07242504 -0.08630907
-0.050871544 0.02992588 -0.024742313 -0.021941293 -0.010300111 0.015669612 -0.017919416 -0.0023313533
-0.0136382 0.02518439 0.00262504 -0.042048596 0.02009992 -0.0010504075 -0.023873597 -0.007481624
-0.09323236 0.00472389 -0.0076139406 -0.03071112 -0.016110888 -0.04952056 0.025301337 0.019965196
-0.041780982 -0.021234736 0.011066701 -0.004026123 0.025602601 -0.003198331 -0.009824501 0.040797155
0.0072437585 -0.013157041 0.036358483 0.016688107 0.007264918 -0.02119909 -0.03710203 0.01962453
-0.030729035 -0.04451007 0.019423544 0.012167123 -0.021508032 0.02064213 0.011605262 0.0089253085
-0.021895153 0.065232895 -0.04161961 -0.0268974 -0.0050832564 -0.014349684 0.026714727 -0.031034227
0.032064512 -0.016332155 0.005504468 -0.010107935 -0.0038190049 -0.0033776823 -0.02245316 -0.016307188
-0.032405756 -0.009501141 -0.0098123355 0.0047689704 -0.07417716 -0.015470444 0.087106705 -0.025152817
-0.08771229 0.03252769 0.0037610212 -0.061233368 -0.0039912853 -0.032498024 -0.0071278857 0.004357159
00000000: 490b 1cbc 81f8 99bc c7fa 473c 6a9c 123d
00000010: fd66 893d 0f01 a13d 102c 38bb 520a 0d3d
00000020: 8a0f 403c a2fd babc c11e 873c e135 06ba
00000030: 01dd a0bb 4d36 0b3c fe58 fe3c 7c2b 233d
00000040: 2d9a 80bb 6b4d 393c fe89 ddbc ac0d 643c
00000050: e8f2 02bd 033a 08bb 147a adbc d08c c3bc
00000060: 8adb cfbb 76d4 6e3c 60fb 4d3c 2e83 b4bb
00000070: bce6 9b3d f267 65bd 4f33 c5bc 0c48 d6bc
00000080: 3ab2 52bd cdca 543c f3f4 9d3b 978a b83d
00000090: 8701 a13d 7b73 cdba 4f17 4fbc bfd3 213d
000000a0: c785 c339 2722 fe3c 0db0 a13c 31aa 363d
000000b0: 0c67 183d 85d6 fabc 9453 94bd cfc2 b0bd
000000c0: ae5e 50bd 1e27 f53c 64b0 cabc 3abe b3bc
000000d0: ccc1 28bc 8f5d 803c bdcb 92bc 9ec9 18bb
000000e0: c272 5fbc 7e4f ce3c dd08 2c3b 263b 2cbd
000000f0: 96a8 a43c d4ad 89ba 9092 c3bc 6928 f5bb
00000100: 9cf0 bebd ddca 9a3b 5d7e f9bb e395 fbbc
00000110: fbfa 83bc 12d6 4abd c044 cf3c 0d8e a33c
00000120: 8922 2bbd 78f4 adbc 1c51 353c 91ed 83bb
00000130: 8cbc d13c 179b 51bb f2f6 20bc eb1a 273d
00000140: 0d5d ed3b a190 57bc a2ec 143d 7fb5 883c
00000150: 8d0e ee3b b7a9 adbc 4cf8 17bd 9fc3 a03c
00000160: 75bb fbbc 3150 36bd 201e 9f3c 9d58 473c
00000170: 9d31 b0bc af19 a93c ff23 3e3c 753b 123c
00000180: 775d b3bc d398 853d 5379 2abd f057 dcbc
00000190: 7291 a6bb f01a 6bbc d8d8 da3c 7e3b febc
000001a0: 1456 033d 03cb 85bc d35e b43b c19b 25bc
000001b0: 4548 7abb 1b5c 5dbb b0ef b7bc a796 85bc
000001c0: e6bb 04bd acaa 1bbc ebc3 20bc 0645 9c3b
000001d0: 32ea 97bd bf77 7dbc 0065 b23d 480d cebc
000001e0: 80a2 b3bd c13b 053d 777b 763b d7cf 7abd
000001f0: 54c9 82bb a61c 05bd 0a91 e9bb 80c6 8e3b
