model_params/model_params_15.pth (torch, 74912 bytes, 7 tensors)

rnn.weight_ih_l0 f4 [128, 6]
000000 a7 0a 8d 3d 75 8a 0c bd 00 82 8b bb b5 f3 5f 3d
       0.068867974 -0.03431173 -0.0042574406 0.054675777
000010 22 04 2c 3d 54 12 98 bc 28 93 2d 3c bb 4c ed 3c
       0.04199613 -0.018563427 0.010594167 0.028967252
000020 e6 32 68 bd 08 b4 e6 3a b6 8f ae 3d 05 3a 98 bd
       -0.056689166 0.0017601261 0.085235044 -0.07432941
000030 ce 42 2b 3d d7 d0 fa bb 37 f8 a0 3d 6c 35 3c 3d
       0.041811757 -0.00765429 0.07859843 0.045949385
000040 10 37 30 3c 92 c0 db 3b c6 38 75 bd e5 be 57 bb
       0.010755315 0.006706306 -0.059868596 -0.0032920178
000050 65 c5 95 3d 76 41 95 bd 72 53 52 bd 6c 03 9a bd
       0.07313041 -0.07287876 -0.05134911 -0.07520184
000060 5f 3e 15 bd 82 4a ac bd 5d 74 76 bd f3 98 6d bd
       -0.036436435 -0.08412649 -0.060169566 -0.058007192
000070 93 bd 46 3d 4b a0 5d bd 36 e0 06 bd b3 19 45 bc
       0.048520636 -0.054107945 -0.032928668 -0.012030053
000080 d4 68 93 bd aa d0 8e 3d d3 3e a7 bd 55 ed e1 3c
       -0.07197729 0.06973393 -0.0816628 0.027578989
000090 7c b0 8d 3c dd b7 13 3c 9f af 30 bd e7 21 77 3d
       0.017296068 0.009016004 -0.043136235 0.060335066
0000a0 47 13 81 3d a0 bd a9 3c 08 8b 64 bd b7 5d ee bc
       0.06302505 0.020720303 -0.055796653 -0.029097421
0000b0 25 f2 9e 3d f2 ed bc 3d 9a 1f 0f bd 60 b5 8f 3d
       0.07761029 0.09225072 -0.034942247 0.070170164
0000c0 aa af 4a 3d c9 26 a2 3d 3a 81 76 3d 7a 0f 95 3d
       0.049483933 0.07917554 0.060181834 0.072783425
0000d0 f9 39 42 3d e5 34 52 bd d0 a8 e9 3c 3c 93 b7 3c
       0.04741857 -0.051319975 0.028522879 0.022409074
0000e0 c0 c0 a8 bb 51 ee aa bc c1 b9 70 bd 80 2e d2 bc
       -0.0051499307 -0.020865591 -0.0587709 -0.025656939
0000f0 e5 55 a3 3d be 62 a8 3d 70 fd 53 bc a7 19 7d 3d
       0.079753675 0.082219586 -0.012938842 0.061792042
000100 70 98 55 bd ef 2c 87 3c 00 ea 18 3c 3e db b7 3c
       -0.05214733 0.016500918 0.009333134 0.02244341
000110 15 89 a8 bd c9 d8 cd bc 50 cb 9a 3d be 49 6d bd
       -0.08229271 -0.025127785 0.0755831 -0.057931654
000120 b0 28 eb bb fa c8 a5 3d 6a f7 8f bd 52 93 52 3d
       -0.007176481 0.08094974 -0.07029612 0.051410027
000130 61 bc a1 3d f8 ce 45 3d 2f 04 a8 bd 2c e8 71 bd
       0.078972585 0.048293084 -0.08203923 -0.059059307
000140 28 10 1d bd 2a ad 6e 3d 81 ff 90 bd 96 23 6d bd
       -0.038345486 0.05827061 -0.070799835 -0.057895266
000150 80 54 77 3c 70 1a 31 bd 83 c6 90 3d 77 4f 1b bd
       0.01509583 -0.043238103 0.07069113 -0.03791758
000160 80 cc c1 3b 13 0b a6 3d bc 6b e2 3c 2e 8e 79 3d
       0.005914271 0.08107581 0.027639262 0.06092661
000170 43 c2 ad 3d cf b2 6b bd cf 81 02 bd e7 cd 99 3d
       0.08484318 -0.057543572 -0.031862076 0.07509976
000180 1f d6 46 bd 51 d4 6c 3d 52 5c 6d 3d 15 d0 b1 3b
       -0.048544046 0.05781967 0.05794937 0.0054264166
000190 74 c8 e8 3c 77 ed 22 bd d8 29 37 bc b4 c7 42 3b
       0.028415896 -0.039777245 -0.01117941 0.0029721083
0001a0 c0 e3 bf 3a 27 0c 6c 3d 49 61 22 3d 48 03 6b 3d
       0.0014640018 0.057628777 0.03964356 0.057376176
0001b0 c0 fc be bc 0b 44 b0 bd b8 50 37 3c 8b 45 8b 3d
       -0.02331388 -0.08606728 0.011188678 0.06800374
0001c0 43 f2 82 3d 00 8e ff bb a9 6e 05 bd 2d fd 77 bd
       0.06393864 -0.00779891 -0.032576237 -0.06054418
0001d0 5e 63 26 3d ac 55 84 3c 18 19 a0 bd 7c cb 15 bc
       0.040622108 0.016154133 -0.07817286 -0.009142753
0001e0 7f 76 ad 3d 12 18 2a 3a 54 2c 9a bc ad b7 8c bd
       0.08469867 0.0006488572 -0.018819965 -0.06870971
0001f0 1a 0b 0e 3d 2b 73 9f 3d 90 77 d0 bc dd 58 39 bd
       0.034678556 0.077856384 -0.025447637 -0.045250762
000200 66 62 16 3d 2b 38 25 bc ef 65 3d bc 77 b3 8a bd
       0.036714934 -0.010084192 -0.011559947 -0.067725115
000210 60 f6 98 bc 9d da 90 bd 6a 23 4a 3d e2 56 26 3c
       -0.018672168 -0.07072947 0.04935018 0.01015255
000220 73 92 84 3c de 36 c5 3d e0 70 71 3c da 20 a8 3d
       0.016183114 0.09629606 0.014736384 0.08209391
000230 2a bc 19 3d d7 51 0a 3c c0 9c 26 bd 60 7c c5 3d
       0.037532963 0.008442364 -0.040676832 0.09642863
000240 38 df 57 3c c3 ee 95 bb 90 ac 3f bc 15 90 ba bd
       0.013175778 -0.0045755818 -0.011698857 -0.09109513
000250 88 7b 03 3d 50 ee a2 3d a2 c6 e7 bc 63 d9 98 3d
       0.03210023 0.07955611 -0.028292958 0.07463338
000260 7e 55 3b 3d 41 6d 3e 3d 3f 31 cb 3c d6 bd ab bd
       0.04573583 0.04649091 0.024803756 -0.08385818
000270 be 99 a1 bd 28 86 74 bd d4 6e ed 3c 80 08 84 3d
       -0.07890652 -0.059698254 0.028983511 0.06446934
000280 52 23 f0 bc b5 a5 b3 3c 5c a0 fd 3c 91 9c 05 bd
       -0.029313717 0.021929601 0.030960254 -0.032620016
000290 70 f0 34 3c 95 9b 68 bc e8 54 06 bc d4 b9 b5 3d
       0.011043653 -0.01419725 -0.008198954 0.088733345
0002a0 94 9d b7 3c 6f 31 59 3b ae ae 94 bd ef d2 dd bb
       0.022414006 0.0033141037 -0.0725988 -0.00676953
0002b0 4e 92 95 bc de 51 8c bd 18 59 8c bc d1 49 c8 bc
       -0.01825824 -0.068515524 -0.017132327 -0.02444926
0002c0 40 e8 b0 bd d7 7a 29 3d b3 9b e2 3c b4 e7 3d bd
       -0.08638048 0.041376915 0.027662134 -0.046363547
0002d0 69 73 93 bd 73 f8 45 bd 9a 83 98 bd 10 ce 17 3b
       -0.07199747 -0.048332643 -0.07446976 0.0023163594
0002e0 fd 5a 8d bd 7b b1 a9 3c 01 37 ad bd 49 c4 a9 bd
       -0.0690212 0.020714512 -0.08457757 -0.082893915
0002f0 be 42 1f 3d 59 1f 1d bd c3 06 5b 3d 14 0a a2 bd
       0.03888201 -0.038359974 0.053473245 -0.079120785
000300 2e 52 85 bd ce a0 f8 bc 2a 78 16 3d 0d 3b 4a bd
       -0.06509815 -0.030350115 0.03673569 -0.04937272
000310 a7 9a 66 3d 54 de 2b bd 86 29 13 3d 3a 6f f1 bc
       0.05629983 -0.041960075 0.03592827 -0.029471982
000320 20 34 df 3b 95 43 78 3d 67 fe 2d 3d 67 37 bb bc
       0.0068116337 0.060611326 0.042478945 -0.022853566
000330 38 92 02 bc d3 ef 7e bc d8 d9 2b bc da d8 96 bb
       -0.007969432 -0.015560108 -0.01048895 -0.0046034874
000340 9d 09 b1 bd 91 f2 71 3c be e9 5e 3d 08 43 86 bd
       -0.08644412 0.014767305 0.054422133 -0.06555754
000350 dc 9a 81 bc 27 e5 49 bd f7 81 10 3d 38 b7 96 bc
       -0.015820913 -0.049290802 0.035280194 -0.018397912
000360 c5 26 8d bd ac 97 8a bd 89 cb aa 3d 8d d1 d3 3c
       -0.0689216 -0.0676721 0.083396025 0.025856758
000370 e0 84 3a bd ca d8 20 3d 18 c4 92 bc 8b 19 63 bd
       -0.045536876 0.039269246 -0.01791577 -0.05544428
000380 af 4a 4b bd b4 4a a2 bc 21 cc 48 bc 44 cc e6 3c
       -0.04963177 -0.019811012 -0.012255699 0.028173573
000390 c4 b2 92 3c 7d 9a a4 bd a0 c9 5a bb 80 d7 8f 3d
       0.017907508 -0.08037279 -0.0033384338 0.07023525
0003a0 19 d0 58 3d 97 7c 26 bc 00 a4 f3 b9 af 47 90 3c
       0.052932832 -0.0101615405 -0.0004647076 0.017612306
0003b0 40 e8 2a bb 4e 0e 8d 3d 7e 45 78 3d 63 c7 99 3c
       -0.0026078373 0.06887494 0.060613148 0.018771833
0003c0 00 98 31 bc 61 9f 89 3d 20 18 80 3c 3a 1d b6 bc
       -0.010839462 0.06719852 0.015636504 -0.022230733
0003d0 a7 b9 85 3c 17 ac b3 bd 44 88 81 bc af ba a4 bd
       0.016323877 -0.08773058 -0.015812047 -0.080434196
0003e0 b2 20 17 3d 9f a3 bd 3c bd 95 4d bb 3b af 84 bd
       0.036896415 0.02314931 -0.0031369769 -0.06478735
0003f0 66 99 29 3d 0c 7a 41 3d cd a3 5c bd 7c 35 64 bd
       0.041406058 0.047235534 -0.05386715 -0.05571507

rnn.weight_hh_l0 f4 [128, 128]
000000 78 77 88 bc e5 35 4a 3d 60 84 ef bc 32 72 65 3d
       -0.01665853 0.049367804 -0.029237926 0.05601711
000010 12 c1 89 bd 94 7d 88 3d 2f ca 2f bd 85 1d 74 3d
       -0.06726278 0.06664577 -0.042917427 0.059598465
000020 70 30 2c bd f9 d0 72 3d 63 08 b0 39 78 a7 0c 3d
       -0.04203838 0.059281323 0.00033575585 0.0343394
000030 95 4d 3e 3d de 77 92 bb 7a 48 9e bd 04 56 74 3d
       0.046460707 -0.0044698557 -0.077286676 0.059652343
000040 b6 9f 16 3d 41 6f 8e 3d 8d d0 3e 3d 68 f0 b4 bc
       0.036773406 0.06954814 0.04658561 -0.02208729
000050 ca 39 e6 3a 4d df c5 bc 41 f2 13 bd c1 d0 11 3d
       0.001756483 -0.02415433 -0.036119703 0.035599474
000060 b6 84 8c 3c 70 91 8c bd bc ba 57 bd 02 f1 36 bd
       0.017153125 -0.068636775 -0.05266832 -0.044663437
000070 1b 7f 6f bd 24 60 b9 bd 3f 1e 24 3c 87 52 0f 3d
       -0.058470827 -0.090515405 0.010016977 0.034990814
000080 72 d1 9c 3d 06 3e c5 bc ce 1f 99 3d ec fb 37 3d
       0.07657136 -0.024077427 0.074767694 0.044917986
000090 46 a1 3e bd 34 84 a2 bd ce 3d 82 bc 16 0e b3 bc
       -0.04654052 -0.07935372 -0.015898611 -0.021857303
0000a0 94 9d 25 bd 39 d2 fd 3b 37 45 1b 3d 49 40 c1 bd
       -0.04043348 0.0077460078 0.037907805 -0.094360895
0000b0 8f e6 2c bd cb b4 90 3d 2e 9e 8e 3d e7 e7 21 bd
       -0.042212065 0.070657335 0.06963764 -0.0395278
0000c0 2c 87 28 bb f2 99 95 bd 9d 22 f7 3c 12 5c 65 3d
       -0.0025715334 -0.07304753 0.030167872 0.05599601
0000d0 f6 86 0d bc ba 1f 52 bd 31 ef 31 bd 84 62 d2 3c
       -0.008638134 -0.051299788 -0.043441 0.025681742
0000e0 1b 44 a9 3d 51 55 a3 3d 00 23 70 3d e8 d9 80 3d
       0.08264943 0.07975257 0.05862713 0.06291562
0000f0 6a 53 84 3d f3 9f c8 3c cb 5c 95 bd df a8 95 3d
       0.064612225 0.024490332 -0.072930895 0.073076
000100 c2 2b aa 3d ab 36 be bd ad 8d bf bc d6 7c fd bc
       0.083091274 -0.09287771 -0.023382986 -0.030943315
000110 5d 98 6a 3d b6 4b 43 3d 82 38 0e 3d d1 57 1a bc
       0.05727421 0.047679625 0.03472186 -0.009420351
000120 98 55 87 bd b6 83 b9 bc b3 c0 75 3d 20 57 a2 3d
       -0.066081226 -0.022645812 0.059998225 0.07926774
000130 db 38 a8 3d ea bd 90 bd 11 ce 85 bd b9 4d b3 3b
       0.08213969 -0.07067473 -0.06533445 0.0054719117
000140 e5 4d a7 3d 7e c8 f9 bc 84 7c 53 bd 5e e6 06 bd
       0.08169154 -0.03049111 -0.05163242 -0.03293454
000150 15 59 4a bd fd 8d 45 bd 57 62 6d 3d 97 fd a7 3d
       -0.04940136 -0.048231114 0.057955112 0.08202665
000160 04 e5 81 3d 68 ff b1 3c 81 c7 6e bd 91 a2 ad bd
       0.063425094 0.021728233 -0.05829573 -0.08478273
000170 8d 39 bc 3d 5a 78 69 bd 37 e9 a8 bc ef 54 72 bc
       0.091906644 -0.05699954 -0.020619018 -0.014790758
000180 0d ed 16 bd ee 7b a8 bd ab 93 c1 bd 10 80 11 bd
       -0.036847163 -0.08226763 -0.094519936 -0.03552252
000190 11 30 91 bd d6 b5 0f bb 62 ba 42 bd 9c db aa 3d
       -0.07089246 -0.002192845 -0.04754103 0.083426684
0001a0 e1 ab 98 3d 9e 96 51 bd 9b f2 ac 3c 54 3e 58 3c
       0.07454658 -0.05116903 0.021111777 0.013198454
0001b0 3c 06 6c bd 4b 11 f7 3b c8 5f 3b 3c 6a 46 75 bc
       -0.057623133 0.0075399033 0.01143641 -0.014970401
0001c0 5b 2d 83 3d 78 6b 92 bd 2c cd 8f bd ca 25 52 3d
       0.06405135 -0.07149404 -0.07021555 0.05130557
0001d0 9e 44 f8 bb 9e 8d b7 bd b5 22 97 3d 90 b9 4e 3d
       -0.007576539 -0.08962558 0.07379667 0.050469935
0001e0 e2 0b 42 3d 5a 68 8c 3d 79 67 82 bd f1 1f 70 bd
       0.047374614 0.06855841 -0.06367392 -0.05862421
0001f0 86 6f d0 bc 28 ca b9 bd 5d 1b 1b 3d ec ca 5b 3d
       -0.025443804 -0.09071761 0.037867893 0.05366032
000200 e5 a7 ab 3d b5 7e 36 3d 9f 1e 19 bd bc 38 47 3d
       0.08381633 0.04455443 -0.03738272 0.04863809
000210 6b 19 aa 3d 7e 5e 98 3d ed e9 f8 3b bc 26 84 bc
       0.08305629 0.07439898 0.0075962455 -0.016131751
000220 5c 6b ca 3c d2 93 a0 3d 3d e0 9a 3d 65 38 f7 3c
       0.024709396 0.078406945 0.07562301 0.030178258
000230 79 02 2e bd 7a 08 a1 bd 53 60 e8 3a 35 ac 91 bd
       -0.042482827 -0.07862945 0.0017728902 -0.07112924
000240 bc fc 14 bd 2f d9 a7 bd b2 ee 48 bc d3 66 78 3d
       -0.03637384 -0.08195721 -0.012263941 0.060644936
000250 64 3b 17 3c 79 e0 84 bd 5e 60 ba 3c ba d2 88 3d
       0.009230468 -0.06488127 0.02275103 0.06680818
000260 30 23 d4 bc 65 53 86 bd 0c 6f 84 bd 14 c0 49 bd
       -0.025895685 -0.06558875 -0.06466493 -0.049255446
000270 24 cb 27 bd 99 ea 2e 3d 67 bb 2e 3d 68 1d fa bc
       -0.040965214 0.0427042 0.04265919 -0.0305316
000280 76 07 a2 bd 81 43 7a 3c 37 df 68 3d 15 df 4f bc
       -0.07911579 0.015274883 0.0568535 -0.012687464
000290 22 5a 1a 3d 0b 90 a3 3d e0 8e 30 3d f7 eb 2b 3d
       0.037683614 0.079864584 0.043105006 0.04197308
0002a0 6b 54 d3 bb bc ba 9c bc 77 3a 44 bc fb 01 6d bd
       -0.0064492724 -0.01913201 -0.01197683 -0.057863217
0002b0 ad 10 ee 3c 4d c5 f6 3c 5b 41 8c 3d 5c e7 9f bd
       0.029060686 0.030123377 0.06848403 -0.078078
0002c0 63 a6 a0 bb 68 56 ef bc 93 25 91 bd 77 68 34 bd
       -0.0049026473 -0.029216006 -0.07087245 -0.044044938
0002d0 73 38 d2 3c 85 9e 73 3d 77 d7 d1 3b eb f9 0b 3d
       0.025661683 0.059477348 0.0064038592 0.034173887
0002e0 fc 8e 3c bd 0b 64 12 3c 72 d7 00 3d 9d 21 ac 3c
       -0.046034798 0.008934985 0.031455465 0.021012122
0002f0 98 47 42 3d 0b 5d 6d 3d 4a fa 67 bd 95 8e a0 3d
       0.04743156 0.05795006 -0.05663518 0.07839695
000300 18 4b 69 bd 4b 79 66 3d f0 6a e7 3c 41 03 5b bc
       -0.05695638 0.056268018 0.028249234 -0.013367475
000310 ff d6 d5 3c 5c f8 ec 3c 49 7d 2b 3d 0b e1 a3 bc
       0.026103495 0.02892702 0.041867528 -0.02000477
000320 e0 c3 22 bd 9e ff 67 bc 66 e7 d8 3c 8a b9 42 bd
       -0.039737582 -0.014160065 0.026477527 -0.047540225
000330 9f 13 29 3d fe 20 8c bd e3 34 87 bd 49 ba 26 3c
       0.041278478 -0.0684223 -0.06601884 0.01017625
000340 13 3f 31 bd 45 e5 a3 3b 81 f3 a3 bb c9 71 c0 bd
       -0.043273043 0.0050016963 -0.005003393 -0.09396703
000350 1b d3 20 3c a8 0e 88 bd 81 67 33 bd c3 c0 bb bd
       0.0098159565 -0.066434205 -0.04379988 -0.09167626
000360 f3 9c 83 bd 65 f9 e9 bb 27 12 09 3d 3c f8 9a bd
       -0.0642642 -0.007140326 0.033464577 -0.07566878
000370 6c d6 fe 3c 31 62 0a 3d f4 50 17 3d 9e 89 04 3d
       0.031108104 0.03378505 0.036942437 0.032357804
000380 7a 93 95 bd aa 98 44 bd be 9c a2 3c 62 c6 84 ba
       -0.073035195 -0.047997154 0.019850131 -0.0010129923
000390 e2 54 69 bd 44 51 6c 3d 33 3f 95 bd 4d b8 00 3d
       -0.056965716 0.05769469 -0.07287445 0.031425763
0003a0 77 f8 48 3d db c0 c0 bc d4 40 90 bc 3c 40 01 bd
       0.04906508 -0.02352946 -0.017609037 -0.0315554
0003b0 30 e4 f9 bb 87 10 38 3d 6b fc b3 bc cd 3b 64 3d
       -0.007626079 0.044937637 -0.021970948 0.055721093
0003c0 a7 7d 8a 3d d2 09 12 3b e8 ee ab bd 79 1c 79 3d
       0.067622475 0.0022283685 -0.08395177 0.06081817
0003d0 ad b2 3f 3d 17 d9 c5 3d 33 cb 4d 3d 60 fb 77 3d
       0.046801258 0.09660547 0.050242614 0.060542464
0003e0 f8 69 06 3d 24 29 33 3d 46 f4 89 3a e4 d1 e5 bc
       0.032815903 0.043740407 0.001052507 -0.028054185
0003f0 bd 86 da 3c 8e 08 24 bd 82 2f 84 bd 86 d5 47 3d
       0.026675576 -0.04004722 -0.06454374 0.048787616

rnn.bias_ih_l0 f4 [128]
000000 8a df 73 3c 06 39 75 3c c5 f1 19 bd e7 70 32 bd
       0.014884839 0.014967209 -0.037584085 -0.043564703
000010 e0 4b 4f bd 65 fd 4b 3d 36 42 c3 3c b7 0a a3 bd
       -0.05060947 0.049802203 0.023835283 -0.07961028
000020 ae 89 8f bd f0 1f a0 bd 3b 65 9b bb 14 ad a6 bd
       -0.07008682 -0.078185916 -0.004742292 -0.08138481
000030 1a 39 26 bd 68 e7 87 bd f1 e6 95 bd ce 78 4f bc
       -0.0405818 -0.06635934 -0.07319439 -0.012663079
000040 3c be 7b 3d 04 39 17 bd 86 d9 88 3c b7 0e 8b bd
       0.06146072 -0.03691961 0.016705286 -0.06789916
000050 27 ca 06 bd 1f 63 87 3c 05 98 34 bd 91 52 c2 3d
       -0.03290763 0.016526757 -0.04409029 0.094884045
000060 f4 04 e3 3c 43 7e da 3c 12 30 3c 3d ba f8 c6 3c
       0.027712323 0.026671534 0.04594428 0.024288524
000070 f8 2e 4b bd a3 3f 4d bb ee ae 02 bc 35 c9 19 bc
       -0.04960534 -0.0031318448 -0.007976277 -0.00938635
000080 f7 28 97 3c 52 d2 aa 3d 86 d9 20 bd 9c a6 6e bc
       0.01845215 0.08340897 -0.039269947 -0.01456609
000090 5e a7 2a 3d 48 2e c4 bc 43 21 84 bd cf 2e 4a 3d
       0.04166352 -0.02394785 -0.06451657 0.049361046
0000a0 a0 09 44 3c e2 52 1f 3d ac 50 99 bd d8 82 e4 3b
       0.011965185 0.038897403 -0.0748609 0.0069736056
0000b0 05 a7 a2 bd 12 3b 3c bc f5 e6 85 3d f8 1c 47 bd
       -0.07942013 -0.011488693 0.06538192 -0.04861161
0000c0 df f5 2f 3d 0f 16 8b bd 50 0a b3 3c d9 98 2d bd
       0.04295909 -0.06791317 0.021855503 -0.042382095
0000d0 9e 6d 5a 3b ff de 88 3d e2 f1 0e 3c b6 d0 fa 3c
       0.0033329497 0.06683158 0.008724662 0.0306171
0000e0 85 5f 2e 3d e1 70 38 bd 4e 2b aa 3a 32 f1 b9 3c
       0.042571563 -0.045029525 0.0012982877 0.022698019
0000f0 c3 7a 97 bd fe 48 01 3c a3 72 08 3c ff bc 8a bd
       -0.07396462 0.007890938 0.008328113 -0.067743294
000100 37 c2 73 bc b3 62 91 bd d3 88 78 bc 6f 7f b8 bd
       -0.014877847 -0.070989035 -0.01516934 -0.09008681
000110 b8 46 ca 3b 80 f3 87 bd ee c5 9d bd 02 ee 88 3d
       0.006172981 -0.06638241 -0.07703768 0.066860214
000120 cb 49 86 3c 53 e0 47 3d da 65 89 bd d8 7b 15 bd
       0.01639261 0.048797917 -0.0670888 -0.03649506
000130 51 70 59 3d 32 64 42 3c 24 12 23 bc 3f 1d af bd
       0.05308563 0.011864709 -0.0099530555 -0.085505
000140 74 c7 a1 bd 5a ee cb bb 56 27 2b 3b 20 70 e1 bc
       -0.07899371 -0.006223482 0.0026115975 -0.027519286
000150 ef d2 0c bd de 72 b7 3c e0 ca 1a 3d 03 49 c1 3d
       -0.03438085 0.02239364 0.037791133 0.09437754
000160 9a a1 aa 3d 64 8a 81 3d 2a 84 b1 3d 3a dd 0f 3d
       0.08331604 0.06325224 0.086677864 0.035123087
000170 b0 c6 94 3d ba bc 3a bd bb 7e 81 bc 0c ea 99 bd
       0.07264459 -0.04559014 -0.0158075 -0.07515344
000180 fc d1 8c bd 0f d3 b0 bd d9 3a 3c 3d 8e 44 24 3d
       -0.06875989 -0.08634006 0.04595456 0.04010444
000190 3a 37 bb ba 30 bc bf 3c f7 37 28 3d d9 66 a1 bc
       -0.0014283427 0.023405164 0.041068997 -0.019702362
0001a0 68 6e 88 bd 31 48 bb 3c eb 76 2a bc 6e 97 0d 3d
       -0.06661683 0.022861572 -0.010404329 0.034568243
0001b0 d3 0c 9e bd 5a 4a a3 3d 81 47 02 3d 5a 30 50 3d
       -0.0771729 0.07973166 0.031806473 0.05082736
0001c0 40 f8 3d bd 47 c1 8a 3d 1d ca 1a 3d 74 58 03 3d
       -0.046379328 0.06775146 0.037790406 0.032066777
0001d0 ba e2 06 3b b4 fb 63 bd 23 26 fc bc 1e 43 99 bd
       0.0020581917 -0.055659965 -0.030779904 -0.07483505
0001e0 9b 78 f0 bc 62 9a ba bc 24 e0 e2 3b 76 4a 08 bd
       -0.029354384 -0.022778694 0.0069236923 -0.033274136
0001f0 ed 81 9b 3d e8 a7 a9 3c c7 e3 a7 bd 05 c1 e3 3c
       0.07593141 0.020709947 -0.08197742 0.027802

rnn.bias_hh_l0 f4 [128]
000000 56 e3 de bc 34 e1 01 3d 8a 9f bd 3c 35 3a 0e 3d
       -0.027208012 0.03170891 0.023147363 0.03472348
000010 a8 40 b9 bd 4a 67 1a bd ca a2 b8 bd 8c 4e bd bb
       -0.09045535 -0.03769616 -0.090154245 -0.005777186
000020 4d 13 86 3d d4 36 56 bd cf 26 4d 3d 79 6a 2b 3d
       0.0654665 -0.052298382 0.05008584 0.041849587
000030 4c 78 3c bd 38 3e 36 bd b5 e9 0d bb 60 5d e9 bb
       -0.04601316 -0.04449293 -0.0021654193 -0.007121727
000040 b6 c3 ab 3d 1d fd 0f 3d c3 48 54 3d 6f f7 d2 b9
       0.08386938 0.035153497 0.051827203 -0.00040238674
000050 68 04 39 3b 64 09 26 bd d1 f2 18 bd 0d 38 30 3d
       0.0028231386 -0.0405363 -0.037340943 0.043022204
000060 e6 f0 a3 3c b5 f7 c4 bd 12 83 0b bd 4f c7 48 bd
       0.02001233 -0.09617559 -0.034060545 -0.0490182
000070 41 6e ab bc a4 5f ee 3c b4 15 53 bd 17 e7 5f 3d
       -0.020926597 0.02909834 -0.05153437 0.054663744
000080 55 6a 10 3d 62 90 34 bd 1b f8 94 bd 39 45 a5 3d
       0.035257656 -0.044083007 -0.07273885 0.08069844
000090 6d 43 81 bc 5f 11 29 3d 75 09 92 3c 39 4c 42 bd
       -0.015779221 0.041276332 0.017826775 -0.047435973
0000a0 33 62 72 3d c2 5b 58 3d b9 97 13 bd 36 99 8c bd
       0.05917568 0.052821882 -0.036033366 -0.0686516
0000b0 a1 10 64 bd df e1 b9 3d 52 df 16 bd 18 bf 56 bd
       -0.05567992 0.090762846 -0.03683407 -0.052428335
0000c0 e2 d4 ca ba fc 43 11 3d e9 d3 2d bd 15 85 8b bd
       -0.0015474821 0.035465226 -0.04243842 -0.06812493
0000d0 f9 f4 a5 bd 0d c9 82 3d ce fb 8e bd c3 d9 30 3c
       -0.081033655 0.06386004 -0.06981622 0.010794106
0000e0 15 c6 ac ba 28 4f 18 3d a9 d8 1b 3d 34 78 74 3d
       -0.0013181592 0.037184864 0.03804842 0.059684947
0000f0 47 36 bb bd 2b a5 b1 3d f8 d8 0e 3d c0 5e 48 bd
       -0.09141212 0.086740814 0.034874886 -0.048918486
000100 a1 15 84 3d 90 5d 99 bd bd 04 8e 3d da 94 34 bd
       0.06449438 -0.07488549 0.069344975 -0.04408727
000110 87 d4 08 3d 81 41 c2 3d 7f d5 29 bd a1 37 f9 3c
       0.033405807 0.0948515 -0.04146337 0.030422034
000120 78 05 12 bb ef 19 75 3d 31 f3 64 3d 34 59 69 3d
       -0.0022281092 0.059839185 0.055895988 0.056969836
000130 bd 0c 0e bd 38 1e 2c bc 07 c3 7c bd f8 cf 2b bd
       -0.034680117 -0.010505252 -0.06170943 -0.04194638
000140 58 88 db bc ba ca 77 bd 60 f4 b4 3c d8 d2 25 bc
       -0.026798412 -0.06049607 0.022089183 -0.01012107
000150 46 47 bf bd 66 ac a9 3c b2 ba b3 3d c0 96 35 bd
       -0.09339766 0.020712089 0.08775844 -0.04433322
000160 c0 cb a6 3d 38 63 34 3d 7e 96 86 3d 8d 96 13 bd
       0.08144331 0.044039935 0.06571673 -0.03603225
000170 11 48 12 bd c7 e1 c4 3d 44 5a 23 bd 1c 67 8c 3d
       -0.03571326 0.09613376 -0.039881006 0.06855604
000180 a4 43 d0 bc 14 78 1d bd 33 b8 ab bd 92 28 6b bd
       -0.025422879 -0.038444594 -0.083847426 -0.057411738
000190 4d 5f 43 bd 15 40 a6 bd 5d 62 19 bd e6 bb 3b 3d
       -0.047698308 -0.081176914 -0.037447322 0.04583349
0001a0 57 0b 5a 3b a2 e8 bd 3d 87 9d ac bd 70 86 86 bc
       0.003327092 0.09272887 -0.084284835 -0.016421527
0001b0 f6 55 e1 3b 64 68 7b 3d 9f fc 47 3d de 18 33 bd
       0.0068767024 0.06137885 0.048824903 -0.043724887
0001c0 4e 78 56 bc ac 72 23 3c e1 90 b2 3c 41 fc a5 bc
       -0.013090206 0.00997607 0.0217976 -0.020261886
0001d0 d3 c6 90 bb 47 f4 5b bd 8e 76 10 3d bb 7f 34 3c
       -0.004418233 -0.053699758 0.035269313 0.011016781
0001e0 87 99 0e 3d d6 f5 a6 bc bd 3d 50 3d 82 65 dd 3c
       0.034814384 -0.020380896 0.05084013 0.027025942
0001f0 ef fa 65 bd 0a 5b a8 bd dc c6 5e bc d6 88 01 3c
       -0.056147512 -0.08220489 -0.013597216 0.007906159

actor.weight f4 [3, 128]
000000 53 d8 3e 3c 79 74 98 bd 7e 95 8d bd 34 29 7f 3b
       0.011648255 -0.074440904 -0.06913279 0.003893447
000010 95 e2 d7 bc f9 c6 16 bc 33 24 85 3d 68 e7 31 3d
       -0.02635316 -0.009202712 0.06501045 0.043433577
000020 3d 45 6b 3c b5 fd ba 3d 4d a6 78 3d b6 2d 06 ba
       0.014359769 0.09130422 0.06070547 -0.0005118506
000030 ff 23 21 3d 1a 00 a5 3d ca 53 06 3d b3 bc 9f 3c
       0.03934097 0.0805666 0.03279475 0.019499158
000040 c6 c4 36 bd 68 b6 81 3d b7 c7 44 3d 33 64 66 3d
       -0.04462125 0.06333619 0.048042025 0.0562479
000050 6c f5 9b bd 2e 8f 5a bd 0c d3 07 3c 7c e5 a2 bd
       -0.0761517 -0.053359203 0.008290064 -0.07953927
000060 e9 e6 98 3d 8f c9 8e bd 52 8d 33 bd 01 3a b5 bd
       0.074659176 -0.06972038 -0.043835945 -0.08848954
000070 29 31 54 bb 4c 76 a1 3d 0c f7 52 bd d5 ba 4a 3d
       -0.0032377935 0.078838915 -0.051505134 0.049494583
000080 5a 8f a9 3d 93 c5 6b 3d 8e 5e 81 bd cc ea 64 bb
       0.08279295 0.05756147 -0.06316863 -0.003492999
000090 1d 95 5e bd 2e 0d 93 3d 75 32 00 bd 60 13 81 3d
       -0.054341424 0.07180248 -0.03129812 0.063025236
0000a0 56 d4 8a 3d 12 b1 9b 3c 5e e7 a8 3d 68 eb dd 3b
       0.06778781 0.019005332 0.08247255 0.0067724474
0000b0 5f 2e 68 bc 2c ae 98 bd 89 df a7 3d c1 a2 a4 bd
       -0.014171212 -0.07455096 0.08196933 -0.08038855
0000c0 d1 2b 96 bd c1 d6 70 3c 8e 99 6a bd 32 13 11 3d
       -0.07332576 0.014699639 -0.057275347 0.035418697
0000d0 b3 02 ba 3a 67 c0 e3 3c 6a df 1c 3d 2f 34 64 3d
       0.0014191478 0.027801706 0.038299 0.05571383
0000e0 0f 3e 9f bc 3e a6 86 3d b7 dc 19 bd 80 af 1c bd
       -0.019438772 0.06574677 -0.037564006 -0.038253307
0000f0 48 40 5b bc 47 80 05 3d b9 46 3c bd 26 5f 0d 3d
       -0.013382025 0.032593038 -0.045965884 0.03451457
000100 41 89 b6 bd e7 26 28 3d ff ca 8e bc 20 80 24 3d
       -0.08912898 0.041052725 -0.01743078 0.040161252
000110 b1 ad 53 bb 0d 7c ad 3c 0a 73 b8 3c c1 af 8f bc
       -0.0032299573 0.021177316 0.022515792 -0.01753986
000120 72 d4 1d bd 1c e0 42 3c ce a2 76 bd 85 7b 4c 3d
       -0.03853268 0.011894252 -0.060213856 0.049922485
000130 c6 17 97 3b 8d 84 14 3d b4 c1 78 3d ec 55 88 3d
       0.0046109883 0.036259223 0.060731605 0.06657013
000140 42 6b 82 bd 47 af 43 3d 7b 79 87 3d 10 a2 e2 3b
       -0.06368114 0.04777458 0.066149674 0.006916292
000150 cc 19 3a 3c 5a b9 2e bc ff 93 93 3d 24 b6 34 bd
       0.0113586895 -0.010664308 0.072059624 -0.044119015
000160 2e 96 9f bc 86 9f 86 3c b4 00 27 3d c8 0c 62 3c
       -0.019480791 0.016433489 0.040772155 0.013796993
000170 31 7e 26 bd 8c 49 31 3d a8 30 80 bd 76 41 23 3d
       -0.04064769 0.04328303 -0.062592804 0.03985735
000180 f2 4f ad 3c f5 64 6e bc ec e8 a9 3d 5a cf aa 3c
       0.021156285 -0.014550437 0.082963794 0.020850826
000190 ef 8e 7f 3c d6 6f b1 3d b4 5d 3f 3d d8 32 aa 3c
       0.015598043 0.08663909 0.04672022 0.020776197
0001a0 61 76 3e bb a6 71 42 3d e9 cc 85 3d cd 2e 6f 3d
       -0.0029062259 0.047471665 0.06533224 0.058394242
0001b0 21 c6 99 bd 0e 6d a4 3d 2b cd a4 bd 7a a2 ca bc
       -0.07508493 0.08028613 -0.08046945 -0.024735678
0001c0 56 fc 94 bc bd e4 a7 3d 87 99 03 bc 25 fa db bc
       -0.01818673 0.08197925 -0.008032209 -0.026852677
0001d0 13 6f c2 bc 1e b4 d5 3c 09 aa 28 bd 7e 6a 5a bc
       -0.023734605 0.026086863 -0.041177783 -0.013331054
0001e0 75 33 44 bd 34 7f 5b bd 28 9e 98 bd 7e 07 a5 bd
       -0.047900636 -0.053588107 -0.07452041 -0.0805807
0001f0 7b 41 d5 bc ad df a2 bd 44 36 60 bc ef 4f 3f 3d
       -0.0260322 -0.07952819 -0.013684813 0.04670709
000200 06 cf b4 3c da 2a e6 3c 50 60 6f 3d 0f c3 83 bd
       0.022071373 0.028096605 0.05844146 -0.06433689
000210 79 23 9c 3d 3e 30 32 bd fc d9 d9 bc c0 29 ba 3b
       0.07623953 -0.04350304 -0.0265932 0.0056812465
000220 e9 d7 73 bd 4d 31 a7 bd 46 22 f9 bb 77 8c 4e 3d
       -0.05953208 -0.081637 -0.0076029627 0.050426926
000230 44 8e 15 bc fd 05 6d bd bb 7b 8e 3c 0a 78 83 3d
       -0.009128157 -0.05786704 0.017392984 0.0641938
000240 90 6c 9f 3d 36 ca 24 bd d5 55 99 bd 19 90 45 3d
       0.077843785 -0.040231906 -0.07487074 0.048233125
000250 1b 46 b1 3d 53 f2 95 3d 4a f8 5b bd 4e a8 8e bd
       0.0865595 0.0732161 -0.053703584 -0.06965695
000260 1e 21 cb 3c a1 a3 5b bd c1 f0 e9 bc 7d 73 27 3d
       0.024796065 -0.053622846 -0.028557183 0.040881623
000270 49 1f e7 bb 16 4d a5 bd 66 58 49 bd aa 68 a0 3a
       -0.00705329 -0.080713436 -0.04915657 0.0012238224
000280 21 18 72 3d 1b 40 8e 3d 6e b0 9b 3d 99 18 b9 bb
       0.059105042 0.06945821 0.07602011 -0.005648684
000290 4c 45 a9 bd 3f e3 fe 3c 6b 1d e9 3c 50 c8 9a bd
       -0.082651705 0.031114219 0.02845641 -0.07557738
0002a0 17 44 22 bb d0 f7 2b bc 48 7e f1 ba e6 e8 a9 bd
       -0.0024759823 -0.010496095 -0.0018424476 -0.08296375
0002b0 2b 7c f8 3c b2 08 1e b9 66 86 5c 3d f6 75 66 bd
       0.030332645 -0.00015071293 0.05383911 -0.05626484
0002c0 6d 74 96 3d 3a 2e 1d bd 8b e6 95 bd 34 d9 ac 3d
       0.07346425 -0.038374163 -0.07319363 0.08439866
0002d0 84 16 72 3d 79 a4 c0 bc 67 d1 f5 3c 5c db 5e bd
       0.059103504 -0.023515927 0.030007077 -0.054408416
0002e0 9b f6 97 bb 31 ef 2b bd c4 ec 9a bd fc 2e 3b 3d
       -0.004637552 -0.041976158 -0.07564691 0.045699105
0002f0 70 cb 93 3d 3a 7b 95 3c 50 c2 83 3d 13 8b bc 3d
       0.07216537 0.018247236 0.064335465 0.09206214
000300 30 4f 58 3d 0f 19 4c bd dc 49 9b bc ae 81 94 3d
       0.052809894 -0.049828585 -0.018956117 0.07251297
000310 86 43 6f 3c 1d 14 bd 3c f3 9e 08 3b 4e 47 83 3d
       0.014603501 0.02308088 0.0020846694 0.06410085
000320 16 d2 b6 bd 61 96 86 bd 3f 55 13 bd 78 3d 14 3d
       -0.089267895 -0.06571651 -0.03596997 0.036191434
000330 ef 7e 60 bd 82 eb 9a 3c ff b1 60 3d 66 32 3b bc
       -0.054808553 0.018911127 0.05485725 -0.01142559
000340 19 c5 e6 3c 1e 76 42 3d f9 17 3e bd 81 4f 91 3b
       0.028170155 0.047475927 -0.04640958 0.0044345264
000350 5f e4 4c 3d 15 7e 4f 3d d6 04 1d bd 45 de 6d bd
       0.05002248 0.05065735 -0.03833469 -0.0580733
000360 31 73 b7 3b 12 bc 68 3d 0f eb 95 bd 9e 97 b3 bd
       0.0055984487 0.056819983 -0.073202245 -0.08769153
000370 cc d9 55 3d 36 5b 4d 3d 2e 65 b2 bd 37 2e ae bd
       0.05220966 0.050135814 -0.08710705 -0.085049085
000380 08 e5 91 bd c4 86 90 bd e1 17 de bc a2 88 b5 bc
       -0.07123762 -0.070569545 -0.027110996 -0.022159878
000390 9a 51 14 3d c3 97 d1 3c 3d 54 ec bb 56 73 14 bd
       0.036210634 0.025585061 -0.0072121904 -0.036242805
0003a0 4c 7c 9a bd 2e 4d 5b 3c 1e 16 0f bd 59 dc 4f 3d
       -0.07543239 0.0133851 -0.034933202 0.05074725
0003b0 06 6d 47 3c 46 36 7b bc 24 fb 30 3d f9 65 d0 bc
       0.012171989 -0.015332764 0.043208256 -0.02543925
0003c0 02 3d 06 3d 0a 12 a2 3c f2 36 b1 3d e6 27 f6 bc
       0.032773025 0.019783992 0.08653058 -0.030048322
0003d0 e6 60 93 3d 28 38 cf bc 85 d4 bf 3d f5 77 3b 3d
       0.07196216 -0.025295332 0.09366707 0.045768697
0003e0 88 17 6b bd 20 83 f4 bc a1 84 62 3d 0b bc 9a 3d
       -0.057395488 -0.029847682 0.055302266 0.075553976
0003f0 3c 26 02 3d b6 b1 8c 3c 73 91 f5 bc 42 68 82 3b
       0.031774744 0.017174583 -0.029976582 0.0039797137

actor.bias f4 [3]
000000 23 e5 3c 3d 4e bd 4b bd 93 df 6b bd
       0.04611696 -0.049741082 -0.057586264

critic.weight f4 [1, 128]
000000 03 e8 aa 3d 67 fd ae bd e7 01 a7 bd 7c 71 8b 3d
       0.08345034 -0.085444264 -0.0815466 0.06808755
000010 f3 64 81 bd f8 c9 ea bc 57 8f 19 bd 7e 94 7b bd
       -0.06318083 -0.02866076 -0.037490215 -0.06142091
000020 3f 14 83 3d 80 66 92 bd 2a 53 8b 3d ce fa 97 3c
       0.06400346 -0.071484566 0.06802972 0.01855221
000030 fd 4f 83 3d f8 3c 4e 3d 72 4e 12 3d e3 e4 16 bd
       0.06411741 0.050351113 0.035719343 -0.036839377
000040 fd 32 32 3b a4 5c f7 3b 4c 3b 4c bb 38 8d a4 bd
       0.0027191036 0.0075488854 -0.0031163273 -0.08034748
000050 22 14 ad bb 4b f3 4d bb b4 05 86 3d 30 55 08 3d
       -0.005281941 -0.0031425531 0.065440565 0.033284366
000060 97 e4 c3 3d c6 2a 87 bd 36 ac ef 3a 52 2f 33 3d
       0.095650844 -0.06599955 0.0018285576 0.0437463
000070 92 f4 16 3d c8 6a e3 bc 3a 42 28 3d e7 e2 ba bb
       0.036854334 -0.027760878 0.041078784 -0.0057033184
000080 44 87 96 3c 47 2a ba 3d a5 7b b0 bd 21 b9 b0 3d
       0.018375047 0.09090095 -0.08617333 0.086290605
000090 f5 05 e1 3c a5 30 f0 3c 59 ff b9 bd 20 df ab bc
       0.02746866 0.02932007 -0.09081907 -0.020980418
0000a0 93 35 1f bd 01 2f 00 3c 6e f3 a1 bc 80 d4 68 3d
       -0.03886945 0.007823707 -0.019769397 0.05684328
0000b0 98 fa 33 bd ea 8b 8a 3d 18 54 9f bd c8 11 95 3d
       -0.043940157 0.06764968 -0.077797115 0.07278782
0000c0 99 08 87 3c 7b 34 74 bd fd bf a8 bd cd 36 a7 bd
       0.016483592 -0.05962036 -0.08239744 -0.08164749
0000d0 ad 40 7d bd 6e ce 73 bd fb 8a 06 3d 09 af be 3d
       -0.061829258 -0.05952304 0.032847386 0.09310729
0000e0 c0 2c 25 bd 3e 87 d5 bc b6 58 50 3d 89 b7 b3 3d
       -0.04032588 -0.026065465 0.05086585 0.08775241
0000f0 e3 dc b1 bc 5c bd 98 3d 60 24 1d bc 19 d4 4e bd
       -0.021711772 0.074579924 -0.009591192 -0.05049524
000100 d6 44 24 3d 04 8b 73 3c c4 7a ca 3c 58 8c 91 bd
       0.04010471 0.014864687 0.024716742 -0.071068466
000110 3d fc c7 3d 67 7c d3 3c 5e 62 f9 bc 4b ac 81 bb
       0.097649075 0.025816156 -0.030442413 -0.0039573065
000120 00 38 8d 3b a8 71 f1 bc ed 01 98 3d 70 79 98 3d
       0.0043096542 -0.02947314 0.07422242 0.07445037
000130 01 81 44 3c 72 da ad bd 99 e7 80 bd 4e f7 6a bd
       0.011993648 -0.08488931 -0.06294174 -0.057364754
000140 fb 00 88 3d 15 2c 4d bd 08 52 96 3d 87 0b b0 3d
       0.06640812 -0.050090868 0.07339865 0.08595949
000150 3b a9 aa bd 3c f9 00 bd da f7 c1 3d e0 f8 48 3d
       -0.083330594 -0.03148769 0.09471102 0.04906547
000160 18 c4 d5 3b 7f b4 89 bc ce 5e d7 3c b5 be bb 3c
       0.0065236203 -0.0168097 0.026290324 0.022918085
000170 eb 6e e3 bc a5 aa a6 3d 7b a7 84 3d e4 b0 98 bc
       -0.02776285 0.081380166 0.06477257 -0.018639036
000180 55 9d 0b bd ab a2 44 bc 34 d1 75 bb ac dc a4 bb
       -0.03408559 -0.012001674 -0.0037508728 -0.005031189
000190 dc ec 8d 3b d9 77 d9 bc cb eb 2e 3d 17 bd 70 bc
       0.0043312144 -0.026546406 0.04270534 -0.01469352
0001a0 28 67 85 bc 5b 41 73 3d 31 ee b0 bd 7d bc 8c bd
       -0.01628454 0.0593885 -0.086391814 -0.06871889
0001b0 04 0d 66 bd 88 ff 20 bd a2 a1 26 3d f6 16 97 3c
       -0.056164756 -0.039306194 0.04068149 0.018443566
0001c0 25 7f 21 3d dd d8 3f 3d f9 bc a8 bd 9a 54 22 bd
       0.039427895 0.046837676 -0.08239169 -0.039631464
0001d0 46 59 55 3c c5 ea 80 3d 50 54 e2 3c 16 ac a8 bc
       0.013021773 0.06294779 0.027628094 -0.02058987
0001e0 e4 f4 af 3b 83 c4 02 bd ba 2c c4 3d ef fd d7 bc
       0.0053697694 -0.03192569 0.095788434 -0.026366202
0001f0 f4 fc 9a bd 24 f6 bd bc 6e 1f 62 bd 9c d2 48 bd
       -0.07567778 -0.023188658 -0.055205755 -0.049028978
