model_params/model_params_10.pth (torch, 74912 bytes, 7 tensors)

rnn.weight_ih_l0 f4 [128, 6]
0	0xbd9a15fd	-0.07523725
1	0xbde2363b	-0.110455
2	0x3c8201c4	0.015869983
3	0x3f21a0e3	0.6313612
4	0xbd6d691e	-0.057961576
5	0xbd4147d0	-0.047187626
6	0xbdb3bc3e	-0.08776139
7	0x3cedf956	0.029049557
8	0xbc925fa0	-0.017867863
9	0x3f48c2bb	0.78422135
10	0x3d962fcf	0.073333375
11	0x3d2dfbe2	0.042476542
12	0x3d975039	0.07388348
13	0x3de3ce24	0.111233026
14	0x3c85b540	0.016321778
15	0xbf13f11d	-0.57789785
16	0xbdc54d42	-0.096338764
17	0xbd59ecd3	-0.05320437
18	0xbb130860	-0.0022435412
19	0x3bc3baf6	0.005973215
20	0xbd855b02	-0.06511499
21	0x3e5f1763	0.21786265
22	0xbcd5d474	-0.026102282
23	0xbd4613d9	-0.048358772
24	0x3db1f2c1	0.0868888
25	0x3dbc2c71	0.09188164
26	0x3d5bf032	0.053695865
27	0xbf0605cc	-0.52352595
28	0xbbbdb38b	-0.0057892255
29	0x3d921aff	0.07134055
30	0x3a388380	0.0007038638
31	0xbda03711	-0.07823003
32	0xbd55adb9	-0.052167628
33	0x3f2dfbce	0.6796235
34	0x3cc8b275	0.024499157
35	0xbdc82649	-0.09772927
36	0x3d493fd6	0.049133144
37	0x3d88b1b3	0.066745184
38	0xbd69763c	-0.056997523
39	0x3e374d4d	0.17900582
40	0x3cd2ecca	0.025747675
41	0x3d891282	0.06692983
42	0xbc20db70	-0.009817943
43	0x3cfec960	0.031101882
44	0xbc93647c	-0.01799225
45	0x3ea0f3f5	0.31436124
46	0xbcc7e45f	-0.024400888
47	0x3c533c33	0.012892771
48	0xbc5cfe80	-0.013488412
49	0x3d33d166	0.04390087
50	0x3cfd54bc	0.030924194
51	0xbf057120	-0.5212574
52	0xbc1418bf	-0.009039103
53	0x3c794340	0.015213788
54	0xbd6ff9e4	-0.058587924
55	0xbb4816b7	-0.0030531117
56	0xbd944b67	-0.07240944
57	0x3efdca8f	0.49568602
58	0xbd0aa227	-0.033846047
59	0x3d8295e0	0.06376243
60	0xbd4c0529	-0.04980961
61	0xbdb14568	-0.08655816
62	0xbcfda352	-0.030961666
63	0xbe3ba1b4	-0.18323404
64	0xbca0a540	-0.019610047
65	0xbce1dded	-0.027571643
66	0x3bee95c0	0.007281035
67	0xbdb12c5b	-0.08651038
68	0x3cc32b8c	0.023824476
69	0x3eb57550	0.35441065
70	0xbd97efa4	-0.07418755
71	0x3d433269	0.047655497
72	0xbd4db2af	-0.050219234
73	0xbdbe109c	-0.09280512
74	0xbd524254	-0.051332787
75	0x3f3cd77d	0.7376631
76	0x3df5a73b	0.11994787
77	0x3bb3beab	0.005485376
78	0xbda22a24	-0.07918194
79	0xbd8be519	-0.06830806
80	0xbda7991e	-0.08183502
81	0x3f2a6e98	0.66575
82	0x3cf4fb16	0.029904883
83	0x3d965334	0.073400885
84	0xbd548f0f	-0.051894244
85	0x3caa2928	0.020771578
86	0xbd33013f	-0.04370236
87	0xbf0f3447	-0.55939144
88	0xbbe47961	-0.0069724773
89	0xbd28370e	-0.04106813
90	0xbd4c5a91	-0.04989106
91	0x3db00b26	0.085958764
92	0xbb5d9fc0	-0.0033817142
93	0xbf0e054b	-0.55476826
94	0xbd17c391	-0.03705174
95	0x3d08b7c0	0.033378363
96	0xbcd75b20	-0.026288569
97	0x3d3aa722	0.045569547
98	0xbc9b6640	-0.018969655
99	0xbf27fcac	-0.6561992
100	0x3c8f84d3	0.01751939
101	0x3d43752c	0.047719166
102	0x3ba32890	0.0049792007
103	0x3d78cd1e	0.06074249
104	0x3d9e3ddb	0.07726642
105	0x3e312a58	0.17301309
106	0xbd565af4	-0.052332833
107	0xbcf37e39	-0.029723274
108	0xbd4c6260	-0.049898505
109	0x3db8e067	0.09027176
110	0xbd70f84b	-0.05883054
111	0x3c7eec94	0.015559334
112	0xbd5c9489	-0.05385259
113	0x3d91bad1	0.071157105
114	0x3c8af588	0.016962782
115	0xbcb12ef5	-0.021628836
116	0x3d417022	0.04722608
117	0xbf3d4967	-0.7394013
118	0xbe04abf3	-0.12956218
119	0xbda01e06	-0.078182265
120	0xbcf26372	-0.029588435
121	0xbd9c10d6	-0.07620399
122	0xbd476cab	-0.04868762
123	0x3f2273f9	0.6345821
124	0xbc8c8029	-0.017150955
125	0x3dce645c	0.10077736
126	0x3bd3d500	0.0064646006
127	0x3d88bf21	0.0667708
128	0x3d76f0be	0.060288183
129	0x3e6d7d16	0.23192248
130	0xbc6be95c	-0.014398899
131	0xbd98c327	-0.07459097
132	0x3da82d79	0.08211798
133	0x3b32e016	0.002729421
134	0x3c0d1958	0.008611999
135	0xbe5df7a3	-0.21676497
136	0x3d65caaf	0.056101497
137	0xbc8e2540	-0.017351747
138	0xbd270b14	-0.04078205
139	0xbdd2d29f	-0.10294079
140	0x3ceb2718	0.028705165
141	0x3f02a096	0.51026285
142	0x3c5885db	0.013215507
143	0x3d9d3390	0.076758504
144	0xbd2ee64d	-0.0427001
145	0x3d48a1e4	0.048982516
146	0x3caeae00	0.021323204
147	0xbf19f513	-0.6013958
148	0x3cb309cf	0.021855263
149	0xbcf04d32	-0.029333685
150	0x3ce5798c	0.02801206
151	0x3d149307	0.03627303
152	0x3cb1bf9c	0.021697812
153	0xbf3d6577	-0.7398295
154	0xbc8f3ed4	-0.017486013
155	0xbd9f6d16	-0.07784478
156	0x3c98c7d8	0.01864998
157	0xbde4ca91	-0.11171449
158	0xbd7393ac	-0.059467003
159	0x3f1e3a9c	0.6180818
160	0x3d4ebf59	0.050475452
161	0x3d98c1c2	0.07458831
162	0x3d0ec380	0.034854412
163	0xbd1896dc	-0.037253246
164	0x3c8f0e90	0.017462999
165	0x3f598ccd	0.8498047
166	0x3dc0735d	0.09397004
167	0x3d9976b7	0.07493346
168	0xbd8c0583	-0.06836989
169	0x3c3ef04f	0.011653974
170	0x3ca48d94	0.020087041
171	0x3ee5a08e	0.44849056
172	0x3db3b305	0.0877438
173	0x3dd4979f	0.10380482
174	0x3d6b6416	0.057468496
175	0x3b1e7a31	0.0024181718
176	0xbcccfc9c	-0.025022797
177	0xbecd13b9	-0.4005411
178	0xbd72fe37	-0.05932447
179	0x3c70e8c4	0.014703933
180	0x3db0cacd	0.08632431
181	0xbdef00c3	-0.11670067
182	0x3d518996	0.051156603
183	0x3f446dd0	0.7673006
184	0x3c072538	0.00824862
185	0xbd43819d	-0.04773103
186	0x3b107280	0.0022040904
187	0xbde95c10	-0.11394513
188	0x3cfddc0c	0.030988716
189	0x3ee8ff2b	0.45507178
190	0xbc286318	-0.010277532
191	0xbd07c5b8	-0.033147544
192	0x3cfcd7e0	0.030864656
193	0xbcf902a1	-0.030396761
194	0xbd97f5e3	-0.07419946
195	0xbf34548d	-0.70441514
196	0xbc40081c	-0.011720683
197	0xbc141987	-0.009039289
198	0xbcc14e4c	-0.023596905
199	0xbb609035	-0.0034265642
200	0xbd08105e	-0.033218734
201	0xbe3bddb7	-0.18346296
202	0xbd8742f8	-0.0660457
203	0x3cae45a7	0.021273447
204	0x3d86f327	0.065893464
205	0x3d3a8c29	0.045543823
206	0xbd9156b0	-0.070966125
207	0x3e3fe054	0.18737918
208	0xbd051fac	-0.032500908
209	0xbd81800a	-0.0632325
210	0xbd6cd052	-0.057815857
211	0x3d19df8d	0.03756671
212	0x3b7f4be0	0.0038955137
213	0xbf369b3c	-0.7133062
214	0xbdc7e33d	-0.09760139
215	0xbd7934ba	-0.0608413
216	0xbd1656af	-0.03670376
217	0x3dcbfc23	0.09960201
218	0x3c973760	0.018459022
219	0xbefcf458	-0.4940517
220	0xba268560	-0.0006352272
221	0xbc8ec155	-0.017426172
222	0x3d51fc6e	0.051266126
223	0xbde0c727	-0.10975485
224	0xbd7f0709	-0.06226257
225	0x3f1e14fc	0.6175077
226	0x3db160f8	0.086610734
227	0xbc64218b	-0.013924013
228	0x3d223532	0.039601512
229	0xbdd7e0fd	-0.1054096
230	0x3d8bb6cf	0.06821977
231	0x3edc59bf	0.4303722
232	0xbd9eb704	-0.07749751
233	0xbe014602	-0.12624362
234	0x3c6c5188	0.014423735
235	0xbd8effc2	-0.06982376
236	0x3db35ec9	0.08758313
237	0x3ed2dab8	0.41182494
238	0x3d9393b0	0.072059035
239	0x3c935ce2	0.017988626
240	0x3d78ea9a	0.06077061
241	0x3bfa1c05	0.0076327347
242	0x3d98acdf	0.074548475
243	0xbece11ae	-0.40247864
244	0xbd93f709	-0.072248526
245	0xbdfdd1dc	-0.12393543
246	0x3d9fb4d1	0.0779816
247	0xbd98f2b3	-0.07468166
248	0xbcc264ac	-0.023729645
249	0x3f08206c	0.5317447
250	0x3d36e4f0	0.044651926
251	0xbd0af49e	-0.03392469
252	0x3b0da7c0	0.002161488
253	0x3dcb9503	0.09940531
254	0x3db23ce3	0.087030195
255	0xbea30b40	-0.3184452

rnn.weight_hh_l0 f4 [128, 128]
0	0xbcb81910	-0.022472888
1	0xbd7bdb85	-0.061488647
2	0x3c96259e	0.018328484
3	0x3d9fd751	0.0780474
4	0x3c435479	0.011921995
5	0xbc741f9b	-0.014900113
6	0x3c92d31d	0.017922932
7	0xbc441806	-0.011968618
8	0xbd6ad806	-0.057334922
9	0x3ce0df97	0.027450366
10	0xbd66333a	-0.056201197
11	0xba53b849	-0.0008076472
12	0xbcfc3031	-0.030784698
13	0xbd9a538d	-0.07535467
14	0x3d1d76e7	0.038443472
15	0x3de6736f	0.11252486
16	0x3d035890	0.03206688
17	0xbd44e3b2	-0.04806871
18	0xbd1ca3e4	-0.038242236
19	0x3d8f142d	0.0698627
20	0xbd8007d4	-0.06251493
21	0x3d96bb58	0.07359952
22	0x3d2ff810	0.04296118
23	0x3cce0994	0.025151052
24	0xbcaf2ac5	-0.021382699
25	0xbc2c2ba2	-0.01050845
26	0x3d824fc2	0.06362869
27	0xbc87190b	-0.016491434
28	0x3d233c0b	0.039852183
29	0xbd91a2a7	-0.071111016
30	0xbd6eb4ad	-0.058277775
31	0x3ce333f8	0.027734742
32	0xbcb799e4	-0.022412248
33	0xbd0e9435	-0.03480931
34	0x3dd82377	0.105536394
35	0x3df83d06	0.12121014
36	0x3d3ffcb4	0.046871856
37	0xbcf99160	-0.030464828
38	0xbdda0955	-0.10646311
39	0xbd02c434	-0.031925395
40	0x3c54acca	0.012980649
41	0x3d4e10e4	0.050309077
42	0xbd93541d	-0.07193778
43	0xbd879000	-0.06619263
44	0xbd732ac5	-0.05936696
45	0x3c711f3f	0.014716922
46	0x3d60add4	0.054853275
47	0x3ca200f5	0.019775847
48	0xbd594e93	-0.05305345
49	0x3cab70a9	0.020927744
50	0xbc2c3f73	-0.010513174
51	0x3d8ce241	0.06879092
52	0xbd181194	-0.03712614
53	0xb93052f8	-0.00016815576
54	0x3c03b489	0.008038648
55	0xbcc65d02	-0.024214271
56	0xbd7ee2d2	-0.06222803
57	0x3dc41245	0.09573797
58	0xbd25ca6b	-0.040476244
59	0x3d122dda	0.03568826
60	0xbd2757cb	-0.04085521
61	0xbd9ac1e2	-0.075565115
62	0x3d887cdd	0.06664441
63	0xbd39b4f3	-0.045338582
64	0xbc79b191	-0.015240089
65	0xbc36e830	-0.011163756
66	0xbd82c085	-0.063843764
67	0xbd0b4882	-0.034004696
68	0xbd711aa6	-0.058863305
69	0xbd32a3c1	-0.0436132
70	0xbcde6b08	-0.027150646
71	0xbd4e8356	-0.05041822
72	0xbd09137f	-0.03346586
73	0x3d28a221	0.041170243
74	0x3d46e9d2	0.048562832
75	0xbd1e50b5	-0.038651187
76	0x3dadf3b7	0.084937505
77	0x3d9c436d	0.07630048
78	0x3d17a728	0.037024647
79	0x3d8e4ac6	0.06947856
80	0xbddd53c0	-0.1080699
81	0x3d585ced	0.052822996
82	0x3d78e6a1	0.06076682
83	0x3cb994ef	0.022654025
84	0x3d490bb3	0.049083423
85	0xbc8aec66	-0.016958427
86	0xbb0c92b5	-0.002144975
87	0xbd445c8f	-0.047939833
88	0x3dadb16d	0.08481107
89	0x3cfe5309	0.031045454
90	0x3d33b407	0.04387286
91	0xbd95734b	-0.07297381
92	0x3caa6610	0.02080062
93	0x3dd2d065	0.10293654
94	0x3d1379cb	0.036004823
95	0x3d8479b1	0.06468523
96	0xbd536e56	-0.051618896
97	0xbd545ade	-0.05184447
98	0xbd4f13fd	-0.05055617
99	0x3c74795e	0.014921514
100	0xbcb932eb	-0.022607287
101	0xbdaa6784	-0.08320525
102	0x3d94d590	0.07267296
103	0xbd07f142	-0.033189066
104	0xbc9e135b	-0.019296339
105	0x3d0ddb6c	0.034633085
106	0x3cbe8ed5	0.023261467
107	0xbdd66c27	-0.10469847
108	0x3d72b1ee	0.05925172
109	0x3d324e16	0.0435315
110	0x3d237316	0.039904676
111	0xbd6e9242	-0.05824495
112	0x3c3f4942	0.011675181
113	0xbd121989	-0.035668883
114	0xbdabcedc	-0.08389065
115	0xbbe645c3	-0.007027359
116	0x3d971717	0.07377451
117	0xbcdc35db	-0.026881149
118	0x3bb471fc	0.005506752
119	0x3da6c2ea	0.08142646
120	0xbd2f5f29	-0.04281536
121	0x3d3786b5	0.0448062
122	0x3cef0f6f	0.029182164
123	0x3cfb47ae	0.030673828
124	0x3d402f0f	0.04691988
125	0xbcefe28f	-0.029282836
126	0x3cc91276	0.024544936
127	0xbce34973	-0.027744984
128	0x3d98316e	0.07431303
129	0x3b964bd5	0.0045866766
130	0x3d32b634	0.043630794
131	0xbcbc40fd	-0.022980208
132	0xbc07c921	-0.008287699
133	0x3c6ec178	0.014572494
134	0x3bee1a20	0.007266298
135	0xbd6077a7	-0.05480161
136	0xbd28038b	-0.041019004
137	0xbcab4de2	-0.02091116
138	0x3cb661b0	0.022263378
139	0x3d415efa	0.047209717
140	0xbd4642a5	-0.0484034
141	0xbd5e4d48	-0.05427292
142	0xbd151978	-0.036401242
143	0x3d8a650a	0.06757553
144	0x3d146d21	0.036236886
145	0xba2ad7dd	-0.00065171515
146	0xbd22b869	-0.03972665
147	0xbd2223bc	-0.03958486
148	0x3d1b5a45	0.037927885
149	0x3d5df7de	0.054191463
150	0x3d8153b3	0.063147925
151	0x3d3d611b	0.046235185
152	0x3ccec454	0.0252401
153	0x3cb81436	0.022470575
154	0x3da3d5b4	0.07999745
155	0x3d4e72bf	0.0504024
156	0xbdb22f33	-0.08700409
157	0xbdd842f4	-0.10559645
158	0xbd9383ee	-0.07202898
159	0x3d1abf21	0.03777993
160	0xbbc279f1	-0.0059349467
161	0xbd27f7cf	-0.041007813
162	0xbca34e98	-0.019934937
163	0xbd02b910	-0.03191477
164	0xbd046ec0	-0.032332182
165	0xbcb0a260	-0.021561801
166	0xbdc3d0e0	-0.09561324
167	0x3b865b24	0.0041002203
168	0x3d464194	0.048402384
169	0x3995c0af	0.00028563055
170	0x3d8393d5	0.06424681
171	0xbd468d0f	-0.048474368
172	0xbda4c09a	-0.08044548
173	0xbd861eec	-0.06548867
174	0xbc809376	-0.015695315
175	0x3cf6b47c	0.030115359
176	0x3cd3af58	0.025840446
177	0x3db22506	0.08698468
178	0x3d7490ca	0.059708394
179	0x3ccc8ad5	0.024968544
180	0xbcfddd25	-0.030989239
181	0xbbab6dfc	-0.005231617
182	0xbd827be8	-0.063712895
183	0xbde8e494	-0.11371723
184	0xbd4a9251	-0.049455944
185	0xbd0e83e6	-0.034793757
186	0x3d4a5d0c	0.049405143
187	0xbcdbde4a	-0.026839394
188	0xbd4f076b	-0.050544184
189	0xbc3a5a3d	-0.011374054
190	0xbd87e173	-0.06634798
191	0x3ce3e6ba	0.02781998
192	0x3df6ff42	0.12060405
193	0xbba840d6	-0.005134682
194	0xbcdeb4b5	-0.027185777
195	0xbd7af021	-0.06126416
196	0x3d679aae	0.056544
197	0x3ccab359	0.024743723
198	0xbd2a9d61	-0.041653994
199	0x3d0fbec8	0.035094053
200	0x3cfc264a	0.030779976
201	0xbd60d7c7	-0.05489328
202	0xbd4e756f	-0.050404962
203	0xbd0dd2bd	-0.034624804
204	0xbcf40758	-0.029788658
205	0x3d183156	0.037156425
206	0x3d191909	0.03737739
207	0xbd0ce5c9	-0.034398828
208	0x3cd3f688	0.025874391
209	0xbd5859de	-0.05282008
210	0xbd0341f7	-0.03204533
211	0x3c68b08d	0.014202249
212	0xbd915b42	-0.07097484
213	0xbd6bc344	-0.057559267
214	0xbbab9e45	-0.005237373
215	0x3c4e9654	0.012609083
216	0x3ce7a5dc	0.02827733
217	0x3d08e1d0	0.033418477
218	0x3d9dd6d1	0.077069886
219	0x3d6e305d	0.05815159
220	0x3d41f5b0	0.047353446
221	0x3d819399	0.0632698
222	0xbccde91e	-0.025135573
223	0xbc140cc9	-0.009036251
224	0x39902e99	0.00027500538
225	0xbb9fccd6	-0.0048767133
226	0xbd095020	-0.03352368
227	0xbcfa8225	-0.030579636
228	0x3d91246d	0.07087026
229	0xbd8196ba	-0.06327577
230	0xbcab2b4b	-0.020894667
231	0x3cb190b1	0.02167544
232	0xbccb06d4	-0.02478353
233	0x3d1d6fa0	0.038436532
234	0x3d9b22da	0.07575007
235	0xbbd2501b	-0.0064182407
236	0xbaa0b826	-0.0012261912
237	0xbd39e128	-0.04538074
238	0xbc2c4ee6	-0.010516858
239	0x3c9401a6	0.018067192
240	0xbd8443a4	-0.06458214
241	0x3d8746e5	0.06605319
242	0xbcf6dfbf	-0.030135987
243	0xbc682538	-0.01416903
244	0xbd8d5a59	-0.06901998
245	0xbc632cd7	-0.013865671
246	0x3c58cdde	0.013232676
247	0x3c28898d	0.010286701
248	0xbd0385c6	-0.03211
249	0xbd0422ba	-0.03225968
250	0x3daa728a	0.08322628
251	0x3d93cc65	0.072167195
252	0x3c89b138	0.016808137
253	0xbba326c6	-0.0049789874
254	0x3d5b2811	0.053505007
255	0x3d2e5f33	0.042571258

rnn.bias_ih_l0 f4 [128]
0	0xbcb2fd14	-0.021849193
1	0x3ce7c2c7	0.02829112
2	0xbd7a2f32	-0.061080165
3	0xbc4f6ed9	-0.0126607055
4	0xbd674074	-0.05645795
5	0x3cfb5071	0.030678006
6	0x3a46aac6	0.0007578548
7	0x3c49acbb	0.012309249
8	0x3cabf2c8	0.02098979
9	0xbdae5e99	-0.08514137
10	0xbe0116fd	-0.12606426
11	0x3ceb6322	0.028733794
12	0x3c7093d4	0.0146836825
13	0xbc2d3c98	-0.010573529
14	0xbce57617	-0.028010411
15	0xbca6eebe	-0.020377513
16	0xbd01ec58	-0.031719536
17	0x3de31cd4	0.11089483
18	0xbd014d1e	-0.031567685
19	0x3ccaa903	0.024738794
20	0x3dbaa6b8	0.0911383
21	0xbd2b2f3a	-0.041793086
22	0xbbab2d31	-0.005223893
23	0x3d63971d	0.055564035
24	0x3d84b458	0.0647971
25	0x3d22d6a4	0.03975548
26	0x3d83c13d	0.06433342
27	0x3d9e03ad	0.07715545
28	0x3c01c376	0.007920137
29	0x3d892234	0.06695977
30	0x3c90cd0d	0.0176759
31	0x3dacd88d	0.08439741
32	0xbd8b1d82	-0.067927375
33	0xbd87d23e	-0.066318974
34	0xbc17d220	-0.009266406
35	0xbc583517	-0.013196251
36	0xbdbde777	-0.09272664
37	0x3c27856e	0.010224683
38	0xbe1ce424	-0.15321404
39	0xbdacd0c7	-0.084382586
40	0xbd949846	-0.07255606
41	0xbca9a830	-0.02071008
42	0xbdbb6492	-0.09150042
43	0xbcf5b0f3	-0.029991603
44	0xbcc06b75	-0.02348874
45	0x3c935b13	0.017987764
46	0xbd92f68a	-0.0717593
47	0xbaa58284	-0.0012627398
48	0x3c1e17cc	0.009649228
49	0xbdb120da	-0.08648844
50	0x3d83c09f	0.06433224
51	0x3d559acb	0.052149575
52	0x3d7cfa65	0.061762232
53	0x3ca6c31b	0.020356705
54	0x3d29382c	0.041313335
55	0xbd32b7fd	-0.043632496
56	0x3dc74efc	0.09731862
57	0xbded62a4	-0.1159108
58	0xbdc5300e	-0.09628306
59	0x3d4d83b5	0.050174434
60	0xbcc9ae3c	-0.024619214
61	0xbce30281	-0.027711155
62	0x3d61866f	0.055059846
63	0x3d91d6e1	0.07121063
64	0xbbd471d4	-0.006483296
65	0x3d381787	0.044944312
66	0x3d213196	0.03935393
67	0x3b90be03	0.0044171824
68	0x3bafee05	0.0053689503
69	0x3d4a5f90	0.04940754
70	0xbd2bf237	-0.04197904
71	0xbd0d15a5	-0.03444447
72	0x3b6ba3a5	0.0035955694
73	0xbd852f1b	-0.06503125
74	0xbd90a53f	-0.07062768
75	0x3d06bec6	0.03289678
76	0x3cc5c874	0.024143435
77	0x3d8fe0b7	0.07025283
78	0x3de012c7	0.109410815
79	0x3d48560a	0.04891018
80	0xbd18a4e9	-0.037266646
81	0xbc924ef0	-0.017859906
82	0x3d4b55ca	0.04964236
83	0x3da7f2a9	0.082005806
84	0xbd1b72a8	-0.03795114
85	0x3de6a484	0.112618476
86	0xbc82f507	-0.015985979
87	0x3de6301e	0.112396464
88	0xbd9a28c9	-0.075273104
89	0x3aa82cd9	0.0012830748
90	0x3de2b5e2	0.11069848
91	0xbd915ca4	-0.07097748
92	0xbc970d1f	-0.018438874
93	0x3cfa1569	0.030527787
94	0x3dbb8065	0.09155349
95	0x3d398659	0.04529414
96	0xbd8fda93	-0.070241116
97	0xbd812f08	-0.063077986
98	0x3d410eee	0.04713338
99	0xbda79f35	-0.08184663
100	0xbd70fa9e	-0.058832757
101	0x3dca9076	0.09890835
102	0xbd171cba	-0.03689263
103	0xba3939e4	-0.00070658163
104	0x3e024d1e	0.1272473
105	0x3dae72c8	0.085179865
106	0x3d95935c	0.07303497
107	0x3e01a06f	0.12658857
108	0xbda76108	-0.08172804
109	0xbd6d3a86	-0.05791714
110	0x3dd175fc	0.10227582
111	0x3d19205d	0.03738438
112	0xbdadd58c	-0.084879965
113	0x3c67b90f	0.0141432425
114	0x3c2028c3	0.009775343
115	0x3d03a6bf	0.032141443
116	0x3d42a349	0.047519002
117	0xbd632435	-0.05545445
118	0xbd4f0e68	-0.05055085
119	0xbdbeaced	-0.09310327
120	0x3d4f1877	0.05056044
121	0x3d314584	0.043279186
122	0x3dccb94b	0.09996279
123	0xbc9d79e5	-0.019223163
124	0x3d17a6ca	0.037024297
125	0x3d6c73cb	0.057727616
126	0xbb43e8ad	-0.0029893324
127	0x3c9776e1	0.018489303

rnn.bias_hh_l0 f4 [128]
0	0x3d959412	0.07303633
1	0xbb48a2a7	-0.0030614526
2	0x3c99829b	0.018739035
3	0x3d97efde	0.07418798
4	0x3d1d591a	0.038415052
5	0x3d9f99a7	0.07792979
6	0xbd06fafc	-0.0329542
7	0x3d0a1e79	0.033720467
8	0x3dde406f	0.108521335
9	0x3dad7cb7	0.08471053
10	0xbda9fe6c	-0.0830048
11	0xbbc009c5	-0.0058605396
12	0x3d3fcc63	0.046825778
13	0x3da4c6f6	0.08045761
14	0xbdd328d5	-0.103105225
15	0xbca10afb	-0.019658556
16	0x3caa3061	0.020775022
17	0x3b5b622c	0.0033475263
18	0x3d67cb8d	0.056590606
19	0xbcdad4d0	-0.026712805
20	0xbb657018	-0.003500944
21	0xbd08998e	-0.033349566
22	0x3d94ae53	0.07259812
23	0x3d871d34	0.06597367
24	0xbd955d76	-0.07293217
25	0x3cbc3dff	0.02297878
26	0x3d65626c	0.056002066
27	0x3c8a4163	0.016876882
28	0x3dcf240b	0.101142965
29	0x3d5232ed	0.051318098
30	0x3dcbd38b	0.09952458
31	0x3d900173	0.070315264
32	0xbc3e6966	-0.011621809
33	0x3d6792c8	0.056536466
34	0xbdc01e1e	-0.093807444
35	0x3ce65c18	0.028120086
36	0xbd3be3f2	-0.045871682
37	0x3ccd038a	0.025026102
38	0xbcb95a92	-0.022626195
39	0x3bc1ac5f	0.005910441
40	0x3ce1bfab	0.027557215
41	0xbcb91044	-0.022590764
42	0x3bb08851	0.005387344
43	0x3d39debd	0.045378435
44	0xbced5c78	-0.028974757
45	0xbd3ef5ee	-0.046621256
46	0x3d658e88	0.05604413
47	0xbdfe11db	-0.124057494
48	0xbded2dc9	-0.115809985
49	0xbcf054fc	-0.029337399
50	0xbdcafb4d	-0.09911213
51	0xbc07a04c	-0.008277964
52	0x3d9ef8fa	0.07762332
53	0xbcb6f7c4	-0.02233494
54	0xbd90e9d2	-0.07075848
55	0x3a202e6f	0.0006110435
56	0x3d8b19ac	0.06792006
57	0x3d3687a1	0.04456294
58	0xbdafd7aa	-0.085860565
59	0x3c7a274d	0.015268159
60	0x3d0be2c7	0.03415182
61	0xbd9e5dd2	-0.077327386
62	0x3dd7d783	0.105391525
63	0xbd9c4825	-0.07630948
64	0x3c888f89	0.016670005
65	0x3d739aa7	0.05947366
66	0xbd48aa96	-0.04899081
67	0x3d001a10	0.031274855
68	0x3cd04f12	0.025428329
69	0xbd8fcca2	-0.070214525
70	0x3cd9d5fd	0.026591295
71	0xbcb953ba	-0.022622932
72	0x3d037980	0.032098293
73	0x3d0ecd20	0.03486359
74	0xbd93d235	-0.07217828
75	0x3d3a36be	0.045462362
76	0x3d632f1a	0.05546484
77	0x3e0579ac	0.13034695
78	0x3ddb0bc7	0.10695606
79	0x3dbc2b7c	0.091879815
80	0xbe223ed7	-0.15844284
81	0xbda5d1e5	-0.08096675
82	0x3c2ad9ad	0.0104278745
83	0x3dbd99d1	0.09257854
84	0xbde785d6	-0.11304824
85	0x3d831895	0.06401173
86	0x3cc8ef43	0.024528151
87	0x3c8c722a	0.017144281
88	0xbc2903ee	-0.010315878
89	0xbdd433cc	-0.10361442
90	0x3e0a45fe	0.13503262
91	0xbbb2fc54	-0.0054622088
92	0x3d9d3e84	0.076779395
93	0x3cf2f399	0.029657172
94	0x3bb41dd9	0.005496722
95	0xbcf61004	-0.030036934
96	0xbdfbf4b8	-0.12302536
97	0x3d44de1f	0.048063394
98	0x3d68c428	0.056827694
99	0x3cca68e5	0.02470822
100	0x3d07c414	0.03314598
101	0xbd4c5826	-0.049888752
102	0x3db8876c	0.09010205
103	0xbdd24ae4	-0.102681905
104	0x3d851897	0.06498831
105	0xbc12b48e	-0.00895418
106	0xbda02b1a	-0.07820721
107	0x3c3d9e1b	0.01157334
108	0xbd2d5715	-0.042319376
109	0xbc076c6b	-0.008265595
110	0xbb7c44de	-0.0038493196
111	0xbddeb8ce	-0.108750924
112	0x3cc656d2	0.024211321
113	0x3d09453b	0.03351329
114	0x3dcadd27	0.09905463
115	0xbd17c49e	-0.037052743
116	0x3d86ea03	0.06587603
117	0xbc277750	-0.010221317
118	0xba94eb79	-0.001136168
119	0x3c051fbc	0.008125242
120	0x3d833ee9	0.064084835
121	0xbccc8b4c	-0.024968766
122	0x3d8937e9	0.06700117
123	0x3d9ee723	0.077589296
124	0xbddf13c0	-0.10892439
125	0xbd98b2e1	-0.074559934
126	0xbca408bd	-0.020023698
127	0x3b639684	0.0034727165

actor.weight f4 [3, 128]
0	0xbef1720f	-0.47157332
1	0xbea88723	-0.329156
2	0x3ed833ba	0.42226964
3	0xbd36afaa	-0.04460112
4	0x3e4af542	0.19820121
5	0xbe36c31e	-0.17847869
6	0x3b51eb35	0.0032031063
7	0xbe0ed71b	-0.13949244
8	0x3de5a4a6	0.11213045
9	0xbe31b2dd	-0.17353387
10	0x3e172954	0.14761859
11	0xbe45c9dc	-0.19315284
12	0xbe615d4e	-0.22008249
13	0xbeea4772	-0.45757633
14	0x3e901238	0.281389
15	0x3decd3a6	0.11563806
16	0x3e138a99	0.1440834
17	0xbdbf2d61	-0.09334827
18	0x3d59056e	0.052983694
19	0x3e247606	0.16060647
20	0xbebc0cc9	-0.36728504
21	0xbcca6bcd	-0.024709607
22	0xbc6eac1e	-0.014567403
23	0xbe38a66c	-0.18032235
24	0x3e270390	0.16309953
25	0x3eacc2b7	0.33742306
26	0xbe9b1770	-0.3029132
27	0xbeb1054a	-0.34574348
28	0xbe2c46d9	-0.16823901
29	0x3d553558	0.052052826
30	0xbf0080c4	-0.5019648
31	0xbdab21ad	-0.083560325
32	0x3e52dd06	0.20592126
33	0xbb523a7d	-0.0032078319
34	0xbd8879b3	-0.06663837
35	0x3e5bd76c	0.21468896
36	0x3eb6540c	0.35610998
37	0xbe80e257	-0.25172684
38	0x3d52ffdf	0.05151355
39	0xbe45301e	-0.19256637
40	0x3e346cd3	0.17619638
41	0xbdf40c62	-0.11916424
42	0x3c632fa5	0.01386634
43	0x3e551d05	0.20811851
44	0xbe6ff2d3	-0.23432474
45	0x3e6af8d2	0.2294648
46	0xbdb435ee	-0.08799349
47	0x3d0c1a66	0.034204863
48	0x3ebd1f86	0.36938113
49	0x3e44815c	0.19189972
50	0x3e4ff0f6	0.20306763
51	0x3e512478	0.20424068
52	0xbe9a68ce	-0.30158085
53	0x3e9731ee	0.2953028
54	0x3e22d878	0.15902889
55	0xbd745f05	-0.05966093
56	0xbe9d5a12	-0.3073278
57	0x3dc7eae9	0.097616024
58	0x3e347d61	0.17625953
59	0xbe129433	-0.14314346
60	0xbe8096af	-0.25114962
61	0x3e1114bb	0.14168064
62	0xbdf90ae6	-0.12160282
63	0x3e576679	0.21035184
64	0x3e96c992	0.2945066
65	0xbe50ff9c	-0.20410007
66	0xbdeef3ee	-0.1166762
67	0xbd1ff5ed	-0.039052892
68	0x3e01ec5f	0.12687825
69	0x3e40cfa3	0.18829207
70	0x3eb6dce3	0.35715398
71	0x3e1a9844	0.15097147
72	0xbeb1d08d	-0.34729424
73	0xbe8de61b	-0.2771462
74	0xbd483b6a	-0.048884787
75	0xbe44997e	-0.19199178
76	0x3d41d76d	0.047324587
77	0xbe2f01b1	-0.17090489
78	0xbd636802	-0.05551911
79	0xbc50602a	-0.01271824
80	0x3cac0728	0.020999506
81	0x3e9dd4c9	0.30826405
82	0xbc3c2b7f	-0.01148498
83	0xbdba0315	-0.09082619
84	0x3ebe3048	0.3714621
85	0xbe83a8b4	-0.25714648
86	0xbe6870ec	-0.22699326
87	0xbe2f20cd	-0.17102356
88	0x3ebdba45	0.37056175
89	0xbdee6e35	-0.11642114
90	0xbe3c5b94	-0.1839431
91	0x3e5a18b2	0.21298483
92	0xbdfc2df4	-0.12313452
93	0xbe6d4b00	-0.23173141
94	0xbe36bdbe	-0.17845818
95	0x3d069ee8	0.03286639
96	0x3d92bfe2	0.07165505
97	0xbe04bb22	-0.1296201
98	0xbdc48880	-0.09596348
99	0x3eb88514	0.3603903
100	0x3e79e731	0.24404599
101	0xbe8611a9	-0.2618535
102	0xbe9cb032	-0.30603176
103	0x3c07568c	0.0082603805
104	0xbce622a9	-0.0280927
105	0xbdc8239f	-0.09772419
106	0x3e4e2b62	0.20133737
107	0xbe32e0e4	-0.17468601
108	0x3e914dbd	0.28379622
109	0xbe16985d	-0.1470656
110	0xbe1de8c9	-0.15420832
111	0x3e58f265	0.21186216
112	0x3d11e6b5	0.03562041
113	0xbd059174	-0.032609418
114	0xbd8dae2d	-0.06917987
115	0x3e45edd5	0.19329007
116	0xbe474277	-0.19458948
117	0x3e3b7db7	0.18309675
118	0xbdc03b07	-0.093862586
119	0xbd7ea01d	-0.062164415
120	0xbeb13495	-0.3461043
121	0xbe0f3441	-0.13984777
122	0x3cba94d8	0.022776052
123	0xbe37718e	-0.17914411
124	0x3ec4ea0d	0.38459817
125	0x3e99c88d	0.3003582
126	0x3de51079	0.111847825
127	0x3eb40b02	0.35164648
128	0x3e5038d6	0.20334181
129	0x3eb94d32	0.36191708
130	0xbe4a7163	-0.19769816
131	0x3dad679c	0.084670275
132	0xbe979147	-0.29603025
133	0x3eb5d456	0.35513562
134	0x3d48f331	0.04906005
135	0x3c17da81	0.009268404
136	0xbde30753	-0.11085381
137	0x3e1a63a7	0.15077077
138	0xbba4d3b0	-0.005030118
139	0x3dca93b5	0.09891454
140	0x3ec33795	0.38128343
141	0x3e89d191	0.269177
142	0xbe25b29e	-0.16181418
143	0xbecae1d5	-0.3962542
144	0xbe9a9752	-0.30193573
145	0xbca4cfc8	-0.02011861
146	0xba3984d1	-0.0007076981
147	0xbeccbf4c	-0.39989698
148	0x3e5bf8ce	0.2148163
149	0x3da5ef89	0.08102328
150	0xbe22d8e0	-0.15903044
151	0x3e25cb25	0.16190775
152	0xbe9d90e5	-0.30774608
153	0xbead3976	-0.33832902
154	0x3e343ac4	0.17600542
155	0x3ef12e42	0.47105604
156	0x3d38c2c5	0.04510762
157	0xbe474f9f	-0.19463967
158	0x3e95766b	0.29191908
159	0x3e86e0fd	0.26343527
160	0xbe91eaa0	-0.28499317
161	0xbda56945	-0.08076719
162	0x3c5bce97	0.013415954
163	0xbeaa3dd7	-0.33250305
164	0xbe20250e	-0.15639135
165	0x3eb64956	0.35602826
166	0x3e78dea9	0.24303688
167	0x3e2bfceb	0.167957
168	0xbda25174	-0.07925692
169	0x3e33c7bc	0.17556661
170	0xbe3d2165	-0.1846977
171	0xbdf4fc61	-0.119622
172	0x3dcf284f	0.1011511
173	0xbe0c8c37	-0.13725363
174	0x3d8e29e1	0.069415815
175	0x3c6f088d	0.014589441
176	0xbef38bad	-0.47567502
177	0xbe65136c	-0.2237069
178	0xbea978ca	-0.33099967
179	0xbe80c2ad	-0.25148526
180	0x3e8137c5	0.2523786
181	0xbea7ae59	-0.32750204
182	0xbe3100ef	-0.17285512
183	0x3cb7d87a	0.022442091
184	0x3f005bfc	0.50140357
185	0x3d2e0462	0.04248465
186	0xbed3a2fd	-0.41335288
187	0x3dd3f9fb	0.10350414
188	0x3e8dfb01	0.27730563
189	0xbe15d70f	-0.1463282
190	0xbd065508	-0.032795936
191	0xbef75c81	-0.48312762
192	0xbe92fcff	-0.28708646
193	0x3e81fa2d	0.2538618
194	0x3e4d4321	0.20045139
195	0xbdd156ba	-0.1022162
196	0xbe634cf9	-0.22197331
197	0xbeef08e8	-0.46686482
198	0xbe54f2a5	-0.20795687
199	0xbd9775c0	-0.07395506
200	0x3ed3e21d	0.41383448
201	0x3e77dfbd	0.24206443
202	0x3db328fc	0.087480515
203	0x3e788686	0.24270067
204	0xbe191a41	-0.14951421
205	0x3df5f02f	0.12008702
206	0x3d7db7cc	0.06194286
207	0xbe3c7302	-0.18403247
208	0x3e4b31eb	0.19843261
209	0xbeaff782	-0.3436852
210	0xbcb84a63	-0.022496408
211	0xbdb35baf	-0.08757722
212	0xbe991c31	-0.2990432
213	0x3e23462a	0.15944734
214	0x3e5159b4	0.20444375
215	0x3e2a3fbb	0.16625874
216	0xbe2b8006	-0.16748056
217	0x3e3ba75e	0.18325564
218	0x3d716b2f	0.05894011
219	0xbe8d2bb7	-0.27572414
220	0x3dfb859b	0.122813426
221	0x3e1c1701	0.1524315
222	0x3dc054bb	0.09391161
223	0x3dc55864	0.09636
224	0x3c1a4d1c	0.009417798
225	0x3e136c8a	0.14396873
226	0x3e4eac87	0.20183001
227	0xbe932ef6	-0.28746766
228	0xbe1158e6	-0.14194068
229	0x3e4fc7ae	0.20291016
230	0x3eb359c2	0.35029417
231	0x3c9be34c	0.019029282
232	0xbd99aeb4	-0.07504025
233	0x3d115d90	0.03548962
234	0xbd978534	-0.07398453
235	0x3e2cd90c	0.16879672
236	0xbe386843	-0.18008523
237	0x3ed62f7b	0.418331
238	0x3c11948a	0.008885512
239	0xbc9beb1b	-0.019033005
240	0xbe23edf3	-0.16008739
241	0xbce010f0	-0.027351826
242	0xbdb7ae31	-0.08968771
243	0xbe373a83	-0.17893414
244	0x3e382231	0.17981793
245	0xbe40f431	-0.18843152
246	0x3daa68ab	0.08320745
247	0x3df85308	0.12125212
248	0x3e92508a	0.2857707
249	0x3da13d98	0.07873076
250	0x3c7d8c66	0.015475368
251	0x3eabd0ce	0.33557743
252	0xbe3bcb60	-0.183393
253	0xbdf05b05	-0.117361106
254	0xbdbf8783	-0.09352019
255	0xbe8cc3b6	-0.27493066

actor.bias f4 [3]
0	0xbd931347	-0.07181411
1	0xbda30ca4	-0.079613954
2	0xbb6ee100	-0.0036450028

critic.weight f4 [1, 128]
0	0x3ba2ee83	0.0049722805
1	0x3b80ee00	0.003934622
2	0x3c0b354d	0.008496595
3	0xbba2a6d7	-0.0049637365
4	0xbc2e5a2f	-0.010641619
5	0x3b2b55ce	0.0026143673
6	0x3b140786	0.0022587492
7	0xbbb0f9f1	-0.005400889
8	0x3d3db14a	0.046311654
9	0xbbd89afe	-0.0066102734
10	0x3cc8eb96	0.024526399
11	0x3c04938b	0.008091818
12	0x3b501079	0.00317481
13	0x3a287970	0.0006426787
14	0x3c5d2ded	0.013499719
15	0xbc83e5c2	-0.016100768
16	0xbb18b976	-0.0023303903
17	0xbc8565c9	-0.016283887
18	0x3d125bd2	0.035732098
19	0xbc77f630	-0.015134379
20	0x3bc20b07	0.0059217247
21	0xbb3e4e07	-0.0029038207
22	0x3b323680	0.002719313
23	0x3ba6af4f	0.0050868164
24	0xb93f2773	-0.00018229875
25	0x3b04508f	0.0020189618
26	0x3a7aebf0	0.00095719006
27	0xbc16c990	-0.00920333
28	0xbaecf733	-0.0018079042
29	0x3d97cc48	0.074120104
30	0x3ba86cdd	0.0051399306
31	0x3c16a69a	0.009194994
32	0xbafc87f2	-0.0019266589
33	0xbc1a1154	-0.009403545
34	0xbbbe26bf	-0.0058029587
35	0xbbc6e76a	-0.006070067
36	0xba22d7c1	-0.00062119594
37	0xbc112e7d	-0.008861181
38	0x3ce47696	0.027888577
39	0xbc541bd1	-0.012946085
40	0x3ca8d065	0.020607183
41	0x3bfbe629	0.0076873493
42	0xbc2c19c1	-0.010504187
43	0x3b5e178d	0.003388855
44	0xbc5c0b55	-0.013430436
45	0x3c372d98	0.011180304
46	0x3b49934c	0.0030757962
47	0x3bf70fec	0.00753974
48	0x3b7b0f2a	0.00383086
49	0xbba84a4f	-0.0051358114
50	0xbb2177d4	-0.0024638074
51	0xba2bbceb	-0.00065512833
52	0x3bd5f9e6	0.0065300344
53	0x3c05503a	0.008136803
54	0x3b9b309e	0.00473602
55	0xbb27690a	-0.0025544786
56	0xbbda60c0	-0.0066643655
57	0x3baa378c	0.00519461
58	0x3b05415d	0.002033315
59	0x3ba5262f	0.005039952
60	0xbc8f58f7	-0.017498476
61	0xbb2ebb9c	-0.0026662117
62	0xbbaff390	-0.005369611
63	0x3b414b62	0.0029494395
64	0x3bb24cc9	0.0054412824
65	0xbb7e91a5	-0.0038844135
66	0xbb4721b1	-0.0030385072
67	0xbc75fae5	-0.015013431
68	0x3c81fea8	0.0158685
69	0xbc912745	-0.01771892
70	0xbb7397e6	-0.0037169396
71	0xbb9cf8a6	-0.0047903834
72	0xbbd1837a	-0.006393847
73	0xbba55593	-0.0050456016
74	0x3b97caeb	0.004632344
75	0x3c667a8e	0.014067305
76	0xbc14d1e1	-0.009083242
77	0xbca2c22b	-0.019867977
78	0xbb53b964	-0.0032306546
79	0xbb900109	-0.0043946547
80	0x3cbdc5c8	0.023165599
81	0x3b45c664	0.0030178064
82	0x3c873710	0.016505748
83	0xbd21a0ea	-0.0394601
84	0xbc28c34c	-0.010300469
85	0xbbd1ffce	-0.006408668
86	0xbad3883e	-0.0016138626
87	0x3ba54c00	0.0050444603
88	0xbb09b32b	-0.0021011333
89	0xbc1cca67	-0.009569741
90	0x3dacf211	0.08444608
91	0x3ada88f7	0.0016672899
92	0xb9847499	-0.00025263874
93	0xbcc40c47	-0.023931636
94	0xbc875f55	-0.01652495
95	0x3c32cc7d	0.010913012
96	0x3b1fe694	0.002439891
97	0xbb1c096f	-0.0023809334
98	0x3c7ee314	0.015557069
99	0x3b21913d	0.002465322
100	0x3c693676	0.014234176
101	0xbb23916f	-0.0024958511
102	0x3ba3bfe3	0.00499724
103	0xbd05a773	-0.032630395
104	0x3ccfcc43	0.025365954
105	0xbaf369b1	-0.0018570927
106	0xbaef4544	-0.0018254896
107	0xbb8fd64e	-0.004389561
108	0xbc1f49ff	-0.009722232
109	0x3c416734	0.011804391
110	0xbbdb4d29	-0.006692548
111	0x3c1ec75e	0.0096910875
112	0xbc006dca	-0.007838676
113	0xbb213840	-0.0024600178
114	0x3c024858	0.007951818
115	0x3bebbede	0.007194384
116	0x3b282996	0.0025659553
117	0xbc2e913e	-0.010654746
118	0xbbf8bdaa	-0.007590969
119	0x36b20ed6	5.3065405e-06
120	0x3b959427	0.0045647803
121	0xbbe9f55a	-0.007139844
122	0x3c3832f9	0.011242622
123	0x3c37fd6b	0.011229853
124	0xbb56397a	-0.0032688067
125	0x3ba1437d	0.0049213753
126	0xbb0d95c8	-0.002160417
127	0x3bded770	0.0068005845
