model_params/model_params_30.pth (torch, 74912 bytes, 7 tensors)

rnn.weight_ih_l0 f4 [128, 6]
0	0xbd908916	-0.07057397
1	0xbd9d6605	-0.07685474
2	0xbcb0d794	-0.02158717
3	0x3eda95b3	0.42692336
4	0x3d120e9a	0.035658456
5	0xbd2d9b1c	-0.042384252
6	0x3d38cdea	0.04511825
7	0x3dc8ccbb	0.09804674
8	0xbd7fa420	-0.06241238
9	0x3e317f99	0.17333831
10	0x3dad7c65	0.08470992
11	0x3d02e0da	0.031952716
12	0x3d55aa7e	0.052164547
13	0x3d3a46c4	0.045477644
14	0xbd94e54f	-0.072703
15	0x3ef994e9	0.48746422
16	0x3d10ba87	0.035334136
17	0x3cb0418f	0.021515636
18	0x3da6e66d	0.08149419
19	0x3dbe211d	0.092836596
20	0x3d8964eb	0.06708702
21	0xbebb2618	-0.365525
22	0x3db9e68a	0.09077175
23	0x3dc65b21	0.0968535
24	0x3d0312c0	0.032000303
25	0x3d8f0d57	0.06984966
26	0xbdb10d76	-0.086451456
27	0x3e684f08	0.22686398
28	0xbd00af3d	-0.03141712
29	0xbcdec4aa	-0.027193386
30	0xbd63842d	-0.055545975
31	0xbd43dfb0	-0.047820747
32	0x3d4a27f6	0.049354516
33	0x3e622db0	0.22087741
34	0xbcd207e7	-0.025638534
35	0xbc9589cb	-0.018254181
36	0x3db28c27	0.08718138
37	0xbda66103	-0.08123972
38	0xbd8bedf1	-0.06832493
39	0x3f061306	0.5237278
40	0x3d8b55e2	0.0680349
41	0xbd552fac	-0.052047417
42	0x3da8b53d	0.082376935
43	0x3c2bb745	0.010480707
44	0xbd79aa2a	-0.060953297
45	0x3f0cfb34	0.55070806
46	0x3b9ebc45	0.004844221
47	0x3c9132d9	0.017724441
48	0x3d8834eb	0.06650718
49	0x3d5837fe	0.052787773
50	0x3d6c6756	0.057715736
51	0x3f191a2f	0.5980558
52	0x3d34d91b	0.04415236
53	0x3d598f2a	0.053115048
54	0xbd893875	-0.067002214
55	0x3c8eff52	0.01745573
56	0xbca7f144	-0.020500787
57	0x3f308d18	0.6896529
58	0xbcd8fd93	-0.026488101
59	0xbd364c85	-0.04450657
60	0xbcd377d8	-0.025813982
61	0x3db17509	0.08664901
62	0x3d8adb97	0.06780165
63	0xbdde8af4	-0.10866347
64	0x3dda490a	0.10658462
65	0x3d6d1d7c	0.057889447
66	0xbda9a41b	-0.08283254
67	0x3dae71cd	0.085177995
68	0xbd5ef2b0	-0.054430664
69	0xbef2a34c	-0.4739021
70	0xbd3b1227	-0.04567161
71	0xbc521f06	-0.012824779
72	0xbd3447d5	-0.044013817
73	0xbd4717d7	-0.04860672
74	0x3d8e8a31	0.06959952
75	0x3ee78482	0.45218283
76	0xbd159eef	-0.036528524
77	0xbd3281c8	-0.0435808
78	0x3d59f87a	0.05321548
79	0xbc178a95	-0.009249349
80	0x3d2a7532	0.041615672
81	0x3e1c4c16	0.152634
82	0xbc8bcc1a	-0.017065097
83	0xbd0d9126	-0.034562252
84	0x3d8811d1	0.06644023
85	0x3dc47977	0.0959348
86	0xbd5629d5	-0.052285988
87	0xbf312379	-0.6919475
88	0x3ca94b2c	0.020665728
89	0xbd347d99	-0.04406509
90	0xbd239e0b	-0.039945643
91	0xbd6484d8	-0.055790752
92	0x3d82dcc5	0.06389765
93	0x3f2a8b75	0.66619045
94	0xba85c452	-0.0010205603
95	0xbda28998	-0.079364
96	0x3d90ca0f	0.070697896
97	0xbcd350c8	-0.025795355
98	0xbcb24c80	-0.021764994
99	0x3ebe7b45	0.37203422
100	0x3c9c52fc	0.019082539
101	0x3db2a463	0.087227605
102	0xbda35272	-0.079747096
103	0x3c51125b	0.012760724
104	0xbdb0fbe6	-0.08641796
105	0xbe65c6f2	-0.22439173
106	0x3dd0bd0b	0.10192307
107	0x3d47cacd	0.04877739
108	0xbb978450	-0.004623927
109	0xbdd43910	-0.10362446
110	0xbbae7370	-0.00532382
111	0x3ed54eb0	0.41661596
112	0xbd7f5fb0	-0.062347114
113	0x3c1192f8	0.008885138
114	0x3d2bdece	0.04196053
115	0xbc1036ac	-0.008802097
116	0x3b9ab390	0.0047211125
117	0x3f0eb344	0.5574229
118	0xbd894f84	-0.067046195
119	0xbcecb0c1	-0.028892877
120	0xbda25550	-0.07926428
121	0x3df70348	0.12061173
122	0x3da4f249	0.08054025
123	0xbd42b98e	-0.04754024
124	0x3d47e034	0.0487978
125	0x3d4cb567	0.049977686
126	0xbd8db290	-0.06918824
127	0xbbc2de04	-0.0059468765
128	0xbd059df0	-0.032621324
129	0x3ee310e8	0.44348836
130	0xbd5ce291	-0.053927008
131	0x3c1adffa	0.009452814
132	0x3d78aeae	0.060713463
133	0x3bb1f2f5	0.005430574
134	0x3c000a58	0.007814966
135	0xbeb3680d	-0.35040322
136	0x3e3b84dc	0.183124
137	0x3db1ce1d	0.08681891
138	0x3cee44f8	0.029085621
139	0xbdf0e0e2	-0.11761643
140	0xbc8612a0	-0.016366303
141	0xbecfd5dd	-0.40592852
142	0xbda65c16	-0.08123033
143	0x3c3dbfa8	0.011581339
144	0x3d19cfbe	0.037551634
145	0xbc9f6f01	-0.01946211
146	0x3d3d5812	0.04622657
147	0x3ee7b93b	0.45258507
148	0xbd39b45e	-0.045338027
149	0x3d1ec8a0	0.03876555
150	0xbd926bf9	-0.071495004
151	0xbd93d38c	-0.07218084
152	0xbd2b4986	-0.041818164
153	0x3eb56bcf	0.35433814
154	0xbd6b2776	-0.05741068
155	0xbdd2520c	-0.102695554
156	0xbd72fcbf	-0.05932307
157	0xbc44c445	-0.012009685
158	0x3d9d5b61	0.07683445
159	0xbedf8bde	-0.43661398
160	0x3df2c0a6	0.11853151
161	0xbbb99d0a	-0.0056644725
162	0x3db13d6b	0.08654293
163	0x3df33567	0.1187542
164	0x3cc465b8	0.023974285
165	0xbeb385c5	-0.35062996
166	0x3c5bf23d	0.013424453
167	0xbd6f9098	-0.058487505
168	0x3d6cbe8e	0.057798915
169	0xbd061074	-0.032730535
170	0x3d097e1e	0.03356754
171	0x3f4a4b75	0.7902139
172	0x3ca7ecad	0.020498598
173	0x3d1935fe	0.037405007
174	0xbd8c713a	-0.06857534
175	0x3cb88c17	0.022527738
176	0xbd82460b	-0.06361016
177	0x3ecb29ff	0.39680478
178	0x3c8f60a2	0.017502133
179	0x3d438f59	0.04774413
180	0x3c16a4a0	0.009194523
181	0xbcb50dd7	-0.022101326
182	0x3dab740b	0.08371743
183	0xbf1b7d0c	-0.6073768
184	0xbe007c6f	-0.12547468
185	0xbdf2d209	-0.11856467
186	0xb9710400	-0.00022985041
187	0x3ddd629d	0.108098246
188	0x3d8ae341	0.067816265
189	0xbf335a49	-0.7005964
190	0x3c9fece4	0.019522138
191	0xbd42c23d	-0.04754852
192	0xbd380311	-0.0449248
193	0xbcbf48ec	-0.023350202
194	0x3d9660ab	0.07342657
195	0xbea62f24	-0.3245784
196	0x3d8e1457	0.06937473
197	0x3d1440d5	0.03619464
198	0x3da9e7b3	0.08296146
199	0x3db67cc4	0.08910516
200	0x3d7be7ae	0.061500244
201	0xbe8d5178	-0.27601218
202	0xbad10729	-0.0015947568
203	0xbd84c025	-0.06481961
204	0xbd48323d	-0.048876036
205	0xbd801ccd	-0.06255493
206	0xbcddda6a	-0.027081687
207	0x3eb1bcbd	0.34714308
208	0xbdc0ce88	-0.09414393
209	0x3cbfe26e	0.0234234
210	0x3d24d26a	0.04023973
211	0x3d77069e	0.060309045
212	0xbd8ceff4	-0.06881705
213	0x3e41e03f	0.189332
214	0x3cce7e76	0.025206786
215	0x3d444b13	0.04792316
216	0xbd905cb7	-0.07048934
217	0xbd532eb2	-0.051558204
218	0xbd7fc4d6	-0.062443577
219	0x3e1fca50	0.1560452
220	0x3c97a70a	0.018512268
221	0xbdf2cc47	-0.11855369
222	0x3d55cabe	0.052195303
223	0x3d0d19c6	0.034448408
224	0x3d392cfe	0.045208924
225	0xbf4faf53	-0.811269
226	0x3ccc15f8	0.02491282
227	0xbdb02cfc	-0.0860233
228	0x3ce5f998	0.028073117
229	0x3d54ce35	0.051954467
230	0x3d81bf47	0.063353114
231	0xbec0b9b4	-0.3764168
232	0xbd9b2814	-0.07576004
233	0xbd8e571a	-0.06950207
234	0xbd1ce02f	-0.038299736
235	0x3e0053f6	0.12532029
236	0xbd1c235b	-0.038119655
237	0xbf286d9c	-0.6579225
238	0xbba5eb0e	-0.005063421
239	0x3cdca1d6	0.026932638
240	0xbc532380	-0.012886882
241	0xbcfc294b	-0.030781409
242	0xbc8e2654	-0.01735226
243	0xbef792b8	-0.48354125
244	0xbd823cf4	-0.06359282
245	0xbd70ef7c	-0.05882214
246	0xbd6622e9	-0.056185637
247	0x3c22f185	0.009945278
248	0x3d0caf86	0.03434708
249	0xbf008d26	-0.50215375
250	0xbcea5427	-0.02860458
251	0x3d5e438e	0.054263644
252	0x3d2ba772	0.041907735
253	0xbd85def4	-0.065366656
254	0x3d90ede1	0.07076622
255	0x3f190482	0.59772503

rnn.weight_hh_l0 f4 [128, 128]
0	0xbc922373	-0.01783917
1	0xbda4edfc	-0.080532044
2	0xbd6b195c	-0.05739723
3	0xbd899f64	-0.067198545
4	0x3ce8b994	0.028408803
5	0x3d89527d	0.067051865
6	0xbda2f52a	-0.079569176
7	0x3daea856	0.08528201
8	0xbb42ecf8	-0.0029743295
9	0x3d392992	0.04520566
10	0xbab93e22	-0.0014132897
11	0xbc9e64cf	-0.019335179
12	0xbdc5a6c2	-0.09650947
13	0xbdcbcda6	-0.09951334
14	0x3cfec869	0.031101422
15	0xbda55a7d	-0.080739
16	0xbd0f2214	-0.03494461
17	0x3d1b3d29	0.037900124
18	0x3cfe73e3	0.031061118
19	0xbddf665f	-0.109081976
20	0x3dc10ef2	0.09426679
21	0x3ce473e8	0.0278873
22	0x3d62e1d4	0.055391148
23	0x3b083295	0.0020782102
24	0x3d8e0768	0.069350064
25	0x3cd603f9	0.026124941
26	0x3d2b9663	0.041891467
27	0x3dd79640	0.10526705
28	0x3d1c3b7f	0.038142677
29	0x3c96f854	0.018428959
30	0xbd8eb90f	-0.06968891
31	0x3d7154fa	0.05891893
32	0xbbafa9fa	-0.005360839
33	0xbda44a38	-0.080219686
34	0x3dd3dbd0	0.1034466
35	0xbcef41d8	-0.029206201
36	0xbd0110e6	-0.031510256
37	0xbd04101d	-0.03224193
38	0x3db0b6bc	0.08628604
39	0xbd7d568c	-0.061850116
40	0x3ca8e950	0.020619065
41	0x3c93b0a6	0.018028568
42	0xbdc54372	-0.09632005
43	0x3d9eecfc	0.07760045
44	0x3d77ff9c	0.060546502
45	0xbb4d0adc	-0.003128699
46	0x3d3731c0	0.04472518
47	0xbd654a73	-0.055979203
48	0xbd4d0415	-0.05005272
49	0xbd3e8739	-0.046515677
50	0x3dab5226	0.08365278
51	0x3d40fc1c	0.04711543
52	0xbbf8578f	-0.007578797
53	0x3d0265d9	0.03183541
54	0x3d6fc5ca	0.058538236
55	0x3c04d62f	0.008107706
56	0xbc5c44c6	-0.013444131
57	0x3d95db6b	0.07317241
58	0x3c9a5299	0.018838214
59	0xbda24cd5	-0.07924811
60	0xbcd5f8c4	-0.026119597
61	0x3c824647	0.015902651
62	0xbccfa7d7	-0.025348587
63	0x3b8d9010	0.004320152
64	0x3db9d957	0.090746574
65	0x3c067435	0.008206417
66	0x3d22ddce	0.03976231
67	0x3dae09c9	0.0849796
68	0x3d18567d	0.037191857
69	0xbd0c2e13	-0.034223627
70	0xbd421c77	-0.047390427
71	0xbd06c8dd	-0.032906402
72	0xbd158b63	-0.036509883
73	0xbdc329a0	-0.09529424
74	0x3d25534e	0.04036265
75	0x3d5eb6d2	0.05437357
76	0x3c780aa6	0.015139258
77	0x3c93577d	0.017986054
78	0xbd4ce2fe	-0.050021164
79	0xbd351c85	-0.04421665
80	0x3ce80ff8	0.028327927
81	0xbda10092	-0.07861437
82	0xbd2de5e6	-0.042455576
83	0x3d12a2a1	0.035799626
84	0xbd288059	-0.041138027
85	0xbcdabe0b	-0.026701948
86	0xbc140fb6	-0.009036949
87	0x3e17b9af	0.14816926
88	0xbc8d2237	-0.017228229
89	0x3db13a81	0.08653737
90	0xbdb8cb30	-0.0902313
91	0x3ddb7614	0.10715881
92	0xbdddbaed	-0.10826669
93	0x3d378264	0.044802085
94	0xbceb2762	-0.028705303
95	0xbd64a83e	-0.05582451
96	0xbdc3d401	-0.09561921
97	0xbd509f71	-0.050933305
98	0x3dc3b338	0.09555668
99	0x3b5fd4fb	0.0034154046
100	0x3d3bdb03	0.045863163
101	0x3bbbc642	0.0057304213
102	0xbd1a259b	-0.03763352
103	0x3d2ab129	0.04167286
104	0xbc067ea4	-0.008208904
105	0xbd45295b	-0.048135143
106	0x3d5fb4df	0.05461585
107	0x3cd40c47	0.02588476
108	0x3c9058c9	0.017620461
109	0x3b76c305	0.0037652862
110	0x3caf2c85	0.021383533
111	0xbcd42336	-0.025895696
112	0xbd10852a	-0.035283245
113	0xbdbfc8ea	-0.09364493
114	0x3da581d1	0.08081401
115	0xbd7108f4	-0.05884643
116	0xbd076e78	-0.033064336
117	0xbce39776	-0.027782183
118	0x3b989a84	0.0046570916
119	0x3df58b74	0.11989489
120	0x3daa618d	0.083193876
121	0xbcd9bcb6	-0.026579242
122	0xbc7dce6b	-0.015491108
123	0xbd61a461	-0.055088405
124	0x3ca37583	0.019953495
125	0x3c88f975	0.016720513
126	0x3dbdeb45	0.0927339
127	0x3d8ca6bd	0.0686774
128	0xbe1c1648	-0.15242875
129	0xbd94f9c1	-0.07274199
130	0xbd15bbdd	-0.036556114
131	0x3c54852b	0.012971203
132	0xbd14529a	-0.036211587
133	0xbda2fc65	-0.07958297
134	0xbd781b10	-0.060572684
135	0xbd528cc9	-0.051403794
136	0x3cee3bf2	0.029081319
137	0x3d7d2fa5	0.061813015
138	0xbd1c6576	-0.0381827
139	0x3d6364a2	0.055515893
140	0xbd51a486	-0.051182292
141	0xbcec803c	-0.02886974
142	0x3c5fc10c	0.013656866
143	0xbc457b65	-0.012053345
144	0xbd0b825d	-0.03405987
145	0x3cab4ae4	0.020909734
146	0xbd2f7a26	-0.0428411
147	0xbdd15af4	-0.10222426
148	0x3db1910c	0.086702436
149	0x3c67557e	0.014119504
150	0x3a66c88a	0.00088036864
151	0xbd92af57	-0.0716235
152	0x3e16da0d	0.14731617
153	0x3c873e22	0.01650912
154	0xbbb933a9	-0.0056519103
155	0x3c08d97e	0.008352635
156	0xbdaf8406	-0.08570103
157	0x3db449f5	0.08803169
158	0xbced559c	-0.028971486
159	0xbd47fa2d	-0.04882257
160	0x3d791a91	0.06081635
161	0xbde78783	-0.11305144
162	0x3c566473	0.013085472
163	0xbbdc5184	-0.0067235846
164	0xbe15aa32	-0.14615706
165	0xbdb70e72	-0.08938302
166	0x3d73bdef	0.059507307
167	0xbbb33ebe	-0.005470126
168	0x3d8fd820	0.070236444
169	0x3bc8f21b	0.006132377
170	0x3d9bb1f4	0.07602301
171	0x3de4c94e	0.11171208
172	0xbd8af8f5	-0.06785766
173	0xbe0be5db	-0.13661902
174	0xbce7ea2b	-0.028309902
175	0x3d27be49	0.040952954
176	0x3da65cf9	0.08123202
177	0xbd5ee8e0	-0.054421306
178	0xbdf13b96	-0.11778943
179	0xbc555ff5	-0.013023366
180	0x3d791be1	0.060817603
181	0xbcfb7cbe	-0.03069913
182	0xbc45242f	-0.012032553
183	0xbd638f61	-0.05555666
184	0xbcccde82	-0.025008444
185	0x3d45d1b6	0.0482957
186	0xbe20343c	-0.15644926
187	0x3c15d2d1	0.009144501
188	0xbc70fd07	-0.014708764
189	0x3d3482f7	0.04407021
190	0x3c024af6	0.007952442
191	0x3db24a13	0.08705535
192	0x3d8798ff	0.066209786
193	0x3df51796	0.11967389
194	0x3d527531	0.051381294
195	0x3c305177	0.01076161
196	0x3da17cbf	0.078851216
197	0x3b840d98	0.004029941
198	0x3cda961a	0.026682902
199	0xbc8e6e4e	-0.017386582
200	0x3d7b9659	0.06142268
201	0x3d8629c0	0.06550932
202	0xbd132c10	-0.035930693
203	0xbdf87a61	-0.12132717
204	0xbdc0d813	-0.09416213
205	0x3b935ec4	0.004497381
206	0xbd691824	-0.056907788
207	0xbc5aa274	-0.013344396
208	0xbcf162b5	-0.029466012
209	0xbd855c56	-0.06511752
210	0x3d466731	0.048438255
211	0xbd765aaf	-0.060145076
212	0xbdf7b038	-0.12094158
213	0xbd78eee3	-0.060774695
214	0x3de2631e	0.11054061
215	0x3d9f3249	0.07773263
216	0xbd8f9051	-0.07009948
217	0x3cda365a	0.026637245
218	0xbdf8f76d	-0.12156568
219	0x3da4a438	0.08039135
220	0x3d473c28	0.048641354
221	0xbcf82ff2	-0.0302963
222	0x3d81da2f	0.06340443
223	0xbcf3f5e1	-0.02978033
224	0xbdcdaf2f	-0.10043179
225	0xbd353d5e	-0.044247977
226	0xb8b331fd	-8.544696e-05
227	0x3d9df3b7	0.077125005
228	0xbdd3de4a	-0.10345133
229	0x3d44cec0	0.048048735
230	0x3e20a523	0.15687995
231	0x3ca75bd2	0.020429526
232	0x3d4690e7	0.048478033
233	0xba8eeb49	-0.0010903861
234	0x3d5366be	0.051611654
235	0xbd3e369a	-0.04643879
236	0xb9b4c9f0	-0.0003448273
237	0x3dab34cb	0.08359679
238	0xbdf296c5	-0.11845163
239	0x3df92d52	0.12166847
240	0x3d1758ac	0.0369498
241	0xbd9bd032	-0.076080695
242	0x38ab720b	8.1751576e-05
243	0x3c9c3cdc	0.019071989
244	0x3cdbdf1f	0.02683979
245	0x3dbbc09c	0.09167597
246	0x3c21cdb8	0.009875707
247	0x3d8d6b33	0.06905212
248	0x3d8eed35	0.069788374
249	0x3e1223b7	0.14271437
250	0xbd7c08c6	-0.061531805
251	0x3d4d2ef4	0.050093606
252	0xbd5bef35	-0.053694922
253	0x3ce76f0b	0.028251192
254	0xbd64fd14	-0.055905417
255	0x3cb769da	0.022389341

rnn.bias_ih_l0 f4 [128]
0	0x3cdd85b1	0.027041288
1	0x3d426770	0.047461927
2	0x3b35c811	0.0027737657
3	0x3dcbf4eb	0.09958824
4	0x3d3d8d1a	0.046277143
5	0xbd84f9bb	-0.06492945
6	0xbb53277a	-0.0032219575
7	0xbd8fe9d9	-0.07027025
8	0x3c614790	0.013749972
9	0x3db54e1e	0.0885279
10	0x3d9e3fff	0.0772705
11	0x3dcedf1b	0.10101148
12	0xbd8e443d	-0.06946609
13	0x3d8f1f9f	0.06988453
14	0xbd06bd6f	-0.0328955
15	0xbc8d4e15	-0.017249146
16	0x3d3af581	0.045644287
17	0x3d688413	0.05676658
18	0xbd16bd7f	-0.03680181
19	0x3ce80ef6	0.028327446
20	0x3dc39693	0.09550204
21	0x3cdde7f8	0.02708815
22	0x3ddbbb76	0.10729115
23	0xbdbc3997	-0.09190672
24	0xbbb55f88	-0.00553507
25	0xbded032a	-0.11572869
26	0x3e0049af	0.12528108
27	0x3d6460f1	0.055756513
28	0x3c77649b	0.01509967
29	0xbe0ab826	-0.1354681
30	0xbcdad30f	-0.026711969
31	0xbce8cba8	-0.028417423
32	0x3c5ecef5	0.013599147
33	0x3dd81bb5	0.1055216
34	0xbd02fd11	-0.031979624
35	0x3df18450	0.11792815
36	0xbdeecdfc	-0.11660382
37	0xbda81aaa	-0.08208211
38	0xbdf56a20	-0.11983132
39	0x3cbd362f	0.023097126
40	0x3c991c9f	0.018690405
41	0xbd38c50d	-0.045109797
42	0x3bdceecd	0.0067423345
43	0x3b45594c	0.003011304
44	0xbd8093e5	-0.06278209
45	0x3d82af98	0.06381148
46	0x3db489c3	0.088153385
47	0x3d9bc373	0.07605638
48	0x3d993b0d	0.07481966
49	0x3da4f5c6	0.0805469
50	0x3ca68a90	0.020329744
51	0xbe0578eb	-0.13034408
52	0x3cd58323	0.026063507
53	0xbd842611	-0.06452573
54	0x3cf51113	0.029915368
55	0xbd130617	-0.03589448
56	0xbc323176	-0.01087605
57	0xbe162ae5	-0.146648
58	0x3e3344a9	0.1750666
59	0x3dfd2b6f	0.123618
60	0xbd0f0237	-0.03491422
61	0x3dbae415	0.091255344
62	0xbd21ff8a	-0.03955034
63	0x3da601fa	0.08105846
64	0xbd745674	-0.05965276
65	0xbded385a	-0.11583014
66	0xbd02d3e8	-0.03194037
67	0x3d251712	0.040305205
68	0x3d5f1bf6	0.054470025
69	0xbde0cfb6	-0.10977118
70	0x3de44870	0.11146629
71	0xbcea7a54	-0.028622784
72	0xbd48d3f5	-0.049030263
73	0x3c4bfa23	0.012449774
74	0xbc181aa8	-0.009283699
75	0xbd81f6af	-0.06345879
76	0x3dbc207c	0.091858834
77	0xbd8bad85	-0.068202056
78	0x3d805c8e	0.062676534
79	0x3dee4668	0.11634523
80	0x3ac469b0	0.0014985111
81	0x3e114fe1	0.14190628
82	0xbd79c028	-0.06097427
83	0xbd0ce474	-0.034397557
84	0x3d297c30	0.0413782
85	0x3db3f505	0.08786968
86	0x3e19f6da	0.15035573
87	0x3cdb375f	0.026759801
88	0x3dbba4ed	0.091623165
89	0xbcaf46cf	-0.021396069
90	0x3d3b795c	0.045770034
91	0x3c671ed8	0.014106475
92	0x3c73c7ec	0.014879208
93	0xbdc0b345	-0.09409193
94	0xbd91a4b5	-0.071114935
95	0xbd8ad8c0	-0.06779623
96	0xbc911226	-0.01770885
97	0xbd99e8aa	-0.0751508
98	0xbd61b54f	-0.05510455
99	0xbdd5f638	-0.10447353
100	0x3d99b788	0.07505709
101	0x3cb9b464	0.022669025
102	0x3d204e2c	0.03913705
103	0xba13b709	-0.00056348793
104	0x3e049c53	0.12950258
105	0x3d934527	0.07190924
106	0xbcecd1c8	-0.028908625
107	0x3d91b4b7	0.07114547
108	0xbd293961	-0.041314486
109	0xb9be6a67	-0.000363189
110	0xbddd43a8	-0.1080392
111	0x3d9db4a6	0.077004716
112	0xbd83ba79	-0.06432051
113	0x3defe25c	0.117130965
114	0xbdfa1830	-0.12211645
115	0xbdcb3b5f	-0.099234335
116	0xbd836985	-0.06416611
117	0x3e153afd	0.14573283
118	0x3e35ef1f	0.17766999
119	0x3d9f93ae	0.077918395
120	0x3da2c8e1	0.07948471
121	0xbd0fe9dc	-0.035135135
122	0x3cf4775e	0.029842075
123	0xbdd7a91d	-0.10530303
124	0xbd1dc7ae	-0.038520508
125	0x3cae3f0a	0.021270294
126	0xbdaf8a34	-0.08571282
127	0xbd0072e2	-0.03135956

rnn.bias_hh_l0 f4 [128]
0	0xbd005ae5	-0.031336684
1	0x3d9607c8	0.07325703
2	0xbcd85512	-0.026407752
3	0xbd14e185	-0.036347885
4	0x3d88704b	0.06662043
5	0xbe009661	-0.12557365
6	0xbbf557c0	-0.0074872673
7	0xbdb1b03b	-0.086761914
8	0x3c8cdbb6	0.01719461
9	0xbc4e2eab	-0.012584369
10	0x3e010b12	0.12601879
11	0x3d831fa3	0.064025186
12	0xbdfd999f	-0.123828165
13	0x3dd31ea5	0.10308579
14	0xbd8dcbd9	-0.069236465
15	0xbdcacd15	-0.099023975
16	0x3d9e7fc3	0.07739212
17	0x3dc5b5fb	0.09653851
18	0xbe029ca7	-0.1275507
19	0x3dd466b3	0.10371151
20	0x3d3ab900	0.045586586
21	0xbc90d4f6	-0.017679673
22	0x3dd7f886	0.10545449
23	0xbdd3b553	-0.10337319
24	0x3d7f67ec	0.062354967
25	0xbe455755	-0.19271596
26	0x3e25fa4e	0.16208765
27	0xbde6e3f8	-0.1127395
28	0x3ba72a05	0.0051014447
29	0xbe249faa	-0.16076532
30	0x3bc05529	0.005869527
31	0xbb6c4498	-0.0036051627
32	0x3de21c1e	0.11040519
33	0x3d0b83bb	0.034061175
34	0xbd3948fa	-0.04523561
35	0x3d221e8c	0.039579913
36	0xbd507b02	-0.05089856
37	0x3ce8110c	0.028328441
38	0xbd4affe7	-0.049560454
39	0xbd21bb2f	-0.039485153
40	0xbdd28003	-0.102783225
41	0xb9c2b859	-0.00037139913
42	0x3df2ea0e	0.11861049
43	0x3d81795c	0.063219756
44	0xbb2a5fa8	-0.0025996957
45	0x3d7acaed	0.06122868
46	0xbd2f8588	-0.042851955
47	0x3e052288	0.13001454
48	0x3cf7cb62	0.030248348
49	0xbd1041a2	-0.035218842
50	0x3df32b2c	0.11873469
51	0xbd584c63	-0.052807223
52	0xbd35f16a	-0.044419684
53	0x3d5d628e	0.054049067
54	0x3d0034ce	0.03130036
55	0x3dd419af	0.10356461
56	0x3c4393ce	0.011937095
57	0xbd05ab40	-0.03263402
58	0x3e18853b	0.14894573
59	0x3cc37f50	0.023864418
60	0xbcd6d263	-0.026223367
61	0x3c17789c	0.009245064
62	0xbce1c2df	-0.027558742
63	0x3de08650	0.10963118
64	0xbce2a581	-0.027666809
65	0xbe033836	-0.12814412
66	0xbd135b34	-0.03597565
67	0xbd57b108	-0.052659065
68	0x3d915f6b	0.07098278
69	0xbe2f5216	-0.17121157
70	0x3c6da2f8	0.014504187
71	0x3cad34da	0.021143366
72	0xbd9b4f52	-0.075834885
73	0x3da7124e	0.08157788
74	0x3d3b911b	0.04579268
75	0x3c7221b6	0.014778545
76	0x3d93e8cc	0.07222137
77	0xbd130744	-0.0358956
78	0x3d89032d	0.06690059
79	0x3e35bb48	0.17747223
80	0xbd6b657a	-0.057469822
81	0x3d101bf4	0.03518291
82	0xbdbb6bb6	-0.091514036
83	0xbccffd98	-0.025389478
84	0xbcd424d4	-0.025896467
85	0x3c8c2cb7	0.017111165
86	0x3db7d478	0.08976072
87	0x3c89d9f9	0.01682757
88	0x3d85d2fb	0.06534382
89	0x3c17ef0b	0.009273301
90	0x3d405388	0.04695466
91	0xbcbeb91b	-0.023281625
92	0x3cf4d405	0.029886255
93	0x3cfa4089	0.03054835
94	0x3d2bed8e	0.041974597
95	0xbdee2f4a	-0.116301134
96	0xbd7ba804	-0.06143953
97	0xbd9df3c8	-0.07712513
98	0x3d9d0214	0.07666412
99	0xbd6e2d04	-0.0581484
100	0x3dafd244	0.08585027
101	0x3d655e43	0.055998098
102	0x3d0126f3	0.031531285
103	0x3cd5d8be	0.026104327
104	0x3d7fdce3	0.062466513
105	0x3dddf307	0.108373694
106	0xbd923998	-0.071398914
107	0x3d505bfe	0.05086898
108	0x3d917dae	0.071040496
109	0xbd8af459	-0.06784887
110	0x3d60c069	0.054870997
111	0x3ccf3845	0.025295386
112	0xbdc518e2	-0.09623887
113	0xbb288975	-0.0025716696
114	0xbde9ca2a	-0.11415513
115	0xbd331f45	-0.043730993
116	0xbe0b07e2	-0.13577226
117	0x3c497431	0.012295769
118	0x3e13d65b	0.14437239
119	0x3e03ff49	0.12890352
120	0x3dd4300f	0.10360729
121	0xbd4cd876	-0.05001112
122	0xbc03afcb	-0.008037518
123	0xbd34de42	-0.044157274
124	0xbd77676a	-0.060401358
125	0x3c85ae92	0.016318593
126	0xbb90acd8	-0.004415136
127	0xbd82700b	-0.06369027

actor.weight f4 [3, 128]
0	0xbe80b762	-0.2513991
1	0xbba2977e	-0.004961907
2	0xbe646362	-0.22303537
3	0x3e40cc12	0.18827847
4	0xbe5fc8c0	-0.21853924
5	0xbc0f95e9	-0.008763769
6	0xbe30e60f	-0.1727526
7	0xbdef960e	-0.116985425
8	0xbe871826	-0.2638561
9	0xbeeec3a5	-0.4663364
10	0xbd3c9a91	-0.046045844
11	0x3e2190a4	0.15777832
12	0xbe1d9ff9	-0.15393056
13	0xbdca6f90	-0.0988456
14	0x3ef9934c	0.4874519
15	0xbe02c321	-0.12769748
16	0xbe3e16fe	-0.18563458
17	0x3ce1df64	0.027572341
18	0xbd6dce66	-0.058058165
19	0xbead9e1b	-0.33909687
20	0x3c51c10b	0.012802373
21	0xbe0653e7	-0.13117944
22	0x3d07e7a6	0.0331799
23	0x3dfab550	0.12241614
24	0xbe1f9c3f	-0.15586947
25	0x3ce438fd	0.027859205
26	0x3ddf8133	0.10913315
27	0x3e662887	0.22476397
28	0xbeca4cc3	-0.3951169
29	0x3c4fe60c	0.012689125
30	0x3e498f29	0.19683518
31	0x3e715fab	0.2357165
32	0x3cb5be97	0.022185607
33	0x3d9fbd5c	0.07799789
34	0xbe1d811c	-0.15381283
35	0xbc88da4a	-0.01670565
36	0xbd48b125	-0.048997063
37	0x3ed98794	0.4248625
38	0x3ea1aed5	0.315787
39	0x3e324194	0.17407829
40	0x3e6fbf46	0.23412809
41	0x3da54e74	0.08071604
42	0xbea930b5	-0.33044973
43	0x3f115492	0.5676967
44	0xbe8f8d8f	-0.28037688
45	0xbddda102	-0.108217254
46	0xbea3b6ed	-0.319755
47	0x3e198235	0.14991076
48	0xbda5e52b	-0.08100351
49	0xbd0c016b	-0.03418104
50	0x3cb9cac7	0.0226797
51	0x3d411db1	0.047147457
52	0xbe667ba3	-0.22508101
53	0xbc3c2c84	-0.011485223
54	0xbe56ba9b	-0.20969622
55	0xbe66d79c	-0.22543186
56	0xbe66d56e	-0.22542354
57	0x3ece59be	0.40302843
58	0x3d2a3411	0.04155356
59	0xbe5f6917	-0.21817432
60	0xbe43ba19	-0.1911396
61	0x3d6104bd	0.05493616
62	0x3ee632df	0.44960687
63	0xbeba7b99	-0.36422423
64	0x3e1cb1d6	0.15302214
65	0x3e8c2412	0.2737127
66	0x3e4773c0	0.19477749
67	0x3d5842b9	0.052798007
68	0xbc2d08b3	-0.010561156
69	0x3e374085	0.17895706
70	0x3d5ecb31	0.054392997
71	0xbe96a68d	-0.29423943
72	0x3ec46354	0.3835703
73	0xbeed7735	-0.4638001
74	0x3e5258c0	0.20541668
75	0xbe302c7e	-0.17204472
76	0xbdfd5d81	-0.1237135
77	0xbde62c19	-0.1123888
78	0xbe7af688	-0.24508107
79	0xbd4fc47e	-0.0507245
80	0xbe3eb53e	-0.18623826
81	0xbdb11152	-0.08645882
82	0x3e63027f	0.22168921
83	0x3d17a701	0.0370245
84	0x3e89559f	0.26823136
85	0x3d98e33b	0.07465216
86	0xbe4bad7e	-0.19890401
87	0x3ee8976a	0.4542802
88	0xbef9e56c	-0.48807847
89	0x3e85febb	0.26170906
90	0xbe91fc7c	-0.28512943
91	0x3d07c5b2	0.03314752
92	0xbe12802c	-0.14306706
93	0xbe2cd735	-0.1687897
94	0x3e31994a	0.17343631
95	0xbd13a833	-0.03604908
96	0xbea42e16	-0.3206641
97	0x3e0002b6	0.12501034
98	0x3ea05ad7	0.31319305
99	0x3de35dc0	0.11101866
100	0xbd91b72c	-0.071150154
101	0x3eaef91c	0.3417443
102	0x3e57d93a	0.21078959
103	0x3d8b5c51	0.06804717
104	0x3d0867c5	0.033302087
105	0xbd1f36bf	-0.03887057
106	0x3ec1531c	0.3775872
107	0x3e5f9130	0.21832728
108	0x3dbd3415	0.092384495
109	0xbccc945e	-0.02497309
110	0xbc9c3f03	-0.019073015
111	0xbdc3113d	-0.09524772
112	0x3ed33dcb	0.41258082
113	0xbf07174e	-0.52769935
114	0xbe573b68	-0.21018755
115	0xbd1d0d8e	-0.038343005
116	0x3ddc961b	0.10770818
117	0x3d26fb82	0.0407672
118	0xbdfd0d9b	-0.12356111
119	0x3e6835fb	0.22676842
120	0xbe341222	-0.17585042
121	0xbe0e82fd	-0.13917156
122	0xbe628dad	-0.22124358
123	0xbeb1d332	-0.34731442
124	0xbdc9a591	-0.098460324
125	0x3e670b2a	0.22562853
126	0x3e9d9e39	0.30784777
127	0x3ef27fa0	0.47362995
128	0x3e950c61	0.29111007
129	0x3d3a7bdf	0.04552829
130	0x3e99d4e7	0.30045244
131	0xbe590ee1	-0.21197082
132	0xbd6cf53a	-0.057851054
133	0x3c689d9e	0.014197735
134	0x3ec115bb	0.37711892
135	0x3e60216b	0.21887748
136	0x3e7eff18	0.24901998
137	0x3e428620	0.18996477
138	0xbdffc2f4	-0.12488356
139	0xbe1bc246	-0.15210828
140	0x3d7aec5e	0.061260574
141	0x3db61513	0.08890738
142	0xbe955924	-0.2916957
143	0x3e7210a4	0.2363916
144	0x3e337f8a	0.17529121
145	0xbd9e7931	-0.07737959
146	0x3e7ed445	0.24885662
147	0x3eaef73b	0.34172997
148	0xbd37c721	-0.04486764
149	0x3e009bf8	0.12559497
150	0xbe58bdaa	-0.21166101
151	0xbd351cd9	-0.044216964
152	0x3d0c067a	0.034185864
153	0x3e7bc468	0.24586642
154	0xbe5bcef9	-0.21465673
155	0xbe865e41	-0.26243785
156	0x3ed648df	0.4185247
157	0xba6b5ff9	-0.00089788396
158	0xbe0c577a	-0.13705245
159	0xbf02291a	-0.50843966
160	0xbe3b3add	-0.18284173
161	0xbd692fc3	-0.056930315
162	0xbc3be634	-0.011468459
163	0x3a4a6c0d	0.00077217893
164	0x3e80e593	0.2517515
165	0xbea84415	-0.32864442
166	0xbe3813ce	-0.17976305
167	0xbeb7833d	-0.35842314
168	0xbe2a3a83	-0.16623883
169	0xbdcb0614	-0.09913269
170	0x3e88a52e	0.26688522
171	0xbe939151	-0.28821805
172	0x3e670ec8	0.22564232
173	0x3e01890e	0.12649938
174	0x3db79953	0.08964791
175	0xbe4f201e	-0.20227095
176	0x3d173135	0.03691216
177	0x3da6ad9a	0.081385806
178	0xbdb5e597	-0.088816814
179	0x3d520d00	0.05128193
180	0x3e5fdf1b	0.21862452
181	0xbdb96352	-0.09052147
182	0x3e361de1	0.17784835
183	0x3d9d4156	0.076784775
184	0x3ee0fa0d	0.43940774
185	0xbdb9d8b0	-0.09074533
186	0x3d0f0718	0.034918875
187	0x3e05e2eb	0.13074844
188	0x3ed9d329	0.42543915
189	0xbd77ab89	-0.060466323
190	0xbebc4383	-0.36770257
191	0x3dcab27d	0.09897325
192	0xbea14997	-0.31501457
193	0xbe3c5b35	-0.18394168
194	0xbdf556d8	-0.11979455
195	0x3dc25b6a	0.09490092
196	0xbe379986	-0.17929658
197	0x3d4da9d0	0.050210774
198	0xbdbc5685	-0.0919619
199	0x3ec55fe2	0.38549715
200	0xbe55d8b5	-0.20883448
201	0x3e91aaf8	0.2845075
202	0xbe9c8670	-0.30571318
203	0x3e21dc66	0.15806732
204	0x3d70e0c9	0.05880812
205	0xbd8e05a5	-0.0693467
206	0x3f0c86a7	0.54892963
207	0xbd35d25a	-0.04439006
208	0x3e288523	0.16457038
209	0x3c44b726	0.012006557
210	0xbe30d725	-0.17269571
211	0x3ddc7797	0.107649975
212	0xbe2437bc	-0.16036886
213	0xbe77f093	-0.24212866
214	0x3d981f6c	0.07427868
215	0xbec6e93b	-0.38849816
216	0x3e584aa1	0.21122219
217	0xbec7f106	-0.39051074
218	0x3dd07aac	0.10179648
219	0xbd11633c	-0.035495028
220	0x3ecb8f3f	0.39757726
221	0x3ed560a2	0.41675287
222	0xbeaa0c83	-0.3321267
223	0xbca606f7	-0.020266993
224	0x3eaa8411	0.33303884
225	0xbd97527f	-0.07388782
226	0xbea288bc	-0.31744945
227	0xbe569046	-0.20953473
228	0xbd263357	-0.040576305
229	0xbe8efd1c	-0.27927482
230	0xbef222fc	-0.47292316
231	0x3d06fbb8	0.0329549
232	0xbe0a2d1c	-0.1349377
233	0xbdcc6758	-0.09980649
234	0xbf07b53f	-0.53010935
235	0xbec758c7	-0.3893492
236	0xbe4a2be7	-0.1974331
237	0x3da3ab6f	0.07991683
238	0xbc8cd96c	-0.017193519
239	0x3ddb0532	0.1069435
240	0xbe4d394f	-0.20041393
241	0x3e57eb8a	0.21085945
242	0x3e3e7a28	0.18601286
243	0x3dd50978	0.10402197
244	0xbd81c5e1	-0.063365705
245	0xbe192246	-0.1495448
246	0x3dac5b77	0.08415883
247	0xbec31d92	-0.38108498
248	0x3cf273c3	0.029596215
249	0x3dc8d47c	0.09806153
250	0x3ec4e523	0.38456067
251	0x3efe4668	0.4966309
252	0x3e030370	0.1279428
253	0xbe9801b4	-0.296888
254	0xbe033d01	-0.1281624
255	0xbe8f5102	-0.27991492

actor.bias f4 [3]
0	0xbe2c4dfc	-0.16826624
1	0xbcdcab61	-0.026937189
2	0x3df9bfbe	0.12194775

critic.weight f4 [1, 128]
0	0x3c81afdb	0.015830925
1	0x3bb5f624	0.005553024
2	0x3b8e4cf9	0.004342672
3	0x3c70921d	0.014683274
4	0xbd5167b7	-0.0511243
5	0xbb7eb00e	-0.003886226
6	0x3cbf5c1b	0.023359349
7	0xbc9e9b40	-0.019361138
8	0x3c1ea357	0.009682498
9	0xbb263067	-0.002535844
10	0x3bb01e12	0.0053746784
11	0x3bb2ff14	0.0054625366
12	0xbb8d1445	-0.004305395
13	0x3cad0d43	0.021124488
14	0x3c28db79	0.010306233
15	0xbca0d028	-0.019630507
16	0x3cc101da	0.023560453
17	0xba0c3021	-0.0005347748
18	0x3c2881ae	0.010284824
19	0xba1b91f6	-0.00059345306
20	0xbd1f87c9	-0.038947854
21	0xbb1d5073	-0.002400425
22	0x3bcfec21	0.0063452874
23	0xbd009ec9	-0.03140143
24	0x3a105bbe	0.0005506835
25	0xbd287e1a	-0.041135885
26	0x3d723caa	0.059139885
27	0xbc5dfe68	-0.013549425
28	0xbb8f1721	-0.004366771
29	0xbc487194	-0.01223411
30	0xbcf04575	-0.029329995
31	0xbad35579	-0.0016123495
32	0x3d19d742	0.0375588
33	0x3c1fdb65	0.009756898
34	0xbc30e9e7	-0.010797954
35	0x3d996967	0.07490807
36	0xbcd67e37	-0.02618323
37	0x3bcaf9df	0.0061943377
38	0xbd133910	-0.03594309
39	0xbb59e60c	-0.003324869
40	0xbb035709	-0.002004089
41	0xbb985f11	-0.0046500047
42	0x3cb3310a	0.02187397
43	0x3ccb968c	0.02485206
44	0x3ab30130	0.001365697
45	0xbb063e97	-0.0020484084
46	0xbb818d23	-0.0039535924
47	0x3c9289d6	0.01788799
48	0xbbdebfae	-0.0067977523
49	0x396c18e4	0.00022515986
50	0x3d16599b	0.03670655
51	0xbbd8366f	-0.006598286
52	0xbc9c1ab8	-0.01905571
53	0xbd60ffd5	-0.05493148
54	0x3b80bab8	0.0039285086
55	0xbbeee37f	-0.0072903032
56	0xbb849208	-0.0040457286
57	0xbccc3b12	-0.02493051
58	0x3cebc519	0.028780507
59	0xbc04a2e1	-0.008095474
60	0x3c54098d	0.01294173
61	0xba275eec	-0.0006384689
62	0x3c84101c	0.016120963
63	0xbc812a7b	-0.015767327
64	0xbc7ffc5f	-0.015624135
65	0xbd6aaa90	-0.057291567
66	0x3bf1de41	0.007381231
67	0x3bcbdfc7	0.0062217447
68	0x3c642c7d	0.013926622
69	0xbd64765f	-0.05577695
70	0xbb205090	-0.0024462081
71	0xbc356446	-0.01107127
72	0xbb877bf2	-0.0041346485
73	0x3c24bb2d	0.010054392
74	0x3beb1915	0.007174621
75	0xbb332427	-0.002733478
76	0x3b30838f	0.0026933884
77	0xbd37e6da	-0.04489789
78	0x3b287828	0.0025706384
79	0x3ca48d0b	0.020086786
80	0xbc951a1e	-0.01820093
81	0x3d5b2113	0.05349834
82	0xbb807c0b	-0.003921037
83	0x3cab4893	0.02090863
84	0x3c67e8b9	0.0141546065
85	0x3be1c39e	0.0068897745
86	0x37f1245d	2.8746372e-05
87	0xbc624a61	-0.013811679
88	0x3cd09bbc	0.025464885
89	0xbb33a54c	-0.0027411757
90	0xbc0a25a8	-0.0084318295
91	0xbc4a2a5e	-0.012339203
92	0x3c0b8ae9	0.0085170055
93	0xbc869bb1	-0.016431661
94	0xba87f08b	-0.001037137
95	0xbc15d9eb	-0.009146194
96	0xbb47efa0	-0.0030507818
97	0x3cbf0989	0.023319976
98	0x3c2a6720	0.0104005635
99	0xbd13c3af	-0.03607529
100	0x3c86d5e8	0.01645942
101	0x3af0ed15	0.0018381203
102	0xbc319e20	-0.010840923
103	0xbab1035a	-0.0013505027
104	0x3b5e710e	0.0033941898
105	0x3c722b46	0.014780825
106	0xbbf1aac3	-0.0073750927
107	0x3bc72fa7	0.0060786786
108	0xbabfe192	-0.0014639369
109	0xbcc8e8fd	-0.02452516
110	0xbbb02c34	-0.005376363
111	0x3c2716da	0.010198319
112	0xbd027c20	-0.031856656
113	0xbc0ad2f2	-0.008473145
114	0xbc6c5fcc	-0.014427137
115	0xbbccfd82	-0.0062558064
116	0xbc5264c4	-0.012841407
117	0xbd5615da	-0.052266933
118	0x3cf7886e	0.030216422
119	0x3c210e80	0.009830117
120	0xbc24d8a2	-0.010061415
121	0xbc103887	-0.00880254
122	0xbc965400	-0.018350601
123	0xbce796c1	-0.028270127
124	0x3bbd384f	0.005774535
125	0xba884d8f	-0.0010399091
126	0x38a3178a	7.77683e-05
127	0xbc69d733	-0.014272499
