model_params/pre_model_params_20_heliTrue.pth (torch, 22860 bytes, 7 tensors)

rnn.weight_ih_l0 f4 [64, 6]
000000 ec 0f e7 3e 68 80 cb be 20 46 89 bb 36 57 8c 3d
       0.45129335 -0.39746404 -0.0041892678 0.06852572
000010 bb e2 25 bd 05 69 e1 bb 2c d5 75 be 67 aa d3 3e
       -0.04049943 -0.0068789744 -0.240071 0.41340944
000020 a8 81 59 bd 92 15 4f be 69 61 a8 3d 16 5a 77 3d
       -0.053102165 -0.20223072 0.082217045 0.060388647
000030 7f 45 b8 be a1 05 97 3e cc 16 85 3d 72 19 4c 3e
       -0.3599052 0.29496482 0.06498489 0.19931582
000040 b6 24 7c bd d9 db cf bd 86 57 af be 5c 7a aa 3e
       -0.061558448 -0.101493545 -0.34246463 0.33296478
000050 78 ae 97 bd ea 12 a6 be 96 13 92 3d 8e 09 91 3b
       -0.07406324 -0.32436305 0.07132642 0.004426188
000060 91 2a 81 be 7b 21 b4 3e 74 87 b4 3d cc 59 c7 3d
       -0.25227788 0.35181794 0.08814898 0.09733924
000070 3b fb 81 bc a6 9f ec bd 8f 6e 03 3f b5 32 ad be
       -0.015866866 -0.11553888 0.51340574 -0.3382775
000080 9c 10 83 bd 13 a0 56 3e 28 d7 12 bc aa b9 92 bd
       -0.06399652 0.20959501 -0.00896243 -0.07164319
000090 27 6d 42 be 51 9a 60 3e 10 fc 76 bc 3f 4f 7b 3e
       -0.18986951 0.21933867 -0.015074745 0.24541949
0000a0 f4 0a d9 bd e4 e9 ca bd aa 72 a0 3d 46 d4 04 be
       -0.10597792 -0.09907892 0.078343704 -0.12971601
0000b0 f6 51 87 bd d3 49 bf be 6a a1 9c bd e9 3b 40 be
       -0.0660743 -0.3736101 -0.07647975 -0.18772854
0000c0 ee 01 db 3e d5 76 a8 be 80 2a d2 bb 53 b0 16 3e
       0.4277491 -0.32903162 -0.006413758 0.147157
0000d0 d8 51 dc 3d 80 9b ce 3d cd 5c be be f7 b4 ac 3e
       0.10757798 0.10088253 -0.37180176 0.33731815
0000e0 e8 8f 48 3d 4d 39 cc bd 5d ad e5 3b 8b 92 89 bc
       0.048965365 -0.09971867 0.007009192 -0.01679351
0000f0 eb 00 9a 3e 55 93 af be 98 e6 41 3d d5 82 65 3f
       0.30078825 -0.34292093 0.047339052 0.8965276
000100 79 50 fa bc 30 f8 8c bd 35 43 99 3e 55 50 9c 3a
       -0.03055595 -0.068832755 0.29934087 0.0011925796
000110 e6 d0 87 bd 12 c1 7d 3e 5c ee 01 3e 1d 4f 5f 3e
       -0.06631641 0.24780682 0.12688583 0.21807523
000120 8b 49 de 3e 98 e9 95 be de 20 f7 bd 9a d8 07 3e
       0.43415484 -0.2927978 -0.12066816 0.1326622
000130 f5 f0 93 3d 8f 8a 84 bd c4 34 9d 3e f3 e6 bf be
       0.07223693 -0.064717405 0.3070432 -0.37480888
000140 e0 92 8b 3d f2 23 01 bf cc a7 1b bb 53 e4 b0 3d
       0.068151236 -0.50445473 -0.0023751138 0.086372994
000150 0f c2 c4 be b4 2f a9 3e 38 af cb 3d 11 b3 d2 be
       -0.38429305 0.33044207 0.0994553 -0.41152242
000160 50 50 61 bd 76 1d e9 bc 7a 89 07 3e 95 9a 59 bd
       -0.055008233 -0.02845643 0.13236037 -0.053125937
000170 b8 25 c2 3c 9b d4 8e bf 96 3d e7 bd ea 46 81 3d
       0.023699626 -1.1158632 -0.112910435 0.06312354
000180 d4 74 06 3e df 7f b8 be a0 14 2c bd f7 be 02 be
       0.13130504 -0.36035058 -0.042011857 -0.1276816
000190 6b 5f 5d bd 6c 1f fc bd 15 0a 76 bd 79 b6 e4 ba
       -0.054046076 -0.12310681 -0.06006821 -0.0017449401
0001a0 b4 b4 a7 bd c5 3e 5c bf 07 64 1c bd 07 e5 dc bd
       -0.08188763 -0.8603328 -0.03818133 -0.10785871
0001b0 2e f7 5b 3e 19 87 2a be 8c 38 1f bd 5f 6a 8c 3b
       0.2148101 -0.16653098 -0.038872287 0.0042851414
0001c0 2d 71 e5 bd 41 34 38 bd ef ac 11 be b0 6b 25 bc
       -0.11203227 -0.04497171 -0.14226125 -0.0100964755
0001d0 40 66 6c bb aa ee 9f be 81 b7 59 bd 78 d0 9f bd
       -0.0036071688 -0.31236774 -0.05315352 -0.07803434
0001e0 91 f7 72 be 92 ef 66 3e 50 40 e5 bc d8 d7 8a 3e
       -0.23727252 0.22552326 -0.027984768 0.271178
0001f0 1c 59 a4 3d 2e f1 09 be 64 73 f5 3e 65 c2 95 be
       0.08024809 -0.13470909 0.479396 -0.29249874
000200 2c 62 a2 bd ec cb 3e be 6b 9a c0 bc 99 55 2c bd
       -0.07928881 -0.18632478 -0.023511132 -0.04207382
000210 22 fd ee bd a5 5b 12 3e 86 75 fc 3d 9c 85 23 3d
       -0.11669375 0.14292772 0.12327103 0.03992234
000220 50 d2 15 be da 58 e6 bd 38 f4 97 bd a4 7c d2 3c
       -0.14631009 -0.11247416 -0.07419628 0.025694199
000230 14 d9 9a 3d a2 37 54 bf 29 df f8 bd d8 8c 7f 3c
       0.075609356 -0.8289739 -0.121519394 0.015597545
000240 1c 45 ea be 14 fe e5 3e 9e 53 cb 3d 67 e8 a4 3d
       -0.4575585 0.4492041 0.09928058 0.0805214
000250 76 92 9c bd 83 54 03 be 8b 46 54 3e 74 de b9 bd
       -0.07645123 -0.12825207 0.20730035 -0.09075633
000260 2e e9 b8 bd b6 ac bb 3d 51 07 7c bd 55 a8 9f bd
       -0.090288505 0.09163801 -0.061530415 -0.07795779
000270 14 a1 c0 be 99 e1 6f 3e 60 3b f6 bd e4 e6 5b 3d
       -0.37622893 0.23425902 -0.12023044 0.05368699
000280 81 73 69 3d 40 ed c7 3d 16 d0 64 3e 2c 7c 98 be
       0.05699492 0.09762049 0.22345003 -0.29782236
000290 82 4a c9 3d 70 97 8b 3d a4 0e 83 bc b3 8b 61 bc
       0.09828664 0.06815994 -0.015998192 -0.013766217
0002a0 b1 ec c4 be ad e5 ce 3e 24 0e 65 3d bd b6 76 3e
       -0.3846183 0.40409604 0.05592169 0.24093147
0002b0 44 5a e2 3d 02 4e 1d 3d 71 7b af 3e 44 cc c0 be
       0.11052373 0.038404472 0.34273866 -0.37655842
0002c0 18 c4 f3 bd 6e 3d a9 bd 26 2c e0 bd cb c6 4e bd
       -0.11902636 -0.0826367 -0.10945921 -0.050482552
0002d0 61 99 ac be da 0b 82 3e 60 89 ee bb ff 0d 22 3d
       -0.3371077 0.25399667 -0.00727956 0.03956413
0002e0 16 f7 96 bd 67 c9 5d bc 90 71 af 3e 16 53 9b be
       -0.07371347 -0.013536788 0.3426633 -0.30336827
0002f0 3c 46 f6 bd 35 ae 57 be 47 2a cc 3d 09 ca df bd
       -0.12025115 -0.21062548 0.09969001 -0.10927207
000300 c4 00 d0 3e 62 da 79 be c6 c1 d0 3d 6b c1 ce bd
       0.40625584 -0.24399713 0.10193209 -0.10095485
000310 ff 42 f0 bc f7 8d 14 3d f0 96 c8 3e d4 df 4d be
       -0.029328821 0.0362682 0.39177656 -0.20104915
000320 46 62 c9 3d 2a 9e 6c 3e 1e 08 c7 bd fe df 81 3d
       0.09833197 0.2310721 -0.09718345 0.06341551
000330 d9 e8 c8 be d7 cd a6 3e 86 53 f3 3d 77 2d bd 3e
       -0.3924015 0.32578918 0.11881165 0.3694875
000340 c4 8a c2 bc f9 7a d0 3c 60 06 c1 be f7 47 cf 3e
       -0.02374781 0.025449263 -0.37700176 0.40484592
000350 fc fa 8e bd 36 ac ad 3d 80 97 4b bd 36 e9 9a 3c
       -0.06981465 0.08480112 -0.04970503 0.018910032
000360 a2 30 c4 3e 18 7f dc be ec 30 09 bd 0f 59 d1 3c
       0.38318354 -0.43065715 -0.03349392 0.025555162
000370 bf 12 a6 bd 27 cf 0c 3c b5 4e 9e 3e 9e c8 b4 be
       -0.08109044 0.008594311 0.30919424 -0.3530931
000380 70 a7 ac 3c 94 1d 1f 3d 3e 62 87 bb 04 af 94 3c
       0.021075934 0.038846567 -0.0041315844 0.01814986
000390 69 10 5c be d7 bb 9b 3e 56 ed a8 bd 60 7b 0d bf
       -0.21490635 0.30416748 -0.08248393 -0.5526638
0003a0 33 76 e9 bd b1 d5 85 bd 4b be ae be 85 0e b6 3e
       -0.11399498 -0.06534899 -0.34129557 0.35557953
0003b0 ce a7 d4 3d fe f6 e3 be 62 08 8a 3d 6b 7f 84 3d
       0.10383569 -0.44524378 0.0673988 0.064696155
0003c0 7b 4a b5 3e e2 63 f5 be 1e 2b fa bd 45 48 ad 3d
       0.35408387 -0.47927767 -0.12215255 0.0846105
0003d0 23 6f 6a bc 93 ce 92 3d 32 82 95 be 6a d2 03 3e
       -0.014308724 0.07168307 -0.29200894 0.12873235
0003e0 00 48 ae 39 6e 99 a4 3e 2d 57 cd bd f3 d3 07 3c
       0.0003324151 0.32148308 -0.10026393 0.008290279
0003f0 44 62 ea bd 82 10 28 3e 4c 42 64 bd e4 6c 02 bd
       -0.11444524 0.16412547 -0.055727288 -0.031842127

rnn.weight_hh_l0 f4 [64, 64]
000000 e1 4c cc 3b 9e 9e eb bc 54 ea 2a bc 47 f3 23 3e
       0.0062347506 -0.028762158 -0.010431845 0.16010772
000010 3c 85 0a be 59 46 f3 3b a9 10 d2 3c 13 d1 c3 3b
       -0.13527387 0.0074241576 0.02564271 0.0059758513
000020 3a cb 86 3c 0f 32 97 3c ac 92 9a 3d a0 54 be 3d
       0.016454328 0.018456487 0.07547507 0.09293485
000030 27 0d 90 bd 57 5b 86 bc 64 a0 a6 bc d4 a8 95 bc
       -0.070337586 -0.016400976 -0.020340152 -0.01826898
000040 d1 9c f2 3d 80 6a 8c 3d 9f 0c 82 3d 7b be e6 bd
       0.118463166 0.06856251 0.063500635 -0.112668
000050 53 ab b4 3d 83 76 22 3e fa a9 0f bd 65 3a 8b 3d
       0.0882174 0.15865521 -0.03507421 0.06798247
000060 44 63 26 be 3a 97 6c bd 4d a4 93 3d 59 0f 78 3d
       -0.16248804 -0.05776141 0.07209072 0.06056151
000070 01 78 39 bb a0 69 02 bd 91 df 20 be 49 f5 73 bc
       -0.0028300288 -0.031839013 -0.15710284 -0.0148900235
000080 28 e2 bf 3d f7 6f 72 bd ec 7f 82 bd 85 0e 61 be
       0.09369308 -0.05918881 -0.063720554 -0.21978195
000090 17 63 ac 3c 62 f9 33 bd fb 64 fa bd 97 4e a7 3b
       0.021043343 -0.043939 -0.12226292 0.005105804
0000a0 18 d7 01 3d 1f 61 78 bd de c9 3e bc d2 44 80 bd
       0.03169927 -0.060639497 -0.011644809 -0.062631264
0000b0 fc ad 52 3d b0 bf 02 3e 9e ee b0 bd 63 22 14 3e
       0.051435456 0.12768435 -0.086392626 0.14466242
0000c0 ac 8f 3b bb 6f cf ef 3d bd dc 89 bd 20 f1 a1 3d
       -0.002861957 0.11709487 -0.067315556 0.07907319
0000d0 78 ce c8 3d 32 07 df bd d6 71 76 3d 18 39 7b bc
       0.09805006 -0.10890044 0.060167156 -0.015333436
0000e0 74 cb 5f bd 37 81 c9 bd 5f 0a 30 3e 9b 4c 73 bd
       -0.054637387 -0.09839099 0.17191456 -0.05939923
0000f0 26 88 b4 bd df ca 93 bd 19 34 21 3d 4a cf bd 3d
       -0.08815031 -0.07216429 0.039356325 0.09268053
000100 34 8a 4a 3d f2 32 89 3d 1b 2a 8b bd 02 8f 32 bd
       0.049448207 0.0669917 -0.0679514 -0.043593414
000110 ee 62 d2 3d 0d 61 b3 bd db d7 35 3c f5 bd de 3c
       0.102727756 -0.08758745 0.011098827 0.027190188
000120 1f 48 25 3e 7b a3 f6 3c 03 68 c3 3d a2 00 0d bd
       0.16140793 0.03010725 0.09541323 -0.03442443
000130 20 09 c1 bd 98 17 63 3c 39 a6 f3 3c 26 d4 ec bd
       -0.094255686 0.013860606 0.029742347 -0.115639016
000140 99 92 b6 bd 3d 3c 07 3d 57 b7 8d 3d 92 c7 9f 3d
       -0.0891468 0.033016432 0.06919735 0.07801737
000150 f7 fd 1c 3d 68 6e fb ba 0b b8 0a 3e cf be 26 3d
       0.038328137 -0.0019182684 0.1354677 0.040709313
000160 88 ab 48 bd 20 c7 1b 3e 91 a0 ec bd 24 7f ae bd
       -0.04899171 0.15212679 -0.11554063 -0.08520344
000170 c3 28 77 bd df 60 3c 3d 7a cd 32 bd 25 5a 72 3b
       -0.060341608 0.04599082 -0.04365299 0.003698
000180 85 68 a6 bc 79 6e 8d 3d fd 83 50 bc 43 87 7f bc
       -0.02031351 0.069058366 -0.012726781 -0.015596214
000190 ce 86 95 bd b4 90 cf ba e8 9b 2f 3d 31 db 1a 3d
       -0.073011026 -0.0015835972 0.042873293 0.037806693
0001a0 db 22 a7 3d ec ca ba bd 39 c7 c2 bc 0f 7d 13 3d
       0.08160945 -0.091207355 -0.023776637 0.036007937
0001b0 c1 bc c7 3c 1e 8d a2 bd 91 d9 a6 bd f4 e4 16 bd
       0.024381997 -0.07937072 -0.08146966 -0.03683944
0001c0 0b ee c2 3d 68 af a9 bd b6 f0 81 bc ae 60 a9 bd
       0.09518059 -0.08285409 -0.01586185 -0.08270393
0001d0 a7 d9 76 3c b2 8c 27 bc e2 37 51 bd 58 4e 1b 3b
       0.015066541 -0.0102264155 -0.051078685 0.002369782
0001e0 01 b4 e1 3d 64 4e 1c bd a4 0b 51 bd c5 08 ba 3c
       0.11020661 -0.038160697 -0.051036492 0.02270926
0001f0 14 e0 06 3e ac fb b3 3d 6a d5 b2 bd ec 51 7e 3d
       0.13171417 0.08788237 -0.08732112 0.062089846
000200 0f 0e 5a bc b9 57 ce 3d a7 c9 b4 bc 2f 8e 69 bc
       -0.013309016 0.100753255 -0.022068812 -0.014255091
000210 14 01 ae bd 9f b9 ac bd 25 df 85 bd 8e 0b 60 3c
       -0.084962994 -0.08433842 -0.06536702 0.01367463
000220 88 00 0f be 9f b6 1c be 0a d4 fa bd 35 a7 6f bd
       -0.13965046 -0.1530404 -0.122474745 -0.05850907
000230 0e 11 a6 bb 60 91 7d bd 4e d2 1f bd 0d 82 1a 3d
       -0.005067951 -0.06190622 -0.03901892 0.037721682
000240 e0 b4 8e bc 9b 6b 98 bd a7 bf 56 bd 3b a1 66 3d
       -0.017420232 -0.07442399 -0.052428868 0.056306105
000250 c9 81 8e 3d ba 63 0e bd 5c 8d 29 be 3b 65 4f 3c
       0.06958348 -0.034763075 -0.1655783 0.012658413
000260 d3 11 6f bd f9 92 99 bd fc 26 e2 3d f8 80 6b 3a
       -0.058366608 -0.07498736 0.11042592 0.00089837564
000270 bf 84 9b bd 6f 53 be bb 1d f6 8c bd 35 a3 af 3c
       -0.07593679 -0.005808286 -0.0688288 0.021440128
000280 e5 16 02 3e 51 42 c0 3d cf fd 0b bd c6 bf d8 3d
       0.12704046 0.09387649 -0.034177598 0.10583453
000290 51 6e 9b bc e0 5a 36 3e 60 3c 0d 3d 1b f4 1b bc
       -0.018973501 0.17808104 0.034481406 -0.0095186485
0002a0 2b d3 f1 3d d3 ee 93 bd 47 7c a5 3d 8f ad b9 3d
       0.11807855 -0.072232865 0.08080345 0.09066307
0002b0 8a 0c 00 bd 17 1e 87 bd ab b0 b1 bc ed a8 08 3e
       -0.03126196 -0.06597536 -0.021690687 0.1334569
0002c0 02 6d c9 3d 0a b2 ac bc a7 b1 44 3d 1c 27 cc bc
       0.09835245 -0.02108099 0.048020985 -0.024920993
0002d0 b7 ca b3 3d b0 cf 41 be b5 c2 89 bb 22 08 af 3d
       0.08778899 -0.18926883 -0.004204119 0.08546473
0002e0 23 2c 9c bd 37 a9 59 3c 63 6b 0f 3e df 78 b0 bb
       -0.07625606 0.013284973 0.14005809 -0.0053855027
0002f0 05 49 2b bd 21 53 58 3d aa 24 75 bc bd 40 f8 3d
       -0.041817684 0.052813653 -0.014962355 0.12121723
000300 e2 d3 e3 bd dc 52 09 3e 95 52 32 3e 65 75 57 3c
       -0.11124398 0.13410515 0.17414315 0.013150548
000310 d8 6b f0 ba ba a0 a2 bd ca a1 5b bd d7 2f 10 be
       -0.0018342687 -0.079408124 -0.05362109 -0.1408075
000320 c2 67 36 bd ad 27 35 3e 6b e5 08 be e8 15 87 3d
       -0.044532545 0.17690916 -0.13368766 0.06595975
000330 c4 ba 4a 3d 65 ff e4 bc 79 17 31 bc b2 59 d3 3c
       0.04949452 -0.027953813 -0.010808819 0.025799606
000340 18 20 6d 3d 89 20 32 3b 46 4e 11 bd 15 65 a7 bd
       0.057891935 0.0027180037 -0.035475038 -0.08173577
000350 88 8a ce 3c 1c 97 e2 bd 1e c5 e7 3d fb c8 bc bd
       0.025212541 -0.11063978 0.11316894 -0.092180215
000360 83 8f 5f 3e 02 96 04 bd 6b 13 39 3e a3 9e 1a 3c
       0.21832089 -0.03236962 0.18073814 0.009437236
000370 95 24 87 3e ad 60 6c be 61 29 f7 3d dc 06 e8 bd
       0.26395097 -0.23083754 0.12068439 -0.11329433
000380 29 26 8b bd 10 ad 17 3c 94 48 74 3d 46 57 0d 3e
       -0.06794388 0.00925757 0.05963953 0.13802823
000390 80 e5 81 3d 5a d7 20 be 47 ed 3b 3e 9d 34 8e 3d
       0.06342602 -0.1570715 0.18352233 0.06943629
0003a0 68 03 9e be d2 9f 17 3d 64 55 a5 3c a3 b7 0f 3e
       -0.30861974 0.03701765 0.020182319 0.14034896
0003b0 3a 6a 3c 3e 2c 6b 02 bc 8b ea df 3d 15 ed 87 be
       0.18399897 -0.007960122 0.109334074 -0.26548067
0003c0 89 36 22 bd 86 ca b3 3a f5 51 28 bd 4a bf 50 be
       -0.03960279 0.0013716973 -0.041093785 -0.20385471
0003d0 9e 86 eb 3d 9a 99 4b 3e 88 99 b2 3d 68 f5 4c 3d
       0.115002856 0.19882813 0.0872069 0.050038725
0003e0 33 b4 cf 3d 3a e1 f4 3c 68 70 5b be cd 08 62 bb
       0.10141792 0.029892553 -0.21429598 -0.003449011
0003f0 db 36 50 3d ad 35 9a 3d 03 d4 9f bd a8 4d 82 bd
       0.050833564 0.07529769 -0.0780411 -0.06362468

rnn.bias_ih_l0 f4 [64]
000000 72 55 09 be f0 84 39 bd 0f 75 85 3d 43 6c 81 ba
       -0.13411501 -0.045292795 0.06516468 -0.0009874183
000010 a6 5a 0f be 11 db d6 bd 64 41 84 3b fd 51 5d be
       -0.13999423 -0.10491002 0.0040361155 -0.21613307
000020 3b ff bd bd 18 bc e9 3d 6c fc 8f 3c 5e 17 36 3e
       -0.09277197 0.11412829 0.017576419 0.17782351
000030 bc da 49 3d b5 6f 41 3d eb ea 38 be ce 71 24 bd
       0.049280867 0.047225673 -0.18058364 -0.040147595
000040 1c e9 17 bd 43 79 07 3e cc 82 22 be 7e dd 47 be
       -0.037087545 0.13229851 -0.15870208 -0.19518086
000050 20 23 3c 39 ac 69 d0 bd 04 2f 5b 3d d6 b7 ad bd
       0.00017942162 -0.10176405 0.053511634 -0.084823295
000060 dd bf a3 3d d1 e4 3d bd c3 02 8f bc 0d 81 fa bb
       0.079955794 -0.046360794 -0.017457372 -0.0076447786
000070 f6 64 5c 3d c1 95 ec bd ab 62 0f be 91 fa 42 3d
       0.05380722 -0.11552001 -0.14002483 0.04760224
000080 95 df 0d be 1c 53 a6 3c 2b 64 fe bd 0b 37 12 be
       -0.13854821 0.020303302 -0.12421449 -0.1427881
000090 30 64 35 bc e4 49 17 bc bc 56 da ba 37 d7 e9 3c
       -0.01107125 -0.0092339255 -0.0016657929 0.028545005
0000a0 9e 23 d4 3c c4 5e 00 be 43 d8 b4 3d c2 96 1a be
       0.02589589 -0.1253615 0.08830311 -0.15096572
0000b0 fc 3c c5 bd f7 88 91 bd b2 09 8b 3e a7 a5 5b 3d
       -0.096307725 -0.07106202 0.27155834 0.053624775
0000c0 75 6e 25 be 23 36 e6 bd dc a5 0b 3d ba 18 d7 bd
       -0.16155417 -0.112407945 0.034093723 -0.10502763
0000d0 52 94 98 bc 27 c1 c5 3c 3d 23 0f bd 33 04 19 3d
       -0.018625412 0.024139954 -0.034945715 0.03735752
0000e0 b2 8c 4a 3e c2 26 6d 3e 6e 82 7d bd b2 b3 46 bc
       0.19780234 0.23159316 -0.061891966 -0.012127804
0000f0 ec 1c af bc 67 bd 22 3e 1d e1 f8 3d 53 a2 e8 3d
       -0.021376096 0.15892564 0.12152312 0.11359086

rnn.bias_hh_l0 f4 [64]
000000 a6 88 9a 3d 29 20 89 bd 0e a5 5f bd f8 fc e7 3d
       0.07545595 -0.06695587 -0.054600768 0.11327547
000010 45 a9 a2 3c ab 87 4a bd 95 da 1d be 77 a4 77 be
       0.019856105 -0.04944579 -0.15415414 -0.24183832
000020 af f3 9a 3d 6d 28 0e 3e a6 c3 d7 bc 13 66 6a 3d
       0.0756601 0.13882609 -0.02633841 0.05722625
000030 cb da 9f bd 64 1e f0 bd 3e 06 ba bd 20 73 e9 bd
       -0.07805403 -0.117245466 -0.09083222 -0.113989115
000040 35 e7 1d be 3f bc 2d 3e b9 da 7b bd 0e f0 fb bd
       -0.1542023 0.16966341 -0.061487887 -0.12301646
000050 cd cc 86 bd 90 33 95 bd 98 f5 f6 3a c1 3b 46 be
       -0.065820314 -0.072852254 0.0018841503 -0.19358732
000060 d7 20 dd 3d e3 14 04 bd 13 34 67 3d e8 54 24 3e
       0.10797279 -0.03224648 0.056446146 0.16048014
000070 c8 ea d8 3d 09 86 a1 bd cb 53 ba bd bd 0f 89 3d
       0.10591656 -0.07886893 -0.090980135 0.06692455
000080 e4 0f b8 3d 58 7c 7a 3d 6f e0 42 3d 14 40 7b 3d
       0.08987406 0.06115374 0.047577318 0.061340407
000090 52 09 c0 3d ee 93 27 3c a1 a5 a8 bd 7b 7b e8 3d
       0.09376778 0.01022814 -0.08234716 0.11351677
0000a0 56 9e 08 3e 18 fa a1 3d 2f b4 c5 3d bc a4 64 bd
       0.1334165 0.0790903 0.09653508 -0.055821165
0000b0 23 8e 52 bc 21 08 6a 3d a6 e4 ef 3d 7d ea 01 bd
       -0.012851271 0.05713666 0.11713533 -0.031717766
0000c0 18 73 68 bd 5c 20 06 be 56 4a ae 3d cf dc 25 be
       -0.056750387 -0.13098282 0.08510272 -0.16197513
0000d0 d4 c5 48 3d e4 b6 3d 3d 3a db ce 3c 97 9c 55 3d
       0.04901679 0.046316996 0.02525102 0.05215129
0000e0 ee 0e 25 3e 8c c7 6e 3e 07 a5 04 3d 7b 33 98 3d
       0.16118976 0.23318309 0.032383945 0.07431694
0000f0 dc d4 e6 bd 21 18 d1 3d 00 97 70 3d a5 ad 99 bd
       -0.112710685 0.1020968 0.058737755 -0.07503823

actor.weight f4 [3, 64]
000000 f1 d6 1a bf 95 3f 3e 3f 80 f6 36 3f 03 ce 1a 3e
       -0.60484225 0.7431577 0.7146988 0.1511765
000010 9f c8 d9 3e ba c2 76 bf a9 e0 30 3e 43 a5 6b 3c
       0.42535874 -0.9639088 0.17273201 0.014382663
000020 88 4b 27 bf 53 9a 66 3f b2 3d 13 bf f4 58 5c be
       -0.65349627 0.9007923 -0.57516015 -0.21518308
000030 42 1c 25 bf d8 c2 2b bf a2 63 6b 3f c5 49 3e bd
       -0.64496243 -0.6709418 0.919489 -0.04645707
000040 a1 02 4e be d8 c0 af 3d 3d 44 74 ba a0 b2 06 3e
       -0.2011819 0.08581704 -0.00093180296 0.13154078
000050 70 f1 24 3e d7 78 43 bf 3f 93 3a 3e c8 81 35 3e
       0.16107726 -0.7635626 0.18220232 0.17725289
000060 93 21 cb 3f 20 d0 61 be 31 fa 34 3f c9 76 fa be
       1.5869621 -0.2205205 0.7069426 -0.4891875
000070 4c 0e af 3f ab fd 18 bf 0b ac 0b 3f 7a fb b5 be
       1.3676238 -0.59762067 0.5455939 -0.35543424
000080 74 6d 2b bf b1 84 4b bf 66 71 13 3f 53 e3 a5 3f
       -0.6696389 -0.79499346 0.5759491 1.2959999
000090 cd 01 33 bf f7 51 44 bf 38 e1 41 3f 70 f1 d3 3d
       -0.6992462 -0.7668757 0.7573428 0.10348785
0000a0 d4 c3 92 bf a3 37 9b 3e f0 68 6b bd 23 d1 1b 3c
       -1.1466012 0.30315885 -0.057473123 0.009510311
0000b0 65 2a f9 3e fe 77 ed 3b 91 77 35 be 10 9b cb bf
       0.48665157 0.00724697 -0.17721392 -1.5906696
0000c0 9e 47 df 3d 6e 3f bc 3e 5f 0a fb 3e 59 ae e4 be
       0.10902332 0.36767143 0.4903135 -0.44664267
0000d0 3f 95 5c be d1 ca b0 3f 4c af fd 3d 79 4e f9 be
       -0.21541308 1.3811895 0.12386951 -0.48692682
0000e0 d6 af 77 bc a8 b4 03 be 42 70 57 bf 88 1c 71 3e
       -0.015117606 -0.12861884 -0.84155667 0.2354604
0000f0 12 95 91 be 6d 60 9a be e3 7e 12 3e 4d 23 7d bf
       -0.28434044 -0.30151692 0.14306216 -0.9888199
000100 a1 51 92 3f 79 53 3b bf 78 64 dc be 96 2f 10 bf
       1.1431161 -0.73174244 -0.43045402 -0.5632261
000110 33 98 c1 be 98 8a a9 3f 22 b5 4b bc 28 8f 8f 3d
       -0.3781143 1.324542 -0.012433322 0.07009727
000120 0e 9b 49 3f 9c 07 a5 bf a4 49 41 3f e8 80 98 3d
       0.7875222 -1.2892947 0.7550299 0.07446462
000130 2e 7c 80 3f 37 ec c8 3e a0 55 ac be 0c 80 a2 bd
       1.0037897 0.39242718 -0.33659077 -0.07934579
000140 c3 43 b9 3e 51 9a 90 bd bc 0b b2 3e b0 b5 8e 3d
       0.3618451 -0.070606835 0.34774578 0.06968248
000150 3c c5 3d be 0b 85 6c 3f f2 c4 d8 bd db 1d 96 bd
       -0.1853227 0.9239051 -0.10584439 -0.07329913
000160 6f 82 c9 bf 71 30 1f 3d 1a 60 20 bf 7d 03 0c 3f
       -1.574293 0.038864557 -0.6264664 0.5469282
000170 cd 27 ae bf 08 26 6b 3f 1d 53 b2 be 12 c0 eb 3e
       -1.3605896 0.91854906 -0.34829035 0.46044976
000180 d2 09 4e 3f 31 44 9c 3e b2 a9 58 bf 70 f1 56 bf
       0.80483735 0.30520776 -0.84633934 -0.83962154
000190 3f 07 88 3f e4 38 50 3f dd a3 d4 be a9 1e 32 bf
       1.0627211 0.8133681 -0.41531268 -0.69578034
0001a0 91 bb a4 3f e5 2f b8 be 2d f2 00 be 2b 02 2d 3e
       1.2869741 -0.3597404 -0.12592383 0.16895358
0001b0 14 84 c8 be a0 bf 5a 3e 10 70 20 be a6 e4 7b 3f
       -0.39163268 0.21362162 -0.15667748 0.98395765
0001c0 ac ac d8 3d fd f8 d7 be 35 70 03 bf d1 27 8c 3f
       0.105798095 -0.4218215 -0.5134309 1.0949651
0001d0 dc 53 62 3e 29 5c 2d bf 35 04 20 3e 3d 82 51 3e
       0.22102302 -0.6771875 0.15626605 0.20459838
0001e0 96 6c 17 bd ae c4 a9 bd ea ee 74 3f 4b c4 9b be
       -0.03696879 -0.08289467 0.95677054 -0.30423197
0001f0 60 ec 62 3e e6 04 7d 3e b1 0b 4e be 4b 75 22 3f
       0.22160482 0.247089 -0.20121647 0.63460225
000200 1a cc 04 be 53 2c 97 bd ca 7d ff 3c e5 23 3d bd
       -0.12968484 -0.07381501 0.03118791 -0.04617681
000210 a6 c5 67 bd 08 82 ca bd b6 a2 9e bb 4b e6 55 bd
       -0.056584977 -0.09888083 -0.004841174 -0.052221578
000220 76 3e 9a bd 35 8c 48 bd eb 56 69 3d dd 65 80 3d
       -0.07531445 -0.048961837 0.056967657 0.06269429
000230 97 5f 87 bb 37 c0 bf bd 7a 9d 7c be cc 4b 43 be
       -0.0041312682 -0.09362834 -0.24669448 -0.19071883
000240 82 71 02 bd 7d 58 a2 3d 20 55 c9 bd 92 5d 20 be
       -0.03184653 0.07927034 -0.098306894 -0.15660694
000250 70 48 f7 bd e1 1a 0c be 78 3f a1 bb 1d 11 4f 3d
       -0.12074363 -0.13682128 -0.004920896 0.05055343
000260 b9 53 4f bc 2e d8 fb 3d f5 24 23 be 28 55 6d 3d
       -0.012654238 0.122970924 -0.15932067 0.05794254
000270 77 3c bf bc f5 6c 90 3c 8c 2f c7 bd 1c 87 a3 3d
       -0.023344262 0.01763008 -0.09725866 0.079847544
000280 5a 10 c5 3d 17 a9 8e 3d d4 b6 f8 3b 75 b5 0e 3d
       0.096222594 0.06965845 0.007590154 0.03484102
000290 5a d1 c0 bd b4 aa b5 bd 2c 38 12 be b2 6e 47 3e
       -0.09414931 -0.0887045 -0.1427924 0.1947582
0002a0 01 c0 3a 3c 04 2e ae bd 37 b1 45 3e 3e 73 b5 3d
       0.011398316 -0.085048705 0.19305883 0.08859871
0002b0 ad 10 3b 3d bc af 07 be c3 bc 1d 3e 95 b2 59 bd
       0.0456702 -0.13250631 0.15404038 -0.053148825
0002c0 fb 79 65 be e8 85 b6 3d 43 dd 6a bb 80 cd 29 bd
       -0.22409813 0.08912259 -0.0035837449 -0.041455746
0002d0 fb 5c 96 3d 30 6a 89 bd d5 5e 1e be fa f0 30 bc
       0.07341953 -0.06709707 -0.15465863 -0.010799641
0002e0 4a 1a 4c 3e 9a 6c ce 3d c2 06 22 bd a8 af b1 bc
       0.19931903 0.10079308 -0.039557226 -0.021690205
0002f0 a0 40 6e 3d 1c 15 5a 3e b8 61 87 bd 54 e9 64 bc
       0.0581671 0.21297115 -0.06610435 -0.013971645

actor.bias f4 [3]
000000 a3 7b 38 be 20 db 38 3d 87 60 c2 3d
       -0.18015914 0.04513085 0.094910674

critic.weight f4 [1, 64]
000000 df 51 1f bd b0 09 24 3d a5 57 c4 bc 7e b2 12 3d
       -0.038896438 0.0400483 -0.023967573 0.035814755
000010 38 ca 1a bd a2 21 a2 3c 36 a7 f1 b9 20 de 68 bd
       -0.037790507 0.019791428 -0.00046091684 -0.05685246
000020 2b 68 e3 3c 4d 08 2d 3d c7 0b 6b bc 25 dd b5 3d
       0.027759632 0.042244244 -0.01434607 0.088800706
000030 6a 7e ee 3c c4 6a e3 39 f1 68 c7 bc 1c 24 a7 3a
       0.029113013 0.0004337636 -0.024342032 0.001275185
000040 17 dd 48 bd 38 17 34 3c 1f db 68 bd ae 73 6f bd
       -0.049038973 0.010991864 -0.056849595 -0.05845993
000050 6b 28 c9 3c 82 8c 4a bc 7d 90 0f bd f3 74 4b bd
       0.024555406 -0.012362601 -0.035049904 -0.04967208
000060 64 bb 2b 3d 61 c5 0b bd 8e c0 97 3b 9f 91 70 3c
       0.041926757 -0.034123782 0.0046311086 0.014683156
000070 d4 a2 a0 3d a6 7a 57 3c e4 98 fe bc 03 1d 9e 3c
       0.07843557 0.0131518 -0.031078763 0.019300943
000080 6d 59 e9 bc 9c 67 20 bd 0d 50 40 bd e5 ea 7b bd
       -0.028485024 -0.03916131 -0.046951342 -0.06150331
000090 4d 3e 8e 3b fc e0 fa 3c ff 42 02 bd a2 95 bd 3c
       0.004340923 0.030624859 -0.031802174 0.02314264
0000a0 3b dd 7d bc 24 65 89 bc 6a eb 30 39 b3 44 1e bc
       -0.01549464 -0.01677186 0.00016872367 -0.009659934
0000b0 1a 10 20 bd c0 ad 59 3d 47 c3 94 3d 4c db 02 bc
       -0.039077856 0.053144217 0.07263809 -0.007986855
0000c0 17 b0 9c 3d 75 de 55 bd 10 5c 2f 3d 63 c0 f4 bc
       0.07650774 -0.052214105 0.042812407 -0.029876893
0000d0 d3 7e a1 bc 1b e6 ba bc 0d 5b 93 3d dc c4 36 3c
       -0.019713795 -0.022814801 0.07195101 0.011155333
0000e0 91 17 cf 3c 01 2e af 3c 53 c0 d1 3c 47 75 d7 3c
       0.025279792 0.021384241 0.025604403 0.02630104
0000f0 df d2 37 bd e8 26 44 3d c3 c1 a3 3b cc 9d c9 3c
       -0.044878837 0.047888666 0.0049974634 0.024611376
