model_params/pre_model_params_10_heliTrue.pth (torch, 22860 bytes, 7 tensors)

rnn.weight_ih_l0 f4 [64, 6]
00000000: bdd7 ff3e d043 f1be 9abb 8e3d 2434 c3be
00000010: 15f3 ddbd deae dfbd e72c 93bd ff99 bb3d
00000020: 109e eb3c 0c38 a33d e1fd 2e3d f2b5 643c
00000030: 1c82 093e 67e2 d7be 08c8 b6bd 0754 b3bd
00000040: 588c e9bd 506e dcbd c880 ae3e db98 80be
00000050: d290 e0bd e97e 12be a3b2 323d 51d5 23bd
00000060: 0e61 d3be bcc3 d53e 4031 853d 23fe f2be
00000070: bccb 1e3d 0124 57bd 7f6b d9be 1e7d e83e
00000080: 4c13 a0bd 4b74 dfbd aa1d 9abc 45c5 303b
00000090: 4a01 bd3e 7f39 11bf e8d1 81bc ea8c ca3e
000000a0: dc38 90bd 8b25 ed3c bf28 133f 61fa d5be
000000b0: c634 efbd d876 c0bc 2ca4 283d 88cf 503c
000000c0: 47c7 f83d a9ca b2bd 0c31 0d3d 0174 dabe
000000d0: e5f5 d73d 8c2d 22be 219f 08bf 0241 d13e
000000e0: 0016 71bc 45dc 96bc c106 693d 1dc0 c3bc
000000f0: 5a9a f13e 13d6 12bf 80d2 283d fcb5 dd3c
00000100: 8a0d d0bb 308e dc3c ede3 f63e 2c5f ffbe
00000110: a8b3 0b3d 1f5e 8cbe cfa3 883d 448e 06bc
00000120: 773e 33be 97e2 a3be 249e a13d cc60 05be
00000130: 2cff 05bd a28a cabe 1cca e93d adc7 aa3c
00000140: ca89 bc3d dc7c db3e 33b3 14be a9b6 08bd
00000150: 1fd3 063f 5195 eabe 121e f93d 4be7 45be
00000160: 27b1 88bd 72af 023d a683 993e 9cf9 c7be
00000170: 5e80 d03d 093b 943c aaa0 c13c 4a57 90bd
00000180: 918a 083f d06f 0fbf f4bf 30bd 29c3 cf3c
00000190: 5715 c1bd df5a 93bd 9bb2 98be a845 6c3e
000001a0: a079 0fbc 478d 27bf 4aa2 4fbe c15b 0e3d
000001b0: 6f4f 123f c873 07bf c479 66bd af33 55be
000001c0: 317a 00bd ba65 563d 8c5e d2be e0de ba3e
000001d0: 727a f73d c6b6 ebbe 8af5 74bd 3c02 c83d
000001e0: a9b8 a13e 9396 f7bd 40ff bbbd 703c 953e
000001f0: 4f11 04bd a349 9a3e 2d77 19bf d14e e83e
00000200: a08d bc3b f6bb 913c cc83 8abd 18f1 1ebb
00000210: 8b3a efbe 3b86 bc3e 68fa 8ebc 5cc6 d5be
00000220: 5776 1b3e 526c 60bd 1c6f 5dbd 8a93 d8bd
00000230: fe69 8e3d 2262 d1be bd84 84bd c49c debd
00000240: 8827 df3e c677 f1be 7c92 c53d abed 943e
00000250: 4a7c 67bd d535 a8bd 4f50 963e b029 c3be
00000260: b0c4 29bc 1311 06bd c63f 87bd aa6e 113c
00000270: 1ef4 863e 27e3 b3be e0ca f4bc 2d13 f73d
00000280: 1650 c9bd 2e97 8dbd 4ed2 92be 8c63 e33e
00000290: 48d7 ca3c ddc5 ffbe d6ba 063d 4716 bb3d
000002a0: 6472 c83e 2235 b4be 36a8 e0bd 5dce 33be
000002b0: 22b3 acbd 8e34 95bd 867c 483e 6ba7 7ebe
000002c0: 289f e1bc d6b9 433f 9070 3d3e e8f1 593d
000002d0: 16d3 853e 7914 83be 58ff d4bc 0711 e13e
000002e0: d904 a1bd e18d 76bd 6a66 bc3e c0b7 b7be
000002f0: b0cd 4bbc 3507 c3be c4be 6f3d 4231 9c3d
00000300: 17a2 b4bd e798 47be 24fa 22bd 363a 87be
00000310: 4307 acbd e58a 64be 933a d2be 0caf c03e
00000320: e0ec 99bb e547 b7bd c466 bbbd 40dd 80bd
00000330: 20c3 78be c403 b23e 4067 99bc 19ab 033f
00000340: f0a7 0dbd b0a2 863d 53bb d0be a08c 0c3f
00000350: ae98 fb3d 320c a9bc 58dd 47bd ed82 173d
00000360: 2a68 0a3f ec82 d9be ded4 b23d 2c6f 5e3e
00000370: 3c1e 0a3d 4a38 e93d c812 f03e 9ff5 bcbe
00000380: e4d0 6cbd 60f1 b43c 5dc9 823d c691 1bbd
00000390: 15f4 fd3e 6f90 1cbf c4a5 273d 8666 c0bd
000003a0: 6381 873d b459 a4bd d4bf a3be 781c d83e
000003b0: 9c1c 1d3d 7af0 ee3e c394 473d 9daa 803c
000003c0: 166b 0b3e 4bb2 863e 20aa 023c 145b bc3e
000003d0: d968 7abd bfc7 e53d b277 08bf aaa4 c73e
000003e0: 807a 563c 13d4 7dbd 63f7 063e 1273 bf3d
000003f0: c615 0bbf 09f3 113f 000d 913d b06b 0c3e
0.49969283 -0.4712205 0.06969376 -0.38125718 -0.1083738 -0.10922025 -0.07186299 0.09160232
0.028761894 0.079696745 0.042722587 0.013959395 0.13428539 -0.4216492 -0.08924872 -0.08756261
-0.114037216 -0.10763228 0.34082627 -0.2511662 -0.10965122 -0.14306225 0.043627393 -0.039998356
-0.41284984 0.41750896 0.06503534 -0.47459516 0.038768515 -0.05252457 -0.42464826 0.45407957
-0.078161806 -0.10910853 -0.018812973 0.002697305 0.36915046 -0.5672836 -0.015847161 0.39560634
-0.07042095 0.028948566 0.5748405 -0.41792586 -0.116799876 -0.02349417 0.04117219 0.012744792
0.12147384 -0.087300606 0.034470603 -0.4266663 0.105449475 -0.15837687 -0.5336781 0.4086991
-0.014714718 -0.01841558 0.056891207 -0.023895318 0.47188073 -0.573579 0.041216373 0.027064316
-0.00634927 0.026923269 0.4822077 -0.49877298 0.03410688 -0.2741556 0.06671869 -0.00821263
-0.17504297 -0.32008812 0.07891491 -0.13025206 -0.032714054 -0.39558893 0.114155024 0.020847166
0.09205969 0.42868698 -0.14521484 -0.033377323 0.52665895 -0.45817044 0.121639386 -0.19326513
-0.06674414 0.0319056 0.29983252 -0.39057624 0.10180734 0.018094556 0.02363618 -0.07047899
0.53336436 -0.5602999 -0.04315181 0.025361614 -0.094278984 -0.07195067 -0.29823765 0.23073447
-0.008757025 -0.6544995 -0.20276752 0.034755472 0.57152456 -0.52911043 -0.05626847 -0.20820497
-0.03136653 0.052343108 -0.4108776 0.36498165 0.120839015 -0.46037883 -0.059804477 0.09766051
0.31586197 -0.12089267 -0.091795444 0.29147673 -0.03224307 0.30134305 -0.5994747 0.45372632
0.0057541877 0.017789822 -0.067634195 -0.002425259 -0.46724352 0.3682116 -0.017453387 -0.417529
0.15181862 -0.054790802 -0.05406104 -0.10575016 0.0695381 -0.40895182 -0.0647063 -0.108697444
0.43584847 -0.47161692 0.0964708 0.29087576 -0.056515016 -0.08213393 0.29358146 -0.38117743
-0.010361835 -0.032731127 -0.06603961 0.008876482 0.26358122 -0.3513424 -0.029881895 0.12064204
-0.09829728 -0.06913601 -0.28676075 0.44411886 0.024760857 -0.49955645 0.032893024 0.091351084
0.39149773 -0.35196787 -0.10969584 -0.1755919 -0.08432604 -0.07285415 0.19578752 -0.24868552
-0.027541712 0.7645544 0.1849997 0.053209215 0.26137608 -0.25601557 -0.026000664 0.43958303
-0.07862253 -0.0601939 0.36796886 -0.35882378 -0.012439176 -0.38091436 0.058531538 0.07626583
-0.08819979 -0.19491921 -0.039789334 -0.264116 -0.083998226 -0.22318609 -0.41060314 0.3763355
-0.004697427 -0.0894926 -0.0915046 -0.062922 -0.24293184 0.34768498 -0.018725991 0.5143295
-0.034583986 0.06573999 -0.40767917 0.54902077 0.12284981 -0.020635698 -0.048795074 0.036990095
0.5406519 -0.42482698 0.087320074 0.21722096 0.03372024 0.113876894 0.4688933 -0.36906144
-0.0578164 0.022087753 0.06386063 -0.037980817 0.49600282 -0.6115789 0.04092957 -0.09394555
0.066164754 -0.08024922 -0.3198229 0.4220922 0.038357362 0.46667844 0.048725855 0.015706355
0.13615069 0.26307902 0.007975131 0.36788237 -0.061135147 0.11219739 -0.5330764 0.38992816
0.01309073 -0.061969828 0.13180308 0.0934812 -0.543301 0.5701147 0.07082558 0.13712955

rnn.weight_hh_l0 f4 [64, 64]
00000000: bf1c 213d 088d 023c a493 6e3d 608e 38bc
00000010: c346 273e d441 ff3d d893 fe3c cafc 0cbe
00000020: 108d 203d 8d5f e63d 120f 36be 4780 1fbe
00000030: 397b 9d3d 4b2e 713d 8f72 d23c 2acb 33be
00000040: 6d49 4ebe 1e55 d5bd 1931 52be 58d1 153d
00000050: 520e 893c fbb5 503e 8a71 2abd 6211 233c
00000060: ab10 b13c 458a 843d 38df 013d 3bae 1f3c
00000070: 867c 9bbd 4551 313d 54fc 5b3d a9df a1bd
00000080: cb3b c13d e0a9 503c 5fc5 3c3e 2ffe a73d
00000090: 48ce 183e 50d9 9b3c c9b0 32bd 076e 073d
000000a0: 8115 eb3d 1b48 7f3d f60a 4a3e 6db2 0c3d
000000b0: c550 a03b 2f17 f6bc 76c1 3dbd df9b ddbc
000000c0: 31fc a33d 48d9 dcbc 812c f3bc 4a15 1cbe
000000d0: 2a51 d23d 12c4 e33a 6d40 113d c789 05bd
000000e0: 4530 423e 26ce 373c 0bb1 9e3d f1e4 51bc
000000f0: 7e7b a6bd fee8 babd 3637 583c 8cb9 fdbd
00000100: 932b 25bd 4345 84be 6f51 683d 5a8f 413e
00000110: 5864 883e f1b9 82bd 6f17 0ebe 7a1e 2cbe
00000120: 1ce7 693e 51fc 67bc 72bc 5cbe 0465 243e
00000130: d272 bf3d de25 e4bd cceb f13d 9f6d 2f3c
00000140: 1af9 5abe b28f 583d 54b8 6fbe 4cd1 7f3e
00000150: bbcc bd3d 1ef8 463e 2f22 733e 8134 e8ba
00000160: 7a44 44be dd6c 3e3c 1b89 db3d 475c 273e
00000170: c0ee 8839 d283 413c bd10 2a3c ebf2 033e
00000180: 4a07 153d 0f1c ed3d 9a33 8f3b 3966 4c3c
00000190: 9a10 e4bd b423 4d3d caa0 47be f7b1 2abe
000001a0: d3ac 58bd 0aea fcbd 2c14 7a3e 7419 11be
000001b0: 85f0 f0bd ba0a c0bb b6b9 febd f2dd 9cbd
000001c0: 9e5a 9bbd 1474 51bd e890 a8bd 5a3d 5fbd
000001d0: 452c af3c e080 2fbe dbb4 893d 0d26 b3bd
000001e0: 7eef f93d 3ef1 31be 80cc 1ebe ac1e dcbd
000001f0: 56f4 f1bd 8580 4abd 5143 82bc cc69 82ba
00000200: 4f09 283d c49b 51be 7c00 7b3e e152 e63d
00000210: 6e3e 0b3e b537 a23d 6ab5 74bc 9d5b 1f3e
00000220: 73e4 193d d82b a73d edb4 dc3d bda6 76bd
00000230: ab38 5e3d 2649 c8bc 54b8 bd3e fcf9 a3bc
00000240: eeb0 91bd 9934 f73d 2213 843e 41b8 30be
00000250: 07c0 b2be 40e1 2fbd 57fa b4bd dcd2 36be
00000260: 0bcb 063e 6dcf f7bd c01e 033d af01 fdbc
00000270: 25aa 42be 9d3a 14bc 45a7 233e 1a93 6abd
00000280: a886 9c3e e0a7 943d 7a14 ebbd 8efe be3d
00000290: 92b7 1b3e b6d3 383e 6529 b23d 73fa 54be
000002a0: 4efd 62bd 7365 80bc 9151 203e e161 5cbe
000002b0: da42 eabd 6283 cbbe dec6 8b3d 5026 e13c
000002c0: 40c7 813e f0fe 8d3d b741 9cbd 1b9e 303e
000002d0: a24f ecbd d38d f6bc 6b6e 38bc ad5b 5b3e
000002e0: 62ee 78be 66c3 dd3d 3042 b03d a4dc a03d
000002f0: cdaa 383e 73a2 843d ff2c 4b3e 2d85 8e3e
00000300: 7bfd c3bc d503 f7bd 2067 2d3c 9dbc 7ebe
00000310: d449 08be 3660 783d e864 e23d 1c99 833c
00000320: e84b d9bd 9ba1 07be 0fc2 943d 8772 ae3c
00000330: abe7 d6bd 806a eabd 35e6 19bd 9ba2 313c
00000340: 7dcc df3d d0d0 da3d 5019 bebd ef86 d6bd
00000350: 3cb7 98bc c54f c63b 60ea adb9 013b 04bd
00000360: f299 183e bd98 6f3d 90f9 a8bd c7b1 893c
00000370: 5064 a4bd c07c 4c3d d6f7 843c 81a2 9f3d
00000380: aa0b 973d 8f4d 063e 9b77 29bd be60 fabc
00000390: 9c44 0c3e 0736 debd 90a6 aa3c c505 dfbc
000003a0: a864 463d 87f5 5abb 7e05 11be d828 95bb
000003b0: c694 93bd 18c6 6f3d e9d1 c9bd ce75 0b3e
000003c0: 4ba2 a23d f5af 9b3d 97ce 35be 026d 613d
000003d0: bbb0 de3d af9a 33bc 132b 7c3d 0dd7 773d
000003e0: 25b8 093e 05ab a23d 9241 a83c f12b 893d
000003f0: cba2 2f3d 7fe0 073d 524b 18be eda0 61bd
0.039334055 0.007968195 0.05824627 -0.011264414 0.16335587 0.124637276 0.031076357 -0.13768306
0.039197028 0.112486936 -0.17779186 -0.15576278 0.076895185 0.05888204 0.025689391 -0.1755797
-0.20145197 -0.104166254 -0.20526542 0.0365766 0.016730461 0.2038192 -0.041612186 0.009952875
0.021614393 0.06471685 0.03170702 0.00974613 -0.0759211 0.043290395 0.053707436 -0.07903988
0.09435233 0.012735814 0.18434666 0.082027785 0.1492244 0.019024521 -0.043625627 0.033063915
0.11478711 0.062324625 0.19730744 0.034349848 0.004892441 -0.030040352 -0.046327077 -0.027051864
0.08007086 -0.026959077 -0.029684307 -0.15242496 0.10269387 0.0017377159 0.03546183 -0.032602098
0.18963726 0.011218583 0.07748612 -0.012810932 -0.08129023 -0.09126471 0.013196757 -0.12388906
-0.04032476 -0.25834092 0.056718286 0.1890234 0.26639056 -0.06383122 -0.13876127 -0.16808501
0.22842067 -0.014159278 -0.21556261 0.1605416 0.09348072 -0.11140035 0.11812553 0.010707288
-0.21384087 0.052871414 -0.2341016 0.24982184 0.09267565 0.19430587 0.23743509 -0.0017715843
-0.19166747 0.011622635 0.1071951 0.16343795 0.00026117824 0.011811214 0.010379967 0.12885635
0.036383905 0.115776174 0.004370165 0.012475544 -0.11135979 0.050082877 -0.1949493 -0.1666945
-0.052899193 -0.12349327 0.24421757 -0.14169866 -0.117646255 -0.0058606537 -0.12437765 -0.0765952
-0.07585643 -0.05113609 -0.08230764 -0.05450187 0.021383414 -0.17139006 0.067239486 -0.08747492
0.12203883 -0.17377183 -0.15507698 -0.10748038 -0.118141815 -0.049438972 -0.01590124 -0.0009949743
0.041024502 -0.20469576 0.24511904 0.11246277 0.13598034 0.079207815 -0.014935831 0.15562291
0.03757138 0.081626594 0.10776696 -0.060217608 0.05425326 -0.024448942 0.37054694 -0.020016663
-0.07113825 0.12070579 0.25795847 -0.17257787 -0.3491213 -0.042939425 -0.08836811 -0.17853874
0.13163392 -0.1210011 0.032011747 -0.030884592 -0.19010217 -0.009047178 0.15981777 -0.057269193
0.30571485 0.07258582 -0.11478515 0.09325896 0.15206745 0.18049511 0.08699302 -0.20798664
-0.05541735 -0.015673375 0.15656115 -0.21521713 -0.11438532 -0.39748675 0.0682504 0.02748409
0.25347328 0.06933391 -0.076297216 0.17247812 -0.11538626 -0.030096924 -0.011256794 0.2142169
-0.24309686 0.10828285 0.08606374 0.07854584 0.18033905 0.06476297 0.19841383 0.2783598
-0.02392458 -0.12061278 0.010583669 -0.24876638 -0.13309413 0.06063863 0.110544026 0.01606422
-0.10610181 -0.13245241 0.07263576 0.021294845 -0.10493406 -0.114460945 -0.03757306 0.010841991
0.10927675 0.10684359 -0.09282172 -0.10474955 -0.01864206 0.0060519897 -0.00033171754 -0.032282833
0.14902475 0.058495272 -0.08250725 0.016808404 -0.080269456 0.04992366 0.016231459 0.07794667
0.073752716 0.13115524 -0.04137383 -0.030563708 0.13698047 -0.10850149 0.020831376 -0.02722443
0.048435837 -0.0033410506 -0.14162251 -0.004551988 -0.07206111 0.058538526 -0.0985449 0.13619158
0.07941111 0.076019205 -0.17754589 0.0550356 0.108735524 -0.010962172 0.061564516 0.060507823
0.13449152 0.07942776 0.020539079 0.06697834 0.04287986 0.03317308 -0.14872482 -0.05508511

rnn.bias_ih_l0 f4 [64]
00000000: 48af 873d b5ac dc3d 6d1d 6fbe b33b ad3b
00000010: 6523 c83d 7178 a93d 7428 20bd 2bd0 ccbd
00000020: 3ee0 c33d 7abd 7abd b922 413c 283f 9dbd
00000030: eb7e 8fbe 1ef2 8ebd a8b3 0abe 4d9a 503d
00000040: 3c7f cf3d 8c74 31be 009a d7bd 9f15 de3d
00000050: b104 813e 2c22 ea3d 65dc 443e cbbf 0ebd
00000060: 9516 7bbd e0fa 933c 6703 8c3d 27fc a6bd
00000070: 3718 7a3c 2c17 aa3d 4236 0cbe 44b5 bd3d
00000080: 4d2e e3be 49bf 65bd 0923 46bd 3b3b a4bd
00000090: 3358 93bc 391c 1abd 0c9f 833d 6ffd 83bd
000000a0: 4233 ad3d ec1d 88bd 6bcd 5f3c 5f04 bebd
000000b0: 4d19 07be 8ccb 78bd eade a4bc 716b de3c
000000c0: 269e c2bd df82 d9bd c64d 78bd 6f05 9dbe
000000d0: af81 ea3c d682 a93d 5dba 81bd 0333 77be
000000e0: adbb 513e 1c80 d9bc 920a 5ebe c7e6 bbbb
000000f0: a299 91bd 5a61 a3be 1159 9bbd 3326 d8bd
0.06625229 0.10775129 -0.23351069 0.0052866577 0.09772376 0.082749255 -0.03910108 -0.100006424
0.09564255 -0.061215855 0.011788064 -0.07678062 -0.28026518 -0.06979774 -0.13545096 0.050928403
0.1013169 -0.17329615 -0.1052742 0.10843968 0.25198892 0.11432299 0.19224699 -0.034850877
-0.061300833 0.018063962 0.068365864 -0.08153563 0.015264562 0.08305201 -0.13692573 0.09263089
-0.44371262 -0.056090627 -0.048373256 -0.0801911 -0.017986393 -0.03762457 0.0642682 -0.06444823
0.08457042 -0.06646332 0.013659815 -0.092781775 -0.13193245 -0.060740992 -0.020125825 0.027150841
-0.09502821 -0.10620665 -0.060621046 -0.30668208 0.028626291 0.08276908 -0.06334374 -0.24140553
0.20481749 -0.026550345 -0.2168372 -0.005734298 -0.07109381 -0.3191021 -0.075853474 -0.10554161

rnn.bias_hh_l0 f4 [64]
00000000: a56d 10be 7ca7 10bc bf67 acbe 4d9e 19bd
00000010: 9683 01be a0cf 69bd 66e4 673d 63e7 a13a
00000020: ea64 93bc 2971 adbc b885 a83d bff1 463d
00000030: 5933 acbe d6c4 743d 7865 0bbe d76a 303d
00000040: 88fe c9bd 5a32 1fbe 8878 9b3c b9fc a9bb
00000050: 5d16 963e bc8a 663d 078b 073e ea3e cdbd
00000060: 7187 0e3d 4f87 17be 8f83 f0bd e17a b1bd
00000070: 56f3 773d 4006 c63d a0e9 c1bd 1be2 74bd
00000080: 57d1 c6be 0499 863d 094c 59bd 47ae e53d
00000090: e87d 0d3e 683f 813c 038a a93a cfe3 2fbd
000000a0: 8634 55bd f54e 6f3d c405 eb3c b1c3 6dbc
000000b0: a503 08be a0ca d63d 0250 b4bd 8d50 f8bc
000000c0: fce9 bc3d 9a40 93bd 9e3f 04bd 6bbb 44be
000000d0: cd5a 8c3c d86c bc3d 3fbb ac3d 3319 6dbe
000000e0: 0d83 053e 74aa 523c c276 64be bea5 41bd
000000f0: 2650 cbbd dc0f 9ebe c2eb 513b b3cf 59bd
-0.14104326 -0.008828994 -0.33672902 -0.037504483 -0.12647852 -0.057082772 0.056614302 0.0012352284
-0.017992456 -0.021172123 0.0822863 0.04857039 -0.33632925 0.05975803 -0.13612926 0.04307064
-0.09863001 -0.15546551 0.018978372 -0.0051875976 0.29313937 0.05628465 0.13236628 -0.100217655
0.034797136 -0.1479771 -0.11743843 -0.086660154 0.060534798 0.09669161 -0.094683886 -0.059785943
-0.3883159 0.06572154 -0.05305103 0.112148814 0.1381756 0.015777305 0.0012934807 -0.042941865
-0.052052043 0.05842491 0.028689273 -0.0145119885 -0.1328264 0.104878664 -0.08804323 -0.030311847
0.092243165 -0.07190056 -0.032287233 -0.1921212 0.017133141 0.09200448 0.08434152 -0.23154144
0.13038273 0.012858022 -0.22310928 -0.047277205 -0.099273965 -0.30871475 0.0032031392 -0.053176593

actor.weight f4 [3, 64]
00000000: cf46 04bf c11c 1f3e 26c0 2b3d b94b 5bbe
00000010: 7a76 673f e9d3 8b3f 9477 80bf b3ba bbbf
00000020: 1a32 20be 664c 813f ab19 fcbf 01ca b3bf
00000030: cf43 453e 6cc4 1bbe 4d61 48bf 4dc8 06bf
00000040: f34a eabf 5a3d 423e f1be c8bf 1b3f 1b3f
00000050: 81e5 13be b7e0 9f3f 5e21 b43e 3d1e d7bd
00000060: d2fc 39bf 7bfc c1be b283 afbe 3129 113f
00000070: 7e1e fbbe 280b fabe f616 9b3c 130d 1ebf
00000080: 5963 263e f58c 353f 1cf0 b53e 8508 8d3f
00000090: 0eb7 94bf 40fc 4dbf 9351 08c0 af9e 0f3f
000000a0: afb8 88bc 6f44 503f 1cf9 ee3f 0fce 99bf
000000b0: c327 0f3f 7bb8 073f 79db 82bf f40c 9abf
000000c0: eda5 cfbc 455f f9be 31ce 1e3f a618 f73d
000000d0: 009a b1bf 937f 3abf 67a0 3e3f 21b7 b43e
000000e0: 4426 d53e 7d8e 233e ccfa 053e 111c 463f
000000f0: d650 cabf 344e d73d e3e1 103f 4436 c5be
00000100: eb43 583f b142 a5bd 9a75 383e 3939 ec3e
00000110: f580 77bf 2ac0 8abf 5fc3 7d3f 02ff 943f
00000120: d96e 88bd dcb7 89bf baf1 c43f ea45 9b3f
00000130: d36e 8d3e ca73 99bd b8ed 783f b9f0 113f
00000140: 09e5 db3f fcb3 efbd d7cd 0b40 acf5 30bf
00000150: 1f47 06bd 847e e1bf 07c0 82bf 54cd 16be
00000160: fb8b 863f c0db a23e a51f df3e 4b16 06bf
00000170: f73d 423f 0118 483e 7924 aa3e 94a6 183f
00000180: 7ddb 243e bcb4 01bf d98e 94be fb56 8fbf
00000190: d708 313f f733 5d3f b2db c73f 7a5d 14bf
000001a0: 3c92 56bd f803 87bf d3d1 d7bf e1cb 663f
000001b0: 8c50 e8be 4441 e7be 51a1 903f 5a46 8a3f
000001c0: 854a 6c3d 9cd6 323f 8a7e cfbe c50a 673e
000001d0: d713 823f 3c40 703f b3fc 54bf 3a3c 40bd
000001e0: 4501 8abf 6a61 8ebe 7223 923e 0920 2dbf
000001f0: 9794 0040 c08e 883e f449 05bf 3610 e23e
00000200: 392b 7abd e1c6 003d 1a0d 4bbe ea4f 003d
00000210: f1d6 43bd 6961 c23b 2843 d63c 0dee c33c
00000220: d4f4 1bbe 0092 b8ba aa44 29bd 1a3e 81bd
00000230: 97e8 85be 3071 763e 6008 4d3d b878 673d
00000240: 810c e1bd b6f5 53be 216c efbd 0d72 fe3c
00000250: 5c7c a33e 9b7b 013d 6652 9d3e e070 c03c
00000260: 6264 80bd 6300 c1bd 588a fa3c 29e6 68bd
00000270: 353b 8d3c d669 233e fc54 83be 60b5 103e
00000280: ef42 a1be 34c7 283c 57b1 6b3d a709 c1bd
00000290: f2a4 7b3d 24f0 15be af97 ce3d 39da f4bc
000002a0: 30a1 023e 324a 4ebd 25b1 4b3d 685b 183d
000002b0: 7ddb 50bd 6dbb f5bb aca8 8cbb 5ecf efbd
000002c0: 21a2 ed3c e29e 893d c559 b1bc 9543 47be
000002d0: ec52 e93d 523b 113e 2d40 863d d77d 0bbe
000002e0: a0db f23d 057a c63c 208e a1be 6e9e 44ba
000002f0: 4005 0abc 125b 58be d205 92bd c1b0 edbd
-0.51670545 0.15538312 0.041931294 -0.21415605 0.90415156 1.0924045 -1.0036492 -1.4666351
-0.15644112 1.010144 -1.9695333 -1.4046022 0.19264148 -0.15211648 -0.7827347 -0.52649385
-1.8304123 0.18968716 -1.5683271 0.60643166 -0.14443018 1.2490453 0.35181707 -0.10503814
-0.726514 -0.3788794 -0.34280163 0.5670348 -0.490467 -0.48836637 0.018931847 -0.617387
0.16248836 0.7091821 0.3553475 1.1018225 -1.1618364 -0.8046303 -2.129979 0.56101507
-0.016689627 0.8135442 1.8669772 -1.2016009 0.55920047 0.5301587 -1.0223228 -1.2035203
-0.025347674 -0.48705497 0.62033373 0.12065248 -1.3875122 -0.7285091 0.74463505 0.35295966
0.41630757 0.15972324 0.13083953 0.77386576 -1.5805919 0.10512963 0.56594676 -0.38517964
0.84478635 -0.08069361 0.18013611 0.46137407 -0.9668115 -1.0839894 0.9912624 1.1640322
-0.066617675 -1.0759234 1.5386269 1.2130711 0.27623615 -0.07492788 0.9723773 0.5700794
1.7179271 -0.11704251 2.1844385 -0.69124866 -0.03278267 -1.7616735 -1.0214852 -0.14726764
1.0511469 0.3180828 0.4357883 -0.52377766 0.758758 0.19540407 0.3323095 0.5962918
0.16099353 -0.50666404 -0.29015234 -1.1198419 0.69154114 0.8640742 1.5613921 -0.57955134
-0.052385554 -1.0548086 -1.6860908 0.90154845 -0.45373952 -0.4516698 1.129923 1.080272
0.057688255 0.6985872 -0.4052623 0.22562702 1.0162305 0.93848014 -0.8319809 -0.046932437
-1.0781637 -0.27808696 0.28542668 -0.67627007 2.0090692 0.2667141 -0.5206597 0.44152993
-0.061076377 0.031439666 -0.19829217 0.031326212 -0.047812406 0.0059320224 0.02615507 0.023917222
-0.15230113 -0.0014081597 -0.04132525 -0.06310673 -0.26154014 0.24066615 0.050056815 0.05651161
-0.10988713 -0.206992 -0.11690546 0.031060243 0.31930816 0.03161202 0.30726928 0.023491323
-0.062691465 -0.09423902 0.030583546 -0.056860123 0.017240146 0.15958342 -0.25650775 0.14131689
-0.3149638 0.0103014 0.05754217 -0.09425669 0.0614366 -0.14642388 0.10087525 -0.029889213
0.127568 -0.050363727 0.049729485 0.037196547 -0.05099057 -0.0074991495 -0.004292568 -0.11709474
0.029007973 0.067197576 -0.02164925 -0.19459374 0.11392769 0.14182785 0.06555209 -0.13622223
0.118582964 0.024228105 -0.31553745 -0.00075004145 -0.008424103 -0.2112849 -0.071300164 -0.11605979

actor.bias f4 [3]
00000000: 80ce 29be 0b8a 29be 84fb 393e
-0.1658268 -0.16556565 0.18162352

critic.weight f4 [1, 64]
00000000: f6d6 563b 7fe2 68bb 25d9 16bc ad53 8b3c
00000010: 8c58 2b3a 785e f23b 9485 ac3a 35da 393c
00000020: 59c9 6f3b 191d 8dbb 10c0 2abd a7dc d03b
00000030: 46c7 683d 9268 82bd f4a3 56bd 5de8 8b3c
00000040: f7be 4bbc de78 51bd 28c5 dbbc a4a5 f9bc
00000050: 5584 043e 3839 d1bc 0988 293d 983e 62bc
00000060: 7b7a dc3c d2b1 b13b 7740 f13b ca87 46bc
00000070: f253 bebb 964a 4a3c bcb9 b6bc afb2 3dbc
00000080: 1ec9 0abd eaba e9bb 7e84 45bb 5626 9fbc
00000090: b0e9 c2bb 20d5 d63c ed3d 313d 3fff f13c
000000a0: 6fcf edbc 6fa3 97bb d862 bbbc 8b8e 143b
000000b0: f8ac 12bc 083c 9f3c 3452 2aba 2c3a b138
000000c0: 8314 75ba 7c4a a53a 35f8 5f3b 99c0 b0bc
000000d0: d643 dbbb 6ab3 d9bc ed6f 9bba daea 95bd
000000e0: 4eb9 7a3d 1deb 06bc c7d0 dbbd 289b 243d
000000f0: fce1 b23b 34a2 ac3c 6757 5cbc 066f 1c39
0.0032781935 -0.0035535393 -0.009207045 0.017007673 0.0006536327 0.0073965155 0.0013162368 0.0113435285
0.0036588518 -0.004306447 -0.04168707 0.00637396 0.056830667 -0.063676015 -0.05240245 0.017078573
-0.012435666 -0.05114066 -0.02682741 -0.030474491 0.12941106 -0.02553998 0.0413895 -0.013808869
0.026913872 0.005422809 0.007362421 -0.012117336 -0.005808347 0.012346884 -0.022305362 -0.011578246
-0.033883207 -0.0071328776 -0.0030138786 -0.01942746 -0.005948268 0.026224673 0.043271948 0.029540656
-0.029029576 -0.004627637 -0.02287428 0.002266797 -0.008952372 0.019437805 -0.00064972346 8.450853e-05
-0.0009349065 0.0012610699 0.0034175043 -0.021576213 -0.0066914363 -0.02657481 -0.0011858918 -0.07320185
0.061211877 -0.008234766 -0.107331805 0.04018703 0.0054590683 0.021073438 -0.013448573 0.00014918679
